{"backend": "tensorflow", "class_name": "Model", "config": {"layers": [{"inbound_nodes": [], "class_name": "InputLayer", "config": {"batch_input_shape": [null, 299, 299, 3], "sparse": false, "name": "input_6", "dtype": "float32"}, "name": "input_6"}, {"inbound_nodes": [[["input_6", 0, 0, {}]]], "class_name": "Conv2D", "config": {"bias_initializer": {"class_name": "Zeros", "config": {}}, "strides": [2, 2], "activity_regularizer": null, "trainable": true, "kernel_regularizer": null, "data_format": "channels_last", "kernel_initializer": {"class_name": "VarianceScaling", "config": {"mode": "fan_avg", "distribution": "uniform", "scale": 1.0, "seed": null}}, "name": "conv2d_471", "bias_regularizer": null, "kernel_constraint": null, "bias_constraint": null, "activation": "linear", "use_bias": false, "dilation_rate": [1, 1], "kernel_size": [3, 3], "filters": 32, "padding": "valid"}, "name": "conv2d_471"}, {"inbound_nodes": [[["conv2d_471", 0, 0, {}]]], "class_name": "BatchNormalization", "config": {"gamma_regularizer": null, "trainable": true, "gamma_initializer": {"class_name": "Ones", "config": {}}, "beta_initializer": {"class_name": "Zeros", "config": {}}, "epsilon": 0.001, "axis": 3, "beta_regularizer": null, "beta_constraint": null, "gamma_constraint": null, "scale": false, "moving_mean_initializer": {"class_name": "Zeros", "config": {}}, "moving_variance_initializer": {"class_name": "Ones", "config": {}}, "name": "batch_normalization_471", "momentum": 0.99, "center": true}, "name": "batch_normalization_471"}, {"inbound_nodes": [[["batch_normalization_471", 0, 0, {}]]], "class_name": "Activation", "config": {"activation": "relu", "name": "activation_471", "trainable": true}, "name": "activation_471"}, {"inbound_nodes": [[["activation_471", 0, 0, {}]]], "class_name": "Conv2D", "config": {"bias_initializer": {"class_name": "Zeros", "config": {}}, "strides": [1, 1], "activity_regularizer": null, "trainable": true, "kernel_regularizer": null, "data_format": "channels_last", "kernel_initializer": {"class_name": "VarianceScaling", "config": {"mode": "fan_avg", "distribution": "uniform", "scale": 1.0, "seed": null}}, "name": "conv2d_472", "bias_regularizer": null, "kernel_constraint": null, "bias_constraint": null, "activation": "linear", "use_bias": false, "dilation_rate": [1, 1], "kernel_size": [3, 3], "filters": 32, "padding": "valid"}, "name": "conv2d_472"}, {"inbound_nodes": [[["conv2d_472", 0, 0, {}]]], "class_name": "BatchNormalization", "config": {"gamma_regularizer": null, "trainable": true, "gamma_initializer": {"class_name": "Ones", "config": {}}, "beta_initializer": {"class_name": "Zeros", "config": {}}, "epsilon": 0.001, "axis": 3, "beta_regularizer": null, "beta_constraint": null, "gamma_constraint": null, "scale": false, "moving_mean_initializer": {"class_name": "Zeros", "config": {}}, "moving_variance_initializer": {"class_name": "Ones", "config": {}}, "name": "batch_normalization_472", "momentum": 0.99, "center": true}, "name": "batch_normalization_472"}, {"inbound_nodes": [[["batch_normalization_472", 0, 0, {}]]], "class_name": "Activation", "config": {"activation": "relu", "name": "activation_472", "trainable": true}, "name": "activation_472"}, {"inbound_nodes": [[["activation_472", 0, 0, {}]]], "class_name": "Conv2D", "config": {"bias_initializer": {"class_name": "Zeros", "config": {}}, "strides": [1, 1], "activity_regularizer": null, "trainable": true, "kernel_regularizer": null, "data_format": "channels_last", "kernel_initializer": {"class_name": "VarianceScaling", "config": {"mode": "fan_avg", "distribution": "uniform", "scale": 1.0, "seed": null}}, "name": "conv2d_473", "bias_regularizer": null, "kernel_constraint": null, "bias_constraint": null, "activation": "linear", "use_bias": false, "dilation_rate": [1, 1], "kernel_size": [3, 3], "filters": 64, "padding": "same"}, "name": "conv2d_473"}, {"inbound_nodes": [[["conv2d_473", 0, 0, {}]]], "class_name": "BatchNormalization", "config": {"gamma_regularizer": null, "trainable": true, "gamma_initializer": {"class_name": "Ones", "config": {}}, "beta_initializer": {"class_name": "Zeros", "config": {}}, "epsilon": 0.001, "axis": 3, "beta_regularizer": null, "beta_constraint": null, "gamma_constraint": null, "scale": false, "moving_mean_initializer": {"class_name": "Zeros", "config": {}}, "moving_variance_initializer": {"class_name": "Ones", "config": {}}, "name": "batch_normalization_473", "momentum": 0.99, "center": true}, "name": "batch_normalization_473"}, {"inbound_nodes": [[["batch_normalization_473", 0, 0, {}]]], "class_name": "Activation", "config": {"activation": "relu", "name": "activation_473", "trainable": true}, "name": "activation_473"}, {"inbound_nodes": [[["activation_473", 0, 0, {}]]], "class_name": "MaxPooling2D", "config": {"data_format": "channels_last", "name": "max_pooling2d_21", "pool_size": [3, 3], "trainable": true, "strides": [2, 2], "padding": "valid"}, "name": "max_pooling2d_21"}, {"inbound_nodes": [[["max_pooling2d_21", 0, 0, {}]]], "class_name": "Conv2D", "config": {"bias_initializer": {"class_name": "Zeros", "config": {}}, "strides": [1, 1], "activity_regularizer": null, "trainable": true, "kernel_regularizer": null, "data_format": "channels_last", "kernel_initializer": {"class_name": "VarianceScaling", "config": {"mode": "fan_avg", "distribution": "uniform", "scale": 1.0, "seed": null}}, "name": "conv2d_474", "bias_regularizer": null, "kernel_constraint": null, "bias_constraint": null, "activation": "linear", "use_bias": false, "dilation_rate": [1, 1], "kernel_size": [1, 1], "filters": 80, "padding": "valid"}, "name": "conv2d_474"}, {"inbound_nodes": [[["conv2d_474", 0, 0, {}]]], "class_name": "BatchNormalization", "config": {"gamma_regularizer": null, "trainable": true, "gamma_initializer": {"class_name": "Ones", "config": {}}, "beta_initializer": {"class_name": "Zeros", "config": {}}, "epsilon": 0.001, "axis": 3, "beta_regularizer": null, "beta_constraint": null, "gamma_constraint": null, "scale": false, "moving_mean_initializer": {"class_name": "Zeros", "config": {}}, "moving_variance_initializer": {"class_name": "Ones", "config": {}}, "name": "batch_normalization_474", "momentum": 0.99, "center": true}, "name": "batch_normalization_474"}, {"inbound_nodes": [[["batch_normalization_474", 0, 0, {}]]], "class_name": "Activation", "config": {"activation": "relu", "name": "activation_474", "trainable": true}, "name": "activation_474"}, {"inbound_nodes": [[["activation_474", 0, 0, {}]]], "class_name": "Conv2D", "config": {"bias_initializer": {"class_name": "Zeros", "config": {}}, "strides": [1, 1], "activity_regularizer": null, "trainable": true, "kernel_regularizer": null, "data_format": "channels_last", "kernel_initializer": {"class_name": "VarianceScaling", "config": {"mode": "fan_avg", "distribution": "uniform", "scale": 1.0, "seed": null}}, "name": "conv2d_475", "bias_regularizer": null, "kernel_constraint": null, "bias_constraint": null, "activation": "linear", "use_bias": false, "dilation_rate": [1, 1], "kernel_size": [3, 3], "filters": 192, "padding": "valid"}, "name": "conv2d_475"}, {"inbound_nodes": [[["conv2d_475", 0, 0, {}]]], "class_name": "BatchNormalization", "config": {"gamma_regularizer": null, "trainable": true, "gamma_initializer": {"class_name": "Ones", "config": {}}, "beta_initializer": {"class_name": "Zeros", "config": {}}, "epsilon": 0.001, "axis": 3, "beta_regularizer": null, "beta_constraint": null, "gamma_constraint": null, "scale": false, "moving_mean_initializer": {"class_name": "Zeros", "config": {}}, "moving_variance_initializer": {"class_name": "Ones", "config": {}}, "name": "batch_normalization_475", "momentum": 0.99, "center": true}, "name": "batch_normalization_475"}, {"inbound_nodes": [[["batch_normalization_475", 0, 0, {}]]], "class_name": "Activation", "config": {"activation": "relu", "name": "activation_475", "trainable": true}, "name": "activation_475"}, {"inbound_nodes": [[["activation_475", 0, 0, {}]]], "class_name": "MaxPooling2D", "config": {"data_format": "channels_last", "name": "max_pooling2d_22", "pool_size": [3, 3], "trainable": true, "strides": [2, 2], "padding": "valid"}, "name": "max_pooling2d_22"}, {"inbound_nodes": [[["max_pooling2d_22", 0, 0, {}]]], "class_name": "Conv2D", "config": {"bias_initializer": {"class_name": "Zeros", "config": {}}, "strides": [1, 1], "activity_regularizer": null, "trainable": true, "kernel_regularizer": null, "data_format": "channels_last", "kernel_initializer": {"class_name": "VarianceScaling", "config": {"mode": "fan_avg", "distribution": "uniform", "scale": 1.0, "seed": null}}, "name": "conv2d_479", "bias_regularizer": null, "kernel_constraint": null, "bias_constraint": null, "activation": "linear", "use_bias": false, "dilation_rate": [1, 1], "kernel_size": [1, 1], "filters": 64, "padding": "same"}, "name": "conv2d_479"}, {"inbound_nodes": [[["conv2d_479", 0, 0, {}]]], "class_name": "BatchNormalization", "config": {"gamma_regularizer": null, "trainable": true, "gamma_initializer": {"class_name": "Ones", "config": {}}, "beta_initializer": {"class_name": "Zeros", "config": {}}, "epsilon": 0.001, "axis": 3, "beta_regularizer": null, "beta_constraint": null, "gamma_constraint": null, "scale": false, "moving_mean_initializer": {"class_name": "Zeros", "config": {}}, "moving_variance_initializer": {"class_name": "Ones", "config": {}}, "name": "batch_normalization_479", "momentum": 0.99, "center": true}, "name": "batch_normalization_479"}, {"inbound_nodes": [[["batch_normalization_479", 0, 0, {}]]], "class_name": "Activation", "config": {"activation": "relu", "name": "activation_479", "trainable": true}, "name": "activation_479"}, {"inbound_nodes": [[["max_pooling2d_22", 0, 0, {}]]], "class_name": "Conv2D", "config": {"bias_initializer": {"class_name": "Zeros", "config": {}}, "strides": [1, 1], "activity_regularizer": null, "trainable": true, "kernel_regularizer": null, "data_format": "channels_last", "kernel_initializer": {"class_name": "VarianceScaling", "config": {"mode": "fan_avg", "distribution": "uniform", "scale": 1.0, "seed": null}}, "name": "conv2d_477", "bias_regularizer": null, "kernel_constraint": null, "bias_constraint": null, "activation": "linear", "use_bias": false, "dilation_rate": [1, 1], "kernel_size": [1, 1], "filters": 48, "padding": "same"}, "name": "conv2d_477"}, {"inbound_nodes": [[["activation_479", 0, 0, {}]]], "class_name": "Conv2D", "config": {"bias_initializer": {"class_name": "Zeros", "config": {}}, "strides": [1, 1], "activity_regularizer": null, "trainable": true, "kernel_regularizer": null, "data_format": "channels_last", "kernel_initializer": {"class_name": "VarianceScaling", "config": {"mode": "fan_avg", "distribution": "uniform", "scale": 1.0, "seed": null}}, "name": "conv2d_480", "bias_regularizer": null, "kernel_constraint": null, "bias_constraint": null, "activation": "linear", "use_bias": false, "dilation_rate": [1, 1], "kernel_size": [3, 3], "filters": 96, "padding": "same"}, "name": "conv2d_480"}, {"inbound_nodes": [[["conv2d_477", 0, 0, {}]]], "class_name": "BatchNormalization", "config": {"gamma_regularizer": null, "trainable": true, "gamma_initializer": {"class_name": "Ones", "config": {}}, "beta_initializer": {"class_name": "Zeros", "config": {}}, "epsilon": 0.001, "axis": 3, "beta_regularizer": null, "beta_constraint": null, "gamma_constraint": null, "scale": false, "moving_mean_initializer": {"class_name": "Zeros", "config": {}}, "moving_variance_initializer": {"class_name": "Ones", "config": {}}, "name": "batch_normalization_477", "momentum": 0.99, "center": true}, "name": "batch_normalization_477"}, {"inbound_nodes": [[["conv2d_480", 0, 0, {}]]], "class_name": "BatchNormalization", "config": {"gamma_regularizer": null, "trainable": true, "gamma_initializer": {"class_name": "Ones", "config": {}}, "beta_initializer": {"class_name": "Zeros", "config": {}}, "epsilon": 0.001, "axis": 3, "beta_regularizer": null, "beta_constraint": null, "gamma_constraint": null, "scale": false, "moving_mean_initializer": {"class_name": "Zeros", "config": {}}, "moving_variance_initializer": {"class_name": "Ones", "config": {}}, "name": "batch_normalization_480", "momentum": 0.99, "center": true}, "name": "batch_normalization_480"}, {"inbound_nodes": [[["batch_normalization_477", 0, 0, {}]]], "class_name": "Activation", "config": {"activation": "relu", "name": "activation_477", "trainable": true}, "name": "activation_477"}, {"inbound_nodes": [[["batch_normalization_480", 0, 0, {}]]], "class_name": "Activation", "config": {"activation": "relu", "name": "activation_480", "trainable": true}, "name": "activation_480"}, {"inbound_nodes": [[["max_pooling2d_22", 0, 0, {}]]], "class_name": "AveragePooling2D", "config": {"data_format": "channels_last", "name": "average_pooling2d_46", "pool_size": [3, 3], "trainable": true, "strides": [1, 1], "padding": "same"}, "name": "average_pooling2d_46"}, {"inbound_nodes": [[["max_pooling2d_22", 0, 0, {}]]], "class_name": "Conv2D", "config": {"bias_initializer": {"class_name": "Zeros", "config": {}}, "strides": [1, 1], "activity_regularizer": null, "trainable": true, "kernel_regularizer": null, "data_format": "channels_last", "kernel_initializer": {"class_name": "VarianceScaling", "config": {"mode": "fan_avg", "distribution": "uniform", "scale": 1.0, "seed": null}}, "name": "conv2d_476", "bias_regularizer": null, "kernel_constraint": null, "bias_constraint": null, "activation": "linear", "use_bias": false, "dilation_rate": [1, 1], "kernel_size": [1, 1], "filters": 64, "padding": "same"}, "name": "conv2d_476"}, {"inbound_nodes": [[["activation_477", 0, 0, {}]]], "class_name": "Conv2D", "config": {"bias_initializer": {"class_name": "Zeros", "config": {}}, "strides": [1, 1], "activity_regularizer": null, "trainable": true, "kernel_regularizer": null, "data_format": "channels_last", "kernel_initializer": {"class_name": "VarianceScaling", "config": {"mode": "fan_avg", "distribution": "uniform", "scale": 1.0, "seed": null}}, "name": "conv2d_478", "bias_regularizer": null, "kernel_constraint": null, "bias_constraint": null, "activation": "linear", "use_bias": false, "dilation_rate": [1, 1], "kernel_size": [5, 5], "filters": 64, "padding": "same"}, "name": "conv2d_478"}, {"inbound_nodes": [[["activation_480", 0, 0, {}]]], "class_name": "Conv2D", "config": {"bias_initializer": {"class_name": "Zeros", "config": {}}, "strides": [1, 1], "activity_regularizer": null, "trainable": true, "kernel_regularizer": null, "data_format": "channels_last", "kernel_initializer": {"class_name": "VarianceScaling", "config": {"mode": "fan_avg", "distribution": "uniform", "scale": 1.0, "seed": null}}, "name": "conv2d_481", "bias_regularizer": null, "kernel_constraint": null, "bias_constraint": null, "activation": "linear", "use_bias": false, "dilation_rate": [1, 1], "kernel_size": [3, 3], "filters": 96, "padding": "same"}, "name": "conv2d_481"}, {"inbound_nodes": [[["average_pooling2d_46", 0, 0, {}]]], "class_name": "Conv2D", "config": {"bias_initializer": {"class_name": "Zeros", "config": {}}, "strides": [1, 1], "activity_regularizer": null, "trainable": true, "kernel_regularizer": null, "data_format": "channels_last", "kernel_initializer": {"class_name": "VarianceScaling", "config": {"mode": "fan_avg", "distribution": "uniform", "scale": 1.0, "seed": null}}, "name": "conv2d_482", "bias_regularizer": null, "kernel_constraint": null, "bias_constraint": null, "activation": "linear", "use_bias": false, "dilation_rate": [1, 1], "kernel_size": [1, 1], "filters": 32, "padding": "same"}, "name": "conv2d_482"}, {"inbound_nodes": [[["conv2d_476", 0, 0, {}]]], "class_name": "BatchNormalization", "config": {"gamma_regularizer": null, "trainable": true, "gamma_initializer": {"class_name": "Ones", "config": {}}, "beta_initializer": {"class_name": "Zeros", "config": {}}, "epsilon": 0.001, "axis": 3, "beta_regularizer": null, "beta_constraint": null, "gamma_constraint": null, "scale": false, "moving_mean_initializer": {"class_name": "Zeros", "config": {}}, "moving_variance_initializer": {"class_name": "Ones", "config": {}}, "name": "batch_normalization_476", "momentum": 0.99, "center": true}, "name": "batch_normalization_476"}, {"inbound_nodes": [[["conv2d_478", 0, 0, {}]]], "class_name": "BatchNormalization", "config": {"gamma_regularizer": null, "trainable": true, "gamma_initializer": {"class_name": "Ones", "config": {}}, "beta_initializer": {"class_name": "Zeros", "config": {}}, "epsilon": 0.001, "axis": 3, "beta_regularizer": null, "beta_constraint": null, "gamma_constraint": null, "scale": false, "moving_mean_initializer": {"class_name": "Zeros", "config": {}}, "moving_variance_initializer": {"class_name": "Ones", "config": {}}, "name": "batch_normalization_478", "momentum": 0.99, "center": true}, "name": "batch_normalization_478"}, {"inbound_nodes": [[["conv2d_481", 0, 0, {}]]], "class_name": "BatchNormalization", "config": {"gamma_regularizer": null, "trainable": true, "gamma_initializer": {"class_name": "Ones", "config": {}}, "beta_initializer": {"class_name": "Zeros", "config": {}}, "epsilon": 0.001, "axis": 3, "beta_regularizer": null, "beta_constraint": null, "gamma_constraint": null, "scale": false, "moving_mean_initializer": {"class_name": "Zeros", "config": {}}, "moving_variance_initializer": {"class_name": "Ones", "config": {}}, "name": "batch_normalization_481", "momentum": 0.99, "center": true}, "name": "batch_normalization_481"}, {"inbound_nodes": [[["conv2d_482", 0, 0, {}]]], "class_name": "BatchNormalization", "config": {"gamma_regularizer": null, "trainable": true, "gamma_initializer": {"class_name": "Ones", "config": {}}, "beta_initializer": {"class_name": "Zeros", "config": {}}, "epsilon": 0.001, "axis": 3, "beta_regularizer": null, "beta_constraint": null, "gamma_constraint": null, "scale": false, "moving_mean_initializer": {"class_name": "Zeros", "config": {}}, "moving_variance_initializer": {"class_name": "Ones", "config": {}}, "name": "batch_normalization_482", "momentum": 0.99, "center": true}, "name": "batch_normalization_482"}, {"inbound_nodes": [[["batch_normalization_476", 0, 0, {}]]], "class_name": "Activation", "config": {"activation": "relu", "name": "activation_476", "trainable": true}, "name": "activation_476"}, {"inbound_nodes": [[["batch_normalization_478", 0, 0, {}]]], "class_name": "Activation", "config": {"activation": "relu", "name": "activation_478", "trainable": true}, "name": "activation_478"}, {"inbound_nodes": [[["batch_normalization_481", 0, 0, {}]]], "class_name": "Activation", "config": {"activation": "relu", "name": "activation_481", "trainable": true}, "name": "activation_481"}, {"inbound_nodes": [[["batch_normalization_482", 0, 0, {}]]], "class_name": "Activation", "config": {"activation": "relu", "name": "activation_482", "trainable": true}, "name": "activation_482"}, {"inbound_nodes": [[["activation_476", 0, 0, {}], ["activation_478", 0, 0, {}], ["activation_481", 0, 0, {}], ["activation_482", 0, 0, {}]]], "class_name": "Concatenate", "config": {"name": "mixed0", "axis": 3, "trainable": true}, "name": "mixed0"}, {"inbound_nodes": [[["mixed0", 0, 0, {}]]], "class_name": "Conv2D", "config": {"bias_initializer": {"class_name": "Zeros", "config": {}}, "strides": [1, 1], "activity_regularizer": null, "trainable": true, "kernel_regularizer": null, "data_format": "channels_last", "kernel_initializer": {"class_name": "VarianceScaling", "config": {"mode": "fan_avg", "distribution": "uniform", "scale": 1.0, "seed": null}}, "name": "conv2d_486", "bias_regularizer": null, "kernel_constraint": null, "bias_constraint": null, "activation": "linear", "use_bias": false, "dilation_rate": [1, 1], "kernel_size": [1, 1], "filters": 64, "padding": "same"}, "name": "conv2d_486"}, {"inbound_nodes": [[["conv2d_486", 0, 0, {}]]], "class_name": "BatchNormalization", "config": {"gamma_regularizer": null, "trainable": true, "gamma_initializer": {"class_name": "Ones", "config": {}}, "beta_initializer": {"class_name": "Zeros", "config": {}}, "epsilon": 0.001, "axis": 3, "beta_regularizer": null, "beta_constraint": null, "gamma_constraint": null, "scale": false, "moving_mean_initializer": {"class_name": "Zeros", "config": {}}, "moving_variance_initializer": {"class_name": "Ones", "config": {}}, "name": "batch_normalization_486", "momentum": 0.99, "center": true}, "name": "batch_normalization_486"}, {"inbound_nodes": [[["batch_normalization_486", 0, 0, {}]]], "class_name": "Activation", "config": {"activation": "relu", "name": "activation_486", "trainable": true}, "name": "activation_486"}, {"inbound_nodes": [[["mixed0", 0, 0, {}]]], "class_name": "Conv2D", "config": {"bias_initializer": {"class_name": "Zeros", "config": {}}, "strides": [1, 1], "activity_regularizer": null, "trainable": true, "kernel_regularizer": null, "data_format": "channels_last", "kernel_initializer": {"class_name": "VarianceScaling", "config": {"mode": "fan_avg", "distribution": "uniform", "scale": 1.0, "seed": null}}, "name": "conv2d_484", "bias_regularizer": null, "kernel_constraint": null, "bias_constraint": null, "activation": "linear", "use_bias": false, "dilation_rate": [1, 1], "kernel_size": [1, 1], "filters": 48, "padding": "same"}, "name": "conv2d_484"}, {"inbound_nodes": [[["activation_486", 0, 0, {}]]], "class_name": "Conv2D", "config": {"bias_initializer": {"class_name": "Zeros", "config": {}}, "strides": [1, 1], "activity_regularizer": null, "trainable": true, "kernel_regularizer": null, "data_format": "channels_last", "kernel_initializer": {"class_name": "VarianceScaling", "config": {"mode": "fan_avg", "distribution": "uniform", "scale": 1.0, "seed": null}}, "name": "conv2d_487", "bias_regularizer": null, "kernel_constraint": null, "bias_constraint": null, "activation": "linear", "use_bias": false, "dilation_rate": [1, 1], "kernel_size": [3, 3], "filters": 96, "padding": "same"}, "name": "conv2d_487"}, {"inbound_nodes": [[["conv2d_484", 0, 0, {}]]], "class_name": "BatchNormalization", "config": {"gamma_regularizer": null, "trainable": true, "gamma_initializer": {"class_name": "Ones", "config": {}}, "beta_initializer": {"class_name": "Zeros", "config": {}}, "epsilon": 0.001, "axis": 3, "beta_regularizer": null, "beta_constraint": null, "gamma_constraint": null, "scale": false, "moving_mean_initializer": {"class_name": "Zeros", "config": {}}, "moving_variance_initializer": {"class_name": "Ones", "config": {}}, "name": "batch_normalization_484", "momentum": 0.99, "center": true}, "name": "batch_normalization_484"}, {"inbound_nodes": [[["conv2d_487", 0, 0, {}]]], "class_name": "BatchNormalization", "config": {"gamma_regularizer": null, "trainable": true, "gamma_initializer": {"class_name": "Ones", "config": {}}, "beta_initializer": {"class_name": "Zeros", "config": {}}, "epsilon": 0.001, "axis": 3, "beta_regularizer": null, "beta_constraint": null, "gamma_constraint": null, "scale": false, "moving_mean_initializer": {"class_name": "Zeros", "config": {}}, "moving_variance_initializer": {"class_name": "Ones", "config": {}}, "name": "batch_normalization_487", "momentum": 0.99, "center": true}, "name": "batch_normalization_487"}, {"inbound_nodes": [[["batch_normalization_484", 0, 0, {}]]], "class_name": "Activation", "config": {"activation": "relu", "name": "activation_484", "trainable": true}, "name": "activation_484"}, {"inbound_nodes": [[["batch_normalization_487", 0, 0, {}]]], "class_name": "Activation", "config": {"activation": "relu", "name": "activation_487", "trainable": true}, "name": "activation_487"}, {"inbound_nodes": [[["mixed0", 0, 0, {}]]], "class_name": "AveragePooling2D", "config": {"data_format": "channels_last", "name": "average_pooling2d_47", "pool_size": [3, 3], "trainable": true, "strides": [1, 1], "padding": "same"}, "name": "average_pooling2d_47"}, {"inbound_nodes": [[["mixed0", 0, 0, {}]]], "class_name": "Conv2D", "config": {"bias_initializer": {"class_name": "Zeros", "config": {}}, "strides": [1, 1], "activity_regularizer": null, "trainable": true, "kernel_regularizer": null, "data_format": "channels_last", "kernel_initializer": {"class_name": "VarianceScaling", "config": {"mode": "fan_avg", "distribution": "uniform", "scale": 1.0, "seed": null}}, "name": "conv2d_483", "bias_regularizer": null, "kernel_constraint": null, "bias_constraint": null, "activation": "linear", "use_bias": false, "dilation_rate": [1, 1], "kernel_size": [1, 1], "filters": 64, "padding": "same"}, "name": "conv2d_483"}, {"inbound_nodes": [[["activation_484", 0, 0, {}]]], "class_name": "Conv2D", "config": {"bias_initializer": {"class_name": "Zeros", "config": {}}, "strides": [1, 1], "activity_regularizer": null, "trainable": true, "kernel_regularizer": null, "data_format": "channels_last", "kernel_initializer": {"class_name": "VarianceScaling", "config": {"mode": "fan_avg", "distribution": "uniform", "scale": 1.0, "seed": null}}, "name": "conv2d_485", "bias_regularizer": null, "kernel_constraint": null, "bias_constraint": null, "activation": "linear", "use_bias": false, "dilation_rate": [1, 1], "kernel_size": [5, 5], "filters": 64, "padding": "same"}, "name": "conv2d_485"}, {"inbound_nodes": [[["activation_487", 0, 0, {}]]], "class_name": "Conv2D", "config": {"bias_initializer": {"class_name": "Zeros", "config": {}}, "strides": [1, 1], "activity_regularizer": null, "trainable": true, "kernel_regularizer": null, "data_format": "channels_last", "kernel_initializer": {"class_name": "VarianceScaling", "config": {"mode": "fan_avg", "distribution": "uniform", "scale": 1.0, "seed": null}}, "name": "conv2d_488", "bias_regularizer": null, "kernel_constraint": null, "bias_constraint": null, "activation": "linear", "use_bias": false, "dilation_rate": [1, 1], "kernel_size": [3, 3], "filters": 96, "padding": "same"}, "name": "conv2d_488"}, {"inbound_nodes": [[["average_pooling2d_47", 0, 0, {}]]], "class_name": "Conv2D", "config": {"bias_initializer": {"class_name": "Zeros", "config": {}}, "strides": [1, 1], "activity_regularizer": null, "trainable": true, "kernel_regularizer": null, "data_format": "channels_last", "kernel_initializer": {"class_name": "VarianceScaling", "config": {"mode": "fan_avg", "distribution": "uniform", "scale": 1.0, "seed": null}}, "name": "conv2d_489", "bias_regularizer": null, "kernel_constraint": null, "bias_constraint": null, "activation": "linear", "use_bias": false, "dilation_rate": [1, 1], "kernel_size": [1, 1], "filters": 64, "padding": "same"}, "name": "conv2d_489"}, {"inbound_nodes": [[["conv2d_483", 0, 0, {}]]], "class_name": "BatchNormalization", "config": {"gamma_regularizer": null, "trainable": true, "gamma_initializer": {"class_name": "Ones", "config": {}}, "beta_initializer": {"class_name": "Zeros", "config": {}}, "epsilon": 0.001, "axis": 3, "beta_regularizer": null, "beta_constraint": null, "gamma_constraint": null, "scale": false, "moving_mean_initializer": {"class_name": "Zeros", "config": {}}, "moving_variance_initializer": {"class_name": "Ones", "config": {}}, "name": "batch_normalization_483", "momentum": 0.99, "center": true}, "name": "batch_normalization_483"}, {"inbound_nodes": [[["conv2d_485", 0, 0, {}]]], "class_name": "BatchNormalization", "config": {"gamma_regularizer": null, "trainable": true, "gamma_initializer": {"class_name": "Ones", "config": {}}, "beta_initializer": {"class_name": "Zeros", "config": {}}, "epsilon": 0.001, "axis": 3, "beta_regularizer": null, "beta_constraint": null, "gamma_constraint": null, "scale": false, "moving_mean_initializer": {"class_name": "Zeros", "config": {}}, "moving_variance_initializer": {"class_name": "Ones", "config": {}}, "name": "batch_normalization_485", "momentum": 0.99, "center": true}, "name": "batch_normalization_485"}, {"inbound_nodes": [[["conv2d_488", 0, 0, {}]]], "class_name": "BatchNormalization", "config": {"gamma_regularizer": null, "trainable": true, "gamma_initializer": {"class_name": "Ones", "config": {}}, "beta_initializer": {"class_name": "Zeros", "config": {}}, "epsilon": 0.001, "axis": 3, "beta_regularizer": null, "beta_constraint": null, "gamma_constraint": null, "scale": false, "moving_mean_initializer": {"class_name": "Zeros", "config": {}}, "moving_variance_initializer": {"class_name": "Ones", "config": {}}, "name": "batch_normalization_488", "momentum": 0.99, "center": true}, "name": "batch_normalization_488"}, {"inbound_nodes": [[["conv2d_489", 0, 0, {}]]], "class_name": "BatchNormalization", "config": {"gamma_regularizer": null, "trainable": true, "gamma_initializer": {"class_name": "Ones", "config": {}}, "beta_initializer": {"class_name": "Zeros", "config": {}}, "epsilon": 0.001, "axis": 3, "beta_regularizer": null, "beta_constraint": null, "gamma_constraint": null, "scale": false, "moving_mean_initializer": {"class_name": "Zeros", "config": {}}, "moving_variance_initializer": {"class_name": "Ones", "config": {}}, "name": "batch_normalization_489", "momentum": 0.99, "center": true}, "name": "batch_normalization_489"}, {"inbound_nodes": [[["batch_normalization_483", 0, 0, {}]]], "class_name": "Activation", "config": {"activation": "relu", "name": "activation_483", "trainable": true}, "name": "activation_483"}, {"inbound_nodes": [[["batch_normalization_485", 0, 0, {}]]], "class_name": "Activation", "config": {"activation": "relu", "name": "activation_485", "trainable": true}, "name": "activation_485"}, {"inbound_nodes": [[["batch_normalization_488", 0, 0, {}]]], "class_name": "Activation", "config": {"activation": "relu", "name": "activation_488", "trainable": true}, "name": "activation_488"}, {"inbound_nodes": [[["batch_normalization_489", 0, 0, {}]]], "class_name": "Activation", "config": {"activation": "relu", "name": "activation_489", "trainable": true}, "name": "activation_489"}, {"inbound_nodes": [[["activation_483", 0, 0, {}], ["activation_485", 0, 0, {}], ["activation_488", 0, 0, {}], ["activation_489", 0, 0, {}]]], "class_name": "Concatenate", "config": {"name": "mixed1", "axis": 3, "trainable": true}, "name": "mixed1"}, {"inbound_nodes": [[["mixed1", 0, 0, {}]]], "class_name": "Conv2D", "config": {"bias_initializer": {"class_name": "Zeros", "config": {}}, "strides": [1, 1], "activity_regularizer": null, "trainable": true, "kernel_regularizer": null, "data_format": "channels_last", "kernel_initializer": {"class_name": "VarianceScaling", "config": {"mode": "fan_avg", "distribution": "uniform", "scale": 1.0, "seed": null}}, "name": "conv2d_493", "bias_regularizer": null, "kernel_constraint": null, "bias_constraint": null, "activation": "linear", "use_bias": false, "dilation_rate": [1, 1], "kernel_size": [1, 1], "filters": 64, "padding": "same"}, "name": "conv2d_493"}, {"inbound_nodes": [[["conv2d_493", 0, 0, {}]]], "class_name": "BatchNormalization", "config": {"gamma_regularizer": null, "trainable": true, "gamma_initializer": {"class_name": "Ones", "config": {}}, "beta_initializer": {"class_name": "Zeros", "config": {}}, "epsilon": 0.001, "axis": 3, "beta_regularizer": null, "beta_constraint": null, "gamma_constraint": null, "scale": false, "moving_mean_initializer": {"class_name": "Zeros", "config": {}}, "moving_variance_initializer": {"class_name": "Ones", "config": {}}, "name": "batch_normalization_493", "momentum": 0.99, "center": true}, "name": "batch_normalization_493"}, {"inbound_nodes": [[["batch_normalization_493", 0, 0, {}]]], "class_name": "Activation", "config": {"activation": "relu", "name": "activation_493", "trainable": true}, "name": "activation_493"}, {"inbound_nodes": [[["mixed1", 0, 0, {}]]], "class_name": "Conv2D", "config": {"bias_initializer": {"class_name": "Zeros", "config": {}}, "strides": [1, 1], "activity_regularizer": null, "trainable": true, "kernel_regularizer": null, "data_format": "channels_last", "kernel_initializer": {"class_name": "VarianceScaling", "config": {"mode": "fan_avg", "distribution": "uniform", "scale": 1.0, "seed": null}}, "name": "conv2d_491", "bias_regularizer": null, "kernel_constraint": null, "bias_constraint": null, "activation": "linear", "use_bias": false, "dilation_rate": [1, 1], "kernel_size": [1, 1], "filters": 48, "padding": "same"}, "name": "conv2d_491"}, {"inbound_nodes": [[["activation_493", 0, 0, {}]]], "class_name": "Conv2D", "config": {"bias_initializer": {"class_name": "Zeros", "config": {}}, "strides": [1, 1], "activity_regularizer": null, "trainable": true, "kernel_regularizer": null, "data_format": "channels_last", "kernel_initializer": {"class_name": "VarianceScaling", "config": {"mode": "fan_avg", "distribution": "uniform", "scale": 1.0, "seed": null}}, "name": "conv2d_494", "bias_regularizer": null, "kernel_constraint": null, "bias_constraint": null, "activation": "linear", "use_bias": false, "dilation_rate": [1, 1], "kernel_size": [3, 3], "filters": 96, "padding": "same"}, "name": "conv2d_494"}, {"inbound_nodes": [[["conv2d_491", 0, 0, {}]]], "class_name": "BatchNormalization", "config": {"gamma_regularizer": null, "trainable": true, "gamma_initializer": {"class_name": "Ones", "config": {}}, "beta_initializer": {"class_name": "Zeros", "config": {}}, "epsilon": 0.001, "axis": 3, "beta_regularizer": null, "beta_constraint": null, "gamma_constraint": null, "scale": false, "moving_mean_initializer": {"class_name": "Zeros", "config": {}}, "moving_variance_initializer": {"class_name": "Ones", "config": {}}, "name": "batch_normalization_491", "momentum": 0.99, "center": true}, "name": "batch_normalization_491"}, {"inbound_nodes": [[["conv2d_494", 0, 0, {}]]], "class_name": "BatchNormalization", "config": {"gamma_regularizer": null, "trainable": true, "gamma_initializer": {"class_name": "Ones", "config": {}}, "beta_initializer": {"class_name": "Zeros", "config": {}}, "epsilon": 0.001, "axis": 3, "beta_regularizer": null, "beta_constraint": null, "gamma_constraint": null, "scale": false, "moving_mean_initializer": {"class_name": "Zeros", "config": {}}, "moving_variance_initializer": {"class_name": "Ones", "config": {}}, "name": "batch_normalization_494", "momentum": 0.99, "center": true}, "name": "batch_normalization_494"}, {"inbound_nodes": [[["batch_normalization_491", 0, 0, {}]]], "class_name": "Activation", "config": {"activation": "relu", "name": "activation_491", "trainable": true}, "name": "activation_491"}, {"inbound_nodes": [[["batch_normalization_494", 0, 0, {}]]], "class_name": "Activation", "config": {"activation": "relu", "name": "activation_494", "trainable": true}, "name": "activation_494"}, {"inbound_nodes": [[["mixed1", 0, 0, {}]]], "class_name": "AveragePooling2D", "config": {"data_format": "channels_last", "name": "average_pooling2d_48", "pool_size": [3, 3], "trainable": true, "strides": [1, 1], "padding": "same"}, "name": "average_pooling2d_48"}, {"inbound_nodes": [[["mixed1", 0, 0, {}]]], "class_name": "Conv2D", "config": {"bias_initializer": {"class_name": "Zeros", "config": {}}, "strides": [1, 1], "activity_regularizer": null, "trainable": true, "kernel_regularizer": null, "data_format": "channels_last", "kernel_initializer": {"class_name": "VarianceScaling", "config": {"mode": "fan_avg", "distribution": "uniform", "scale": 1.0, "seed": null}}, "name": "conv2d_490", "bias_regularizer": null, "kernel_constraint": null, "bias_constraint": null, "activation": "linear", "use_bias": false, "dilation_rate": [1, 1], "kernel_size": [1, 1], "filters": 64, "padding": "same"}, "name": "conv2d_490"}, {"inbound_nodes": [[["activation_491", 0, 0, {}]]], "class_name": "Conv2D", "config": {"bias_initializer": {"class_name": "Zeros", "config": {}}, "strides": [1, 1], "activity_regularizer": null, "trainable": true, "kernel_regularizer": null, "data_format": "channels_last", "kernel_initializer": {"class_name": "VarianceScaling", "config": {"mode": "fan_avg", "distribution": "uniform", "scale": 1.0, "seed": null}}, "name": "conv2d_492", "bias_regularizer": null, "kernel_constraint": null, "bias_constraint": null, "activation": "linear", "use_bias": false, "dilation_rate": [1, 1], "kernel_size": [5, 5], "filters": 64, "padding": "same"}, "name": "conv2d_492"}, {"inbound_nodes": [[["activation_494", 0, 0, {}]]], "class_name": "Conv2D", "config": {"bias_initializer": {"class_name": "Zeros", "config": {}}, "strides": [1, 1], "activity_regularizer": null, "trainable": true, "kernel_regularizer": null, "data_format": "channels_last", "kernel_initializer": {"class_name": "VarianceScaling", "config": {"mode": "fan_avg", "distribution": "uniform", "scale": 1.0, "seed": null}}, "name": "conv2d_495", "bias_regularizer": null, "kernel_constraint": null, "bias_constraint": null, "activation": "linear", "use_bias": false, "dilation_rate": [1, 1], "kernel_size": [3, 3], "filters": 96, "padding": "same"}, "name": "conv2d_495"}, {"inbound_nodes": [[["average_pooling2d_48", 0, 0, {}]]], "class_name": "Conv2D", "config": {"bias_initializer": {"class_name": "Zeros", "config": {}}, "strides": [1, 1], "activity_regularizer": null, "trainable": true, "kernel_regularizer": null, "data_format": "channels_last", "kernel_initializer": {"class_name": "VarianceScaling", "config": {"mode": "fan_avg", "distribution": "uniform", "scale": 1.0, "seed": null}}, "name": "conv2d_496", "bias_regularizer": null, "kernel_constraint": null, "bias_constraint": null, "activation": "linear", "use_bias": false, "dilation_rate": [1, 1], "kernel_size": [1, 1], "filters": 64, "padding": "same"}, "name": "conv2d_496"}, {"inbound_nodes": [[["conv2d_490", 0, 0, {}]]], "class_name": "BatchNormalization", "config": {"gamma_regularizer": null, "trainable": true, "gamma_initializer": {"class_name": "Ones", "config": {}}, "beta_initializer": {"class_name": "Zeros", "config": {}}, "epsilon": 0.001, "axis": 3, "beta_regularizer": null, "beta_constraint": null, "gamma_constraint": null, "scale": false, "moving_mean_initializer": {"class_name": "Zeros", "config": {}}, "moving_variance_initializer": {"class_name": "Ones", "config": {}}, "name": "batch_normalization_490", "momentum": 0.99, "center": true}, "name": "batch_normalization_490"}, {"inbound_nodes": [[["conv2d_492", 0, 0, {}]]], "class_name": "BatchNormalization", "config": {"gamma_regularizer": null, "trainable": true, "gamma_initializer": {"class_name": "Ones", "config": {}}, "beta_initializer": {"class_name": "Zeros", "config": {}}, "epsilon": 0.001, "axis": 3, "beta_regularizer": null, "beta_constraint": null, "gamma_constraint": null, "scale": false, "moving_mean_initializer": {"class_name": "Zeros", "config": {}}, "moving_variance_initializer": {"class_name": "Ones", "config": {}}, "name": "batch_normalization_492", "momentum": 0.99, "center": true}, "name": "batch_normalization_492"}, {"inbound_nodes": [[["conv2d_495", 0, 0, {}]]], "class_name": "BatchNormalization", "config": {"gamma_regularizer": null, "trainable": true, "gamma_initializer": {"class_name": "Ones", "config": {}}, "beta_initializer": {"class_name": "Zeros", "config": {}}, "epsilon": 0.001, "axis": 3, "beta_regularizer": null, "beta_constraint": null, "gamma_constraint": null, "scale": false, "moving_mean_initializer": {"class_name": "Zeros", "config": {}}, "moving_variance_initializer": {"class_name": "Ones", "config": {}}, "name": "batch_normalization_495", "momentum": 0.99, "center": true}, "name": "batch_normalization_495"}, {"inbound_nodes": [[["conv2d_496", 0, 0, {}]]], "class_name": "BatchNormalization", "config": {"gamma_regularizer": null, "trainable": true, "gamma_initializer": {"class_name": "Ones", "config": {}}, "beta_initializer": {"class_name": "Zeros", "config": {}}, "epsilon": 0.001, "axis": 3, "beta_regularizer": null, "beta_constraint": null, "gamma_constraint": null, "scale": false, "moving_mean_initializer": {"class_name": "Zeros", "config": {}}, "moving_variance_initializer": {"class_name": "Ones", "config": {}}, "name": "batch_normalization_496", "momentum": 0.99, "center": true}, "name": "batch_normalization_496"}, {"inbound_nodes": [[["batch_normalization_490", 0, 0, {}]]], "class_name": "Activation", "config": {"activation": "relu", "name": "activation_490", "trainable": true}, "name": "activation_490"}, {"inbound_nodes": [[["batch_normalization_492", 0, 0, {}]]], "class_name": "Activation", "config": {"activation": "relu", "name": "activation_492", "trainable": true}, "name": "activation_492"}, {"inbound_nodes": [[["batch_normalization_495", 0, 0, {}]]], "class_name": "Activation", "config": {"activation": "relu", "name": "activation_495", "trainable": true}, "name": "activation_495"}, {"inbound_nodes": [[["batch_normalization_496", 0, 0, {}]]], "class_name": "Activation", "config": {"activation": "relu", "name": "activation_496", "trainable": true}, "name": "activation_496"}, {"inbound_nodes": [[["activation_490", 0, 0, {}], ["activation_492", 0, 0, {}], ["activation_495", 0, 0, {}], ["activation_496", 0, 0, {}]]], "class_name": "Concatenate", "config": {"name": "mixed2", "axis": 3, "trainable": true}, "name": "mixed2"}, {"inbound_nodes": [[["mixed2", 0, 0, {}]]], "class_name": "Conv2D", "config": {"bias_initializer": {"class_name": "Zeros", "config": {}}, "strides": [1, 1], "activity_regularizer": null, "trainable": true, "kernel_regularizer": null, "data_format": "channels_last", "kernel_initializer": {"class_name": "VarianceScaling", "config": {"mode": "fan_avg", "distribution": "uniform", "scale": 1.0, "seed": null}}, "name": "conv2d_498", "bias_regularizer": null, "kernel_constraint": null, "bias_constraint": null, "activation": "linear", "use_bias": false, "dilation_rate": [1, 1], "kernel_size": [1, 1], "filters": 64, "padding": "same"}, "name": "conv2d_498"}, {"inbound_nodes": [[["conv2d_498", 0, 0, {}]]], "class_name": "BatchNormalization", "config": {"gamma_regularizer": null, "trainable": true, "gamma_initializer": {"class_name": "Ones", "config": {}}, "beta_initializer": {"class_name": "Zeros", "config": {}}, "epsilon": 0.001, "axis": 3, "beta_regularizer": null, "beta_constraint": null, "gamma_constraint": null, "scale": false, "moving_mean_initializer": {"class_name": "Zeros", "config": {}}, "moving_variance_initializer": {"class_name": "Ones", "config": {}}, "name": "batch_normalization_498", "momentum": 0.99, "center": true}, "name": "batch_normalization_498"}, {"inbound_nodes": [[["batch_normalization_498", 0, 0, {}]]], "class_name": "Activation", "config": {"activation": "relu", "name": "activation_498", "trainable": true}, "name": "activation_498"}, {"inbound_nodes": [[["activation_498", 0, 0, {}]]], "class_name": "Conv2D", "config": {"bias_initializer": {"class_name": "Zeros", "config": {}}, "strides": [1, 1], "activity_regularizer": null, "trainable": true, "kernel_regularizer": null, "data_format": "channels_last", "kernel_initializer": {"class_name": "VarianceScaling", "config": {"mode": "fan_avg", "distribution": "uniform", "scale": 1.0, "seed": null}}, "name": "conv2d_499", "bias_regularizer": null, "kernel_constraint": null, "bias_constraint": null, "activation": "linear", "use_bias": false, "dilation_rate": [1, 1], "kernel_size": [3, 3], "filters": 96, "padding": "same"}, "name": "conv2d_499"}, {"inbound_nodes": [[["conv2d_499", 0, 0, {}]]], "class_name": "BatchNormalization", "config": {"gamma_regularizer": null, "trainable": true, "gamma_initializer": {"class_name": "Ones", "config": {}}, "beta_initializer": {"class_name": "Zeros", "config": {}}, "epsilon": 0.001, "axis": 3, "beta_regularizer": null, "beta_constraint": null, "gamma_constraint": null, "scale": false, "moving_mean_initializer": {"class_name": "Zeros", "config": {}}, "moving_variance_initializer": {"class_name": "Ones", "config": {}}, "name": "batch_normalization_499", "momentum": 0.99, "center": true}, "name": "batch_normalization_499"}, {"inbound_nodes": [[["batch_normalization_499", 0, 0, {}]]], "class_name": "Activation", "config": {"activation": "relu", "name": "activation_499", "trainable": true}, "name": "activation_499"}, {"inbound_nodes": [[["mixed2", 0, 0, {}]]], "class_name": "Conv2D", "config": {"bias_initializer": {"class_name": "Zeros", "config": {}}, "strides": [2, 2], "activity_regularizer": null, "trainable": true, "kernel_regularizer": null, "data_format": "channels_last", "kernel_initializer": {"class_name": "VarianceScaling", "config": {"mode": "fan_avg", "distribution": "uniform", "scale": 1.0, "seed": null}}, "name": "conv2d_497", "bias_regularizer": null, "kernel_constraint": null, "bias_constraint": null, "activation": "linear", "use_bias": false, "dilation_rate": [1, 1], "kernel_size": [3, 3], "filters": 384, "padding": "valid"}, "name": "conv2d_497"}, {"inbound_nodes": [[["activation_499", 0, 0, {}]]], "class_name": "Conv2D", "config": {"bias_initializer": {"class_name": "Zeros", "config": {}}, "strides": [2, 2], "activity_regularizer": null, "trainable": true, "kernel_regularizer": null, "data_format": "channels_last", "kernel_initializer": {"class_name": "VarianceScaling", "config": {"mode": "fan_avg", "distribution": "uniform", "scale": 1.0, "seed": null}}, "name": "conv2d_500", "bias_regularizer": null, "kernel_constraint": null, "bias_constraint": null, "activation": "linear", "use_bias": false, "dilation_rate": [1, 1], "kernel_size": [3, 3], "filters": 96, "padding": "valid"}, "name": "conv2d_500"}, {"inbound_nodes": [[["conv2d_497", 0, 0, {}]]], "class_name": "BatchNormalization", "config": {"gamma_regularizer": null, "trainable": true, "gamma_initializer": {"class_name": "Ones", "config": {}}, "beta_initializer": {"class_name": "Zeros", "config": {}}, "epsilon": 0.001, "axis": 3, "beta_regularizer": null, "beta_constraint": null, "gamma_constraint": null, "scale": false, "moving_mean_initializer": {"class_name": "Zeros", "config": {}}, "moving_variance_initializer": {"class_name": "Ones", "config": {}}, "name": "batch_normalization_497", "momentum": 0.99, "center": true}, "name": "batch_normalization_497"}, {"inbound_nodes": [[["conv2d_500", 0, 0, {}]]], "class_name": "BatchNormalization", "config": {"gamma_regularizer": null, "trainable": true, "gamma_initializer": {"class_name": "Ones", "config": {}}, "beta_initializer": {"class_name": "Zeros", "config": {}}, "epsilon": 0.001, "axis": 3, "beta_regularizer": null, "beta_constraint": null, "gamma_constraint": null, "scale": false, "moving_mean_initializer": {"class_name": "Zeros", "config": {}}, "moving_variance_initializer": {"class_name": "Ones", "config": {}}, "name": "batch_normalization_500", "momentum": 0.99, "center": true}, "name": "batch_normalization_500"}, {"inbound_nodes": [[["batch_normalization_497", 0, 0, {}]]], "class_name": "Activation", "config": {"activation": "relu", "name": "activation_497", "trainable": true}, "name": "activation_497"}, {"inbound_nodes": [[["batch_normalization_500", 0, 0, {}]]], "class_name": "Activation", "config": {"activation": "relu", "name": "activation_500", "trainable": true}, "name": "activation_500"}, {"inbound_nodes": [[["mixed2", 0, 0, {}]]], "class_name": "MaxPooling2D", "config": {"data_format": "channels_last", "name": "max_pooling2d_23", "pool_size": [3, 3], "trainable": true, "strides": [2, 2], "padding": "valid"}, "name": "max_pooling2d_23"}, {"inbound_nodes": [[["activation_497", 0, 0, {}], ["activation_500", 0, 0, {}], ["max_pooling2d_23", 0, 0, {}]]], "class_name": "Concatenate", "config": {"name": "mixed3", "axis": 3, "trainable": true}, "name": "mixed3"}, {"inbound_nodes": [[["mixed3", 0, 0, {}]]], "class_name": "Conv2D", "config": {"bias_initializer": {"class_name": "Zeros", "config": {}}, "strides": [1, 1], "activity_regularizer": null, "trainable": true, "kernel_regularizer": null, "data_format": "channels_last", "kernel_initializer": {"class_name": "VarianceScaling", "config": {"mode": "fan_avg", "distribution": "uniform", "scale": 1.0, "seed": null}}, "name": "conv2d_505", "bias_regularizer": null, "kernel_constraint": null, "bias_constraint": null, "activation": "linear", "use_bias": false, "dilation_rate": [1, 1], "kernel_size": [1, 1], "filters": 128, "padding": "same"}, "name": "conv2d_505"}, {"inbound_nodes": [[["conv2d_505", 0, 0, {}]]], "class_name": "BatchNormalization", "config": {"gamma_regularizer": null, "trainable": true, "gamma_initializer": {"class_name": "Ones", "config": {}}, "beta_initializer": {"class_name": "Zeros", "config": {}}, "epsilon": 0.001, "axis": 3, "beta_regularizer": null, "beta_constraint": null, "gamma_constraint": null, "scale": false, "moving_mean_initializer": {"class_name": "Zeros", "config": {}}, "moving_variance_initializer": {"class_name": "Ones", "config": {}}, "name": "batch_normalization_505", "momentum": 0.99, "center": true}, "name": "batch_normalization_505"}, {"inbound_nodes": [[["batch_normalization_505", 0, 0, {}]]], "class_name": "Activation", "config": {"activation": "relu", "name": "activation_505", "trainable": true}, "name": "activation_505"}, {"inbound_nodes": [[["activation_505", 0, 0, {}]]], "class_name": "Conv2D", "config": {"bias_initializer": {"class_name": "Zeros", "config": {}}, "strides": [1, 1], "activity_regularizer": null, "trainable": true, "kernel_regularizer": null, "data_format": "channels_last", "kernel_initializer": {"class_name": "VarianceScaling", "config": {"mode": "fan_avg", "distribution": "uniform", "scale": 1.0, "seed": null}}, "name": "conv2d_506", "bias_regularizer": null, "kernel_constraint": null, "bias_constraint": null, "activation": "linear", "use_bias": false, "dilation_rate": [1, 1], "kernel_size": [7, 1], "filters": 128, "padding": "same"}, "name": "conv2d_506"}, {"inbound_nodes": [[["conv2d_506", 0, 0, {}]]], "class_name": "BatchNormalization", "config": {"gamma_regularizer": null, "trainable": true, "gamma_initializer": {"class_name": "Ones", "config": {}}, "beta_initializer": {"class_name": "Zeros", "config": {}}, "epsilon": 0.001, "axis": 3, "beta_regularizer": null, "beta_constraint": null, "gamma_constraint": null, "scale": false, "moving_mean_initializer": {"class_name": "Zeros", "config": {}}, "moving_variance_initializer": {"class_name": "Ones", "config": {}}, "name": "batch_normalization_506", "momentum": 0.99, "center": true}, "name": "batch_normalization_506"}, {"inbound_nodes": [[["batch_normalization_506", 0, 0, {}]]], "class_name": "Activation", "config": {"activation": "relu", "name": "activation_506", "trainable": true}, "name": "activation_506"}, {"inbound_nodes": [[["mixed3", 0, 0, {}]]], "class_name": "Conv2D", "config": {"bias_initializer": {"class_name": "Zeros", "config": {}}, "strides": [1, 1], "activity_regularizer": null, "trainable": true, "kernel_regularizer": null, "data_format": "channels_last", "kernel_initializer": {"class_name": "VarianceScaling", "config": {"mode": "fan_avg", "distribution": "uniform", "scale": 1.0, "seed": null}}, "name": "conv2d_502", "bias_regularizer": null, "kernel_constraint": null, "bias_constraint": null, "activation": "linear", "use_bias": false, "dilation_rate": [1, 1], "kernel_size": [1, 1], "filters": 128, "padding": "same"}, "name": "conv2d_502"}, {"inbound_nodes": [[["activation_506", 0, 0, {}]]], "class_name": "Conv2D", "config": {"bias_initializer": {"class_name": "Zeros", "config": {}}, "strides": [1, 1], "activity_regularizer": null, "trainable": true, "kernel_regularizer": null, "data_format": "channels_last", "kernel_initializer": {"class_name": "VarianceScaling", "config": {"mode": "fan_avg", "distribution": "uniform", "scale": 1.0, "seed": null}}, "name": "conv2d_507", "bias_regularizer": null, "kernel_constraint": null, "bias_constraint": null, "activation": "linear", "use_bias": false, "dilation_rate": [1, 1], "kernel_size": [1, 7], "filters": 128, "padding": "same"}, "name": "conv2d_507"}, {"inbound_nodes": [[["conv2d_502", 0, 0, {}]]], "class_name": "BatchNormalization", "config": {"gamma_regularizer": null, "trainable": true, "gamma_initializer": {"class_name": "Ones", "config": {}}, "beta_initializer": {"class_name": "Zeros", "config": {}}, "epsilon": 0.001, "axis": 3, "beta_regularizer": null, "beta_constraint": null, "gamma_constraint": null, "scale": false, "moving_mean_initializer": {"class_name": "Zeros", "config": {}}, "moving_variance_initializer": {"class_name": "Ones", "config": {}}, "name": "batch_normalization_502", "momentum": 0.99, "center": true}, "name": "batch_normalization_502"}, {"inbound_nodes": [[["conv2d_507", 0, 0, {}]]], "class_name": "BatchNormalization", "config": {"gamma_regularizer": null, "trainable": true, "gamma_initializer": {"class_name": "Ones", "config": {}}, "beta_initializer": {"class_name": "Zeros", "config": {}}, "epsilon": 0.001, "axis": 3, "beta_regularizer": null, "beta_constraint": null, "gamma_constraint": null, "scale": false, "moving_mean_initializer": {"class_name": "Zeros", "config": {}}, "moving_variance_initializer": {"class_name": "Ones", "config": {}}, "name": "batch_normalization_507", "momentum": 0.99, "center": true}, "name": "batch_normalization_507"}, {"inbound_nodes": [[["batch_normalization_502", 0, 0, {}]]], "class_name": "Activation", "config": {"activation": "relu", "name": "activation_502", "trainable": true}, "name": "activation_502"}, {"inbound_nodes": [[["batch_normalization_507", 0, 0, {}]]], "class_name": "Activation", "config": {"activation": "relu", "name": "activation_507", "trainable": true}, "name": "activation_507"}, {"inbound_nodes": [[["activation_502", 0, 0, {}]]], "class_name": "Conv2D", "config": {"bias_initializer": {"class_name": "Zeros", "config": {}}, "strides": [1, 1], "activity_regularizer": null, "trainable": true, "kernel_regularizer": null, "data_format": "channels_last", "kernel_initializer": {"class_name": "VarianceScaling", "config": {"mode": "fan_avg", "distribution": "uniform", "scale": 1.0, "seed": null}}, "name": "conv2d_503", "bias_regularizer": null, "kernel_constraint": null, "bias_constraint": null, "activation": "linear", "use_bias": false, "dilation_rate": [1, 1], "kernel_size": [1, 7], "filters": 128, "padding": "same"}, "name": "conv2d_503"}, {"inbound_nodes": [[["activation_507", 0, 0, {}]]], "class_name": "Conv2D", "config": {"bias_initializer": {"class_name": "Zeros", "config": {}}, "strides": [1, 1], "activity_regularizer": null, "trainable": true, "kernel_regularizer": null, "data_format": "channels_last", "kernel_initializer": {"class_name": "VarianceScaling", "config": {"mode": "fan_avg", "distribution": "uniform", "scale": 1.0, "seed": null}}, "name": "conv2d_508", "bias_regularizer": null, "kernel_constraint": null, "bias_constraint": null, "activation": "linear", "use_bias": false, "dilation_rate": [1, 1], "kernel_size": [7, 1], "filters": 128, "padding": "same"}, "name": "conv2d_508"}, {"inbound_nodes": [[["conv2d_503", 0, 0, {}]]], "class_name": "BatchNormalization", "config": {"gamma_regularizer": null, "trainable": true, "gamma_initializer": {"class_name": "Ones", "config": {}}, "beta_initializer": {"class_name": "Zeros", "config": {}}, "epsilon": 0.001, "axis": 3, "beta_regularizer": null, "beta_constraint": null, "gamma_constraint": null, "scale": false, "moving_mean_initializer": {"class_name": "Zeros", "config": {}}, "moving_variance_initializer": {"class_name": "Ones", "config": {}}, "name": "batch_normalization_503", "momentum": 0.99, "center": true}, "name": "batch_normalization_503"}, {"inbound_nodes": [[["conv2d_508", 0, 0, {}]]], "class_name": "BatchNormalization", "config": {"gamma_regularizer": null, "trainable": true, "gamma_initializer": {"class_name": "Ones", "config": {}}, "beta_initializer": {"class_name": "Zeros", "config": {}}, "epsilon": 0.001, "axis": 3, "beta_regularizer": null, "beta_constraint": null, "gamma_constraint": null, "scale": false, "moving_mean_initializer": {"class_name": "Zeros", "config": {}}, "moving_variance_initializer": {"class_name": "Ones", "config": {}}, "name": "batch_normalization_508", "momentum": 0.99, "center": true}, "name": "batch_normalization_508"}, {"inbound_nodes": [[["batch_normalization_503", 0, 0, {}]]], "class_name": "Activation", "config": {"activation": "relu", "name": "activation_503", "trainable": true}, "name": "activation_503"}, {"inbound_nodes": [[["batch_normalization_508", 0, 0, {}]]], "class_name": "Activation", "config": {"activation": "relu", "name": "activation_508", "trainable": true}, "name": "activation_508"}, {"inbound_nodes": [[["mixed3", 0, 0, {}]]], "class_name": "AveragePooling2D", "config": {"data_format": "channels_last", "name": "average_pooling2d_49", "pool_size": [3, 3], "trainable": true, "strides": [1, 1], "padding": "same"}, "name": "average_pooling2d_49"}, {"inbound_nodes": [[["mixed3", 0, 0, {}]]], "class_name": "Conv2D", "config": {"bias_initializer": {"class_name": "Zeros", "config": {}}, "strides": [1, 1], "activity_regularizer": null, "trainable": true, "kernel_regularizer": null, "data_format": "channels_last", "kernel_initializer": {"class_name": "VarianceScaling", "config": {"mode": "fan_avg", "distribution": "uniform", "scale": 1.0, "seed": null}}, "name": "conv2d_501", "bias_regularizer": null, "kernel_constraint": null, "bias_constraint": null, "activation": "linear", "use_bias": false, "dilation_rate": [1, 1], "kernel_size": [1, 1], "filters": 192, "padding": "same"}, "name": "conv2d_501"}, {"inbound_nodes": [[["activation_503", 0, 0, {}]]], "class_name": "Conv2D", "config": {"bias_initializer": {"class_name": "Zeros", "config": {}}, "strides": [1, 1], "activity_regularizer": null, "trainable": true, "kernel_regularizer": null, "data_format": "channels_last", "kernel_initializer": {"class_name": "VarianceScaling", "config": {"mode": "fan_avg", "distribution": "uniform", "scale": 1.0, "seed": null}}, "name": "conv2d_504", "bias_regularizer": null, "kernel_constraint": null, "bias_constraint": null, "activation": "linear", "use_bias": false, "dilation_rate": [1, 1], "kernel_size": [7, 1], "filters": 192, "padding": "same"}, "name": "conv2d_504"}, {"inbound_nodes": [[["activation_508", 0, 0, {}]]], "class_name": "Conv2D", "config": {"bias_initializer": {"class_name": "Zeros", "config": {}}, "strides": [1, 1], "activity_regularizer": null, "trainable": true, "kernel_regularizer": null, "data_format": "channels_last", "kernel_initializer": {"class_name": "VarianceScaling", "config": {"mode": "fan_avg", "distribution": "uniform", "scale": 1.0, "seed": null}}, "name": "conv2d_509", "bias_regularizer": null, "kernel_constraint": null, "bias_constraint": null, "activation": "linear", "use_bias": false, "dilation_rate": [1, 1], "kernel_size": [1, 7], "filters": 192, "padding": "same"}, "name": "conv2d_509"}, {"inbound_nodes": [[["average_pooling2d_49", 0, 0, {}]]], "class_name": "Conv2D", "config": {"bias_initializer": {"class_name": "Zeros", "config": {}}, "strides": [1, 1], "activity_regularizer": null, "trainable": true, "kernel_regularizer": null, "data_format": "channels_last", "kernel_initializer": {"class_name": "VarianceScaling", "config": {"mode": "fan_avg", "distribution": "uniform", "scale": 1.0, "seed": null}}, "name": "conv2d_510", "bias_regularizer": null, "kernel_constraint": null, "bias_constraint": null, "activation": "linear", "use_bias": false, "dilation_rate": [1, 1], "kernel_size": [1, 1], "filters": 192, "padding": "same"}, "name": "conv2d_510"}, {"inbound_nodes": [[["conv2d_501", 0, 0, {}]]], "class_name": "BatchNormalization", "config": {"gamma_regularizer": null, "trainable": true, "gamma_initializer": {"class_name": "Ones", "config": {}}, "beta_initializer": {"class_name": "Zeros", "config": {}}, "epsilon": 0.001, "axis": 3, "beta_regularizer": null, "beta_constraint": null, "gamma_constraint": null, "scale": false, "moving_mean_initializer": {"class_name": "Zeros", "config": {}}, "moving_variance_initializer": {"class_name": "Ones", "config": {}}, "name": "batch_normalization_501", "momentum": 0.99, "center": true}, "name": "batch_normalization_501"}, {"inbound_nodes": [[["conv2d_504", 0, 0, {}]]], "class_name": "BatchNormalization", "config": {"gamma_regularizer": null, "trainable": true, "gamma_initializer": {"class_name": "Ones", "config": {}}, "beta_initializer": {"class_name": "Zeros", "config": {}}, "epsilon": 0.001, "axis": 3, "beta_regularizer": null, "beta_constraint": null, "gamma_constraint": null, "scale": false, "moving_mean_initializer": {"class_name": "Zeros", "config": {}}, "moving_variance_initializer": {"class_name": "Ones", "config": {}}, "name": "batch_normalization_504", "momentum": 0.99, "center": true}, "name": "batch_normalization_504"}, {"inbound_nodes": [[["conv2d_509", 0, 0, {}]]], "class_name": "BatchNormalization", "config": {"gamma_regularizer": null, "trainable": true, "gamma_initializer": {"class_name": "Ones", "config": {}}, "beta_initializer": {"class_name": "Zeros", "config": {}}, "epsilon": 0.001, "axis": 3, "beta_regularizer": null, "beta_constraint": null, "gamma_constraint": null, "scale": false, "moving_mean_initializer": {"class_name": "Zeros", "config": {}}, "moving_variance_initializer": {"class_name": "Ones", "config": {}}, "name": "batch_normalization_509", "momentum": 0.99, "center": true}, "name": "batch_normalization_509"}, {"inbound_nodes": [[["conv2d_510", 0, 0, {}]]], "class_name": "BatchNormalization", "config": {"gamma_regularizer": null, "trainable": true, "gamma_initializer": {"class_name": "Ones", "config": {}}, "beta_initializer": {"class_name": "Zeros", "config": {}}, "epsilon": 0.001, "axis": 3, "beta_regularizer": null, "beta_constraint": null, "gamma_constraint": null, "scale": false, "moving_mean_initializer": {"class_name": "Zeros", "config": {}}, "moving_variance_initializer": {"class_name": "Ones", "config": {}}, "name": "batch_normalization_510", "momentum": 0.99, "center": true}, "name": "batch_normalization_510"}, {"inbound_nodes": [[["batch_normalization_501", 0, 0, {}]]], "class_name": "Activation", "config": {"activation": "relu", "name": "activation_501", "trainable": true}, "name": "activation_501"}, {"inbound_nodes": [[["batch_normalization_504", 0, 0, {}]]], "class_name": "Activation", "config": {"activation": "relu", "name": "activation_504", "trainable": true}, "name": "activation_504"}, {"inbound_nodes": [[["batch_normalization_509", 0, 0, {}]]], "class_name": "Activation", "config": {"activation": "relu", "name": "activation_509", "trainable": true}, "name": "activation_509"}, {"inbound_nodes": [[["batch_normalization_510", 0, 0, {}]]], "class_name": "Activation", "config": {"activation": "relu", "name": "activation_510", "trainable": true}, "name": "activation_510"}, {"inbound_nodes": [[["activation_501", 0, 0, {}], ["activation_504", 0, 0, {}], ["activation_509", 0, 0, {}], ["activation_510", 0, 0, {}]]], "class_name": "Concatenate", "config": {"name": "mixed4", "axis": 3, "trainable": true}, "name": "mixed4"}, {"inbound_nodes": [[["mixed4", 0, 0, {}]]], "class_name": "Conv2D", "config": {"bias_initializer": {"class_name": "Zeros", "config": {}}, "strides": [1, 1], "activity_regularizer": null, "trainable": true, "kernel_regularizer": null, "data_format": "channels_last", "kernel_initializer": {"class_name": "VarianceScaling", "config": {"mode": "fan_avg", "distribution": "uniform", "scale": 1.0, "seed": null}}, "name": "conv2d_515", "bias_regularizer": null, "kernel_constraint": null, "bias_constraint": null, "activation": "linear", "use_bias": false, "dilation_rate": [1, 1], "kernel_size": [1, 1], "filters": 160, "padding": "same"}, "name": "conv2d_515"}, {"inbound_nodes": [[["conv2d_515", 0, 0, {}]]], "class_name": "BatchNormalization", "config": {"gamma_regularizer": null, "trainable": true, "gamma_initializer": {"class_name": "Ones", "config": {}}, "beta_initializer": {"class_name": "Zeros", "config": {}}, "epsilon": 0.001, "axis": 3, "beta_regularizer": null, "beta_constraint": null, "gamma_constraint": null, "scale": false, "moving_mean_initializer": {"class_name": "Zeros", "config": {}}, "moving_variance_initializer": {"class_name": "Ones", "config": {}}, "name": "batch_normalization_515", "momentum": 0.99, "center": true}, "name": "batch_normalization_515"}, {"inbound_nodes": [[["batch_normalization_515", 0, 0, {}]]], "class_name": "Activation", "config": {"activation": "relu", "name": "activation_515", "trainable": true}, "name": "activation_515"}, {"inbound_nodes": [[["activation_515", 0, 0, {}]]], "class_name": "Conv2D", "config": {"bias_initializer": {"class_name": "Zeros", "config": {}}, "strides": [1, 1], "activity_regularizer": null, "trainable": true, "kernel_regularizer": null, "data_format": "channels_last", "kernel_initializer": {"class_name": "VarianceScaling", "config": {"mode": "fan_avg", "distribution": "uniform", "scale": 1.0, "seed": null}}, "name": "conv2d_516", "bias_regularizer": null, "kernel_constraint": null, "bias_constraint": null, "activation": "linear", "use_bias": false, "dilation_rate": [1, 1], "kernel_size": [7, 1], "filters": 160, "padding": "same"}, "name": "conv2d_516"}, {"inbound_nodes": [[["conv2d_516", 0, 0, {}]]], "class_name": "BatchNormalization", "config": {"gamma_regularizer": null, "trainable": true, "gamma_initializer": {"class_name": "Ones", "config": {}}, "beta_initializer": {"class_name": "Zeros", "config": {}}, "epsilon": 0.001, "axis": 3, "beta_regularizer": null, "beta_constraint": null, "gamma_constraint": null, "scale": false, "moving_mean_initializer": {"class_name": "Zeros", "config": {}}, "moving_variance_initializer": {"class_name": "Ones", "config": {}}, "name": "batch_normalization_516", "momentum": 0.99, "center": true}, "name": "batch_normalization_516"}, {"inbound_nodes": [[["batch_normalization_516", 0, 0, {}]]], "class_name": "Activation", "config": {"activation": "relu", "name": "activation_516", "trainable": true}, "name": "activation_516"}, {"inbound_nodes": [[["mixed4", 0, 0, {}]]], "class_name": "Conv2D", "config": {"bias_initializer": {"class_name": "Zeros", "config": {}}, "strides": [1, 1], "activity_regularizer": null, "trainable": true, "kernel_regularizer": null, "data_format": "channels_last", "kernel_initializer": {"class_name": "VarianceScaling", "config": {"mode": "fan_avg", "distribution": "uniform", "scale": 1.0, "seed": null}}, "name": "conv2d_512", "bias_regularizer": null, "kernel_constraint": null, "bias_constraint": null, "activation": "linear", "use_bias": false, "dilation_rate": [1, 1], "kernel_size": [1, 1], "filters": 160, "padding": "same"}, "name": "conv2d_512"}, {"inbound_nodes": [[["activation_516", 0, 0, {}]]], "class_name": "Conv2D", "config": {"bias_initializer": {"class_name": "Zeros", "config": {}}, "strides": [1, 1], "activity_regularizer": null, "trainable": true, "kernel_regularizer": null, "data_format": "channels_last", "kernel_initializer": {"class_name": "VarianceScaling", "config": {"mode": "fan_avg", "distribution": "uniform", "scale": 1.0, "seed": null}}, "name": "conv2d_517", "bias_regularizer": null, "kernel_constraint": null, "bias_constraint": null, "activation": "linear", "use_bias": false, "dilation_rate": [1, 1], "kernel_size": [1, 7], "filters": 160, "padding": "same"}, "name": "conv2d_517"}, {"inbound_nodes": [[["conv2d_512", 0, 0, {}]]], "class_name": "BatchNormalization", "config": {"gamma_regularizer": null, "trainable": true, "gamma_initializer": {"class_name": "Ones", "config": {}}, "beta_initializer": {"class_name": "Zeros", "config": {}}, "epsilon": 0.001, "axis": 3, "beta_regularizer": null, "beta_constraint": null, "gamma_constraint": null, "scale": false, "moving_mean_initializer": {"class_name": "Zeros", "config": {}}, "moving_variance_initializer": {"class_name": "Ones", "config": {}}, "name": "batch_normalization_512", "momentum": 0.99, "center": true}, "name": "batch_normalization_512"}, {"inbound_nodes": [[["conv2d_517", 0, 0, {}]]], "class_name": "BatchNormalization", "config": {"gamma_regularizer": null, "trainable": true, "gamma_initializer": {"class_name": "Ones", "config": {}}, "beta_initializer": {"class_name": "Zeros", "config": {}}, "epsilon": 0.001, "axis": 3, "beta_regularizer": null, "beta_constraint": null, "gamma_constraint": null, "scale": false, "moving_mean_initializer": {"class_name": "Zeros", "config": {}}, "moving_variance_initializer": {"class_name": "Ones", "config": {}}, "name": "batch_normalization_517", "momentum": 0.99, "center": true}, "name": "batch_normalization_517"}, {"inbound_nodes": [[["batch_normalization_512", 0, 0, {}]]], "class_name": "Activation", "config": {"activation": "relu", "name": "activation_512", "trainable": true}, "name": "activation_512"}, {"inbound_nodes": [[["batch_normalization_517", 0, 0, {}]]], "class_name": "Activation", "config": {"activation": "relu", "name": "activation_517", "trainable": true}, "name": "activation_517"}, {"inbound_nodes": [[["activation_512", 0, 0, {}]]], "class_name": "Conv2D", "config": {"bias_initializer": {"class_name": "Zeros", "config": {}}, "strides": [1, 1], "activity_regularizer": null, "trainable": true, "kernel_regularizer": null, "data_format": "channels_last", "kernel_initializer": {"class_name": "VarianceScaling", "config": {"mode": "fan_avg", "distribution": "uniform", "scale": 1.0, "seed": null}}, "name": "conv2d_513", "bias_regularizer": null, "kernel_constraint": null, "bias_constraint": null, "activation": "linear", "use_bias": false, "dilation_rate": [1, 1], "kernel_size": [1, 7], "filters": 160, "padding": "same"}, "name": "conv2d_513"}, {"inbound_nodes": [[["activation_517", 0, 0, {}]]], "class_name": "Conv2D", "config": {"bias_initializer": {"class_name": "Zeros", "config": {}}, "strides": [1, 1], "activity_regularizer": null, "trainable": true, "kernel_regularizer": null, "data_format": "channels_last", "kernel_initializer": {"class_name": "VarianceScaling", "config": {"mode": "fan_avg", "distribution": "uniform", "scale": 1.0, "seed": null}}, "name": "conv2d_518", "bias_regularizer": null, "kernel_constraint": null, "bias_constraint": null, "activation": "linear", "use_bias": false, "dilation_rate": [1, 1], "kernel_size": [7, 1], "filters": 160, "padding": "same"}, "name": "conv2d_518"}, {"inbound_nodes": [[["conv2d_513", 0, 0, {}]]], "class_name": "BatchNormalization", "config": {"gamma_regularizer": null, "trainable": true, "gamma_initializer": {"class_name": "Ones", "config": {}}, "beta_initializer": {"class_name": "Zeros", "config": {}}, "epsilon": 0.001, "axis": 3, "beta_regularizer": null, "beta_constraint": null, "gamma_constraint": null, "scale": false, "moving_mean_initializer": {"class_name": "Zeros", "config": {}}, "moving_variance_initializer": {"class_name": "Ones", "config": {}}, "name": "batch_normalization_513", "momentum": 0.99, "center": true}, "name": "batch_normalization_513"}, {"inbound_nodes": [[["conv2d_518", 0, 0, {}]]], "class_name": "BatchNormalization", "config": {"gamma_regularizer": null, "trainable": true, "gamma_initializer": {"class_name": "Ones", "config": {}}, "beta_initializer": {"class_name": "Zeros", "config": {}}, "epsilon": 0.001, "axis": 3, "beta_regularizer": null, "beta_constraint": null, "gamma_constraint": null, "scale": false, "moving_mean_initializer": {"class_name": "Zeros", "config": {}}, "moving_variance_initializer": {"class_name": "Ones", "config": {}}, "name": "batch_normalization_518", "momentum": 0.99, "center": true}, "name": "batch_normalization_518"}, {"inbound_nodes": [[["batch_normalization_513", 0, 0, {}]]], "class_name": "Activation", "config": {"activation": "relu", "name": "activation_513", "trainable": true}, "name": "activation_513"}, {"inbound_nodes": [[["batch_normalization_518", 0, 0, {}]]], "class_name": "Activation", "config": {"activation": "relu", "name": "activation_518", "trainable": true}, "name": "activation_518"}, {"inbound_nodes": [[["mixed4", 0, 0, {}]]], "class_name": "AveragePooling2D", "config": {"data_format": "channels_last", "name": "average_pooling2d_50", "pool_size": [3, 3], "trainable": true, "strides": [1, 1], "padding": "same"}, "name": "average_pooling2d_50"}, {"inbound_nodes": [[["mixed4", 0, 0, {}]]], "class_name": "Conv2D", "config": {"bias_initializer": {"class_name": "Zeros", "config": {}}, "strides": [1, 1], "activity_regularizer": null, "trainable": true, "kernel_regularizer": null, "data_format": "channels_last", "kernel_initializer": {"class_name": "VarianceScaling", "config": {"mode": "fan_avg", "distribution": "uniform", "scale": 1.0, "seed": null}}, "name": "conv2d_511", "bias_regularizer": null, "kernel_constraint": null, "bias_constraint": null, "activation": "linear", "use_bias": false, "dilation_rate": [1, 1], "kernel_size": [1, 1], "filters": 192, "padding": "same"}, "name": "conv2d_511"}, {"inbound_nodes": [[["activation_513", 0, 0, {}]]], "class_name": "Conv2D", "config": {"bias_initializer": {"class_name": "Zeros", "config": {}}, "strides": [1, 1], "activity_regularizer": null, "trainable": true, "kernel_regularizer": null, "data_format": "channels_last", "kernel_initializer": {"class_name": "VarianceScaling", "config": {"mode": "fan_avg", "distribution": "uniform", "scale": 1.0, "seed": null}}, "name": "conv2d_514", "bias_regularizer": null, "kernel_constraint": null, "bias_constraint": null, "activation": "linear", "use_bias": false, "dilation_rate": [1, 1], "kernel_size": [7, 1], "filters": 192, "padding": "same"}, "name": "conv2d_514"}, {"inbound_nodes": [[["activation_518", 0, 0, {}]]], "class_name": "Conv2D", "config": {"bias_initializer": {"class_name": "Zeros", "config": {}}, "strides": [1, 1], "activity_regularizer": null, "trainable": true, "kernel_regularizer": null, "data_format": "channels_last", "kernel_initializer": {"class_name": "VarianceScaling", "config": {"mode": "fan_avg", "distribution": "uniform", "scale": 1.0, "seed": null}}, "name": "conv2d_519", "bias_regularizer": null, "kernel_constraint": null, "bias_constraint": null, "activation": "linear", "use_bias": false, "dilation_rate": [1, 1], "kernel_size": [1, 7], "filters": 192, "padding": "same"}, "name": "conv2d_519"}, {"inbound_nodes": [[["average_pooling2d_50", 0, 0, {}]]], "class_name": "Conv2D", "config": {"bias_initializer": {"class_name": "Zeros", "config": {}}, "strides": [1, 1], "activity_regularizer": null, "trainable": true, "kernel_regularizer": null, "data_format": "channels_last", "kernel_initializer": {"class_name": "VarianceScaling", "config": {"mode": "fan_avg", "distribution": "uniform", "scale": 1.0, "seed": null}}, "name": "conv2d_520", "bias_regularizer": null, "kernel_constraint": null, "bias_constraint": null, "activation": "linear", "use_bias": false, "dilation_rate": [1, 1], "kernel_size": [1, 1], "filters": 192, "padding": "same"}, "name": "conv2d_520"}, {"inbound_nodes": [[["conv2d_511", 0, 0, {}]]], "class_name": "BatchNormalization", "config": {"gamma_regularizer": null, "trainable": true, "gamma_initializer": {"class_name": "Ones", "config": {}}, "beta_initializer": {"class_name": "Zeros", "config": {}}, "epsilon": 0.001, "axis": 3, "beta_regularizer": null, "beta_constraint": null, "gamma_constraint": null, "scale": false, "moving_mean_initializer": {"class_name": "Zeros", "config": {}}, "moving_variance_initializer": {"class_name": "Ones", "config": {}}, "name": "batch_normalization_511", "momentum": 0.99, "center": true}, "name": "batch_normalization_511"}, {"inbound_nodes": [[["conv2d_514", 0, 0, {}]]], "class_name": "BatchNormalization", "config": {"gamma_regularizer": null, "trainable": true, "gamma_initializer": {"class_name": "Ones", "config": {}}, "beta_initializer": {"class_name": "Zeros", "config": {}}, "epsilon": 0.001, "axis": 3, "beta_regularizer": null, "beta_constraint": null, "gamma_constraint": null, "scale": false, "moving_mean_initializer": {"class_name": "Zeros", "config": {}}, "moving_variance_initializer": {"class_name": "Ones", "config": {}}, "name": "batch_normalization_514", "momentum": 0.99, "center": true}, "name": "batch_normalization_514"}, {"inbound_nodes": [[["conv2d_519", 0, 0, {}]]], "class_name": "BatchNormalization", "config": {"gamma_regularizer": null, "trainable": true, "gamma_initializer": {"class_name": "Ones", "config": {}}, "beta_initializer": {"class_name": "Zeros", "config": {}}, "epsilon": 0.001, "axis": 3, "beta_regularizer": null, "beta_constraint": null, "gamma_constraint": null, "scale": false, "moving_mean_initializer": {"class_name": "Zeros", "config": {}}, "moving_variance_initializer": {"class_name": "Ones", "config": {}}, "name": "batch_normalization_519", "momentum": 0.99, "center": true}, "name": "batch_normalization_519"}, {"inbound_nodes": [[["conv2d_520", 0, 0, {}]]], "class_name": "BatchNormalization", "config": {"gamma_regularizer": null, "trainable": true, "gamma_initializer": {"class_name": "Ones", "config": {}}, "beta_initializer": {"class_name": "Zeros", "config": {}}, "epsilon": 0.001, "axis": 3, "beta_regularizer": null, "beta_constraint": null, "gamma_constraint": null, "scale": false, "moving_mean_initializer": {"class_name": "Zeros", "config": {}}, "moving_variance_initializer": {"class_name": "Ones", "config": {}}, "name": "batch_normalization_520", "momentum": 0.99, "center": true}, "name": "batch_normalization_520"}, {"inbound_nodes": [[["batch_normalization_511", 0, 0, {}]]], "class_name": "Activation", "config": {"activation": "relu", "name": "activation_511", "trainable": true}, "name": "activation_511"}, {"inbound_nodes": [[["batch_normalization_514", 0, 0, {}]]], "class_name": "Activation", "config": {"activation": "relu", "name": "activation_514", "trainable": true}, "name": "activation_514"}, {"inbound_nodes": [[["batch_normalization_519", 0, 0, {}]]], "class_name": "Activation", "config": {"activation": "relu", "name": "activation_519", "trainable": true}, "name": "activation_519"}, {"inbound_nodes": [[["batch_normalization_520", 0, 0, {}]]], "class_name": "Activation", "config": {"activation": "relu", "name": "activation_520", "trainable": true}, "name": "activation_520"}, {"inbound_nodes": [[["activation_511", 0, 0, {}], ["activation_514", 0, 0, {}], ["activation_519", 0, 0, {}], ["activation_520", 0, 0, {}]]], "class_name": "Concatenate", "config": {"name": "mixed5", "axis": 3, "trainable": true}, "name": "mixed5"}, {"inbound_nodes": [[["mixed5", 0, 0, {}]]], "class_name": "Conv2D", "config": {"bias_initializer": {"class_name": "Zeros", "config": {}}, "strides": [1, 1], "activity_regularizer": null, "trainable": true, "kernel_regularizer": null, "data_format": "channels_last", "kernel_initializer": {"class_name": "VarianceScaling", "config": {"mode": "fan_avg", "distribution": "uniform", "scale": 1.0, "seed": null}}, "name": "conv2d_525", "bias_regularizer": null, "kernel_constraint": null, "bias_constraint": null, "activation": "linear", "use_bias": false, "dilation_rate": [1, 1], "kernel_size": [1, 1], "filters": 160, "padding": "same"}, "name": "conv2d_525"}, {"inbound_nodes": [[["conv2d_525", 0, 0, {}]]], "class_name": "BatchNormalization", "config": {"gamma_regularizer": null, "trainable": true, "gamma_initializer": {"class_name": "Ones", "config": {}}, "beta_initializer": {"class_name": "Zeros", "config": {}}, "epsilon": 0.001, "axis": 3, "beta_regularizer": null, "beta_constraint": null, "gamma_constraint": null, "scale": false, "moving_mean_initializer": {"class_name": "Zeros", "config": {}}, "moving_variance_initializer": {"class_name": "Ones", "config": {}}, "name": "batch_normalization_525", "momentum": 0.99, "center": true}, "name": "batch_normalization_525"}, {"inbound_nodes": [[["batch_normalization_525", 0, 0, {}]]], "class_name": "Activation", "config": {"activation": "relu", "name": "activation_525", "trainable": true}, "name": "activation_525"}, {"inbound_nodes": [[["activation_525", 0, 0, {}]]], "class_name": "Conv2D", "config": {"bias_initializer": {"class_name": "Zeros", "config": {}}, "strides": [1, 1], "activity_regularizer": null, "trainable": true, "kernel_regularizer": null, "data_format": "channels_last", "kernel_initializer": {"class_name": "VarianceScaling", "config": {"mode": "fan_avg", "distribution": "uniform", "scale": 1.0, "seed": null}}, "name": "conv2d_526", "bias_regularizer": null, "kernel_constraint": null, "bias_constraint": null, "activation": "linear", "use_bias": false, "dilation_rate": [1, 1], "kernel_size": [7, 1], "filters": 160, "padding": "same"}, "name": "conv2d_526"}, {"inbound_nodes": [[["conv2d_526", 0, 0, {}]]], "class_name": "BatchNormalization", "config": {"gamma_regularizer": null, "trainable": true, "gamma_initializer": {"class_name": "Ones", "config": {}}, "beta_initializer": {"class_name": "Zeros", "config": {}}, "epsilon": 0.001, "axis": 3, "beta_regularizer": null, "beta_constraint": null, "gamma_constraint": null, "scale": false, "moving_mean_initializer": {"class_name": "Zeros", "config": {}}, "moving_variance_initializer": {"class_name": "Ones", "config": {}}, "name": "batch_normalization_526", "momentum": 0.99, "center": true}, "name": "batch_normalization_526"}, {"inbound_nodes": [[["batch_normalization_526", 0, 0, {}]]], "class_name": "Activation", "config": {"activation": "relu", "name": "activation_526", "trainable": true}, "name": "activation_526"}, {"inbound_nodes": [[["mixed5", 0, 0, {}]]], "class_name": "Conv2D", "config": {"bias_initializer": {"class_name": "Zeros", "config": {}}, "strides": [1, 1], "activity_regularizer": null, "trainable": true, "kernel_regularizer": null, "data_format": "channels_last", "kernel_initializer": {"class_name": "VarianceScaling", "config": {"mode": "fan_avg", "distribution": "uniform", "scale": 1.0, "seed": null}}, "name": "conv2d_522", "bias_regularizer": null, "kernel_constraint": null, "bias_constraint": null, "activation": "linear", "use_bias": false, "dilation_rate": [1, 1], "kernel_size": [1, 1], "filters": 160, "padding": "same"}, "name": "conv2d_522"}, {"inbound_nodes": [[["activation_526", 0, 0, {}]]], "class_name": "Conv2D", "config": {"bias_initializer": {"class_name": "Zeros", "config": {}}, "strides": [1, 1], "activity_regularizer": null, "trainable": true, "kernel_regularizer": null, "data_format": "channels_last", "kernel_initializer": {"class_name": "VarianceScaling", "config": {"mode": "fan_avg", "distribution": "uniform", "scale": 1.0, "seed": null}}, "name": "conv2d_527", "bias_regularizer": null, "kernel_constraint": null, "bias_constraint": null, "activation": "linear", "use_bias": false, "dilation_rate": [1, 1], "kernel_size": [1, 7], "filters": 160, "padding": "same"}, "name": "conv2d_527"}, {"inbound_nodes": [[["conv2d_522", 0, 0, {}]]], "class_name": "BatchNormalization", "config": {"gamma_regularizer": null, "trainable": true, "gamma_initializer": {"class_name": "Ones", "config": {}}, "beta_initializer": {"class_name": "Zeros", "config": {}}, "epsilon": 0.001, "axis": 3, "beta_regularizer": null, "beta_constraint": null, "gamma_constraint": null, "scale": false, "moving_mean_initializer": {"class_name": "Zeros", "config": {}}, "moving_variance_initializer": {"class_name": "Ones", "config": {}}, "name": "batch_normalization_522", "momentum": 0.99, "center": true}, "name": "batch_normalization_522"}, {"inbound_nodes": [[["conv2d_527", 0, 0, {}]]], "class_name": "BatchNormalization", "config": {"gamma_regularizer": null, "trainable": true, "gamma_initializer": {"class_name": "Ones", "config": {}}, "beta_initializer": {"class_name": "Zeros", "config": {}}, "epsilon": 0.001, "axis": 3, "beta_regularizer": null, "beta_constraint": null, "gamma_constraint": null, "scale": false, "moving_mean_initializer": {"class_name": "Zeros", "config": {}}, "moving_variance_initializer": {"class_name": "Ones", "config": {}}, "name": "batch_normalization_527", "momentum": 0.99, "center": true}, "name": "batch_normalization_527"}, {"inbound_nodes": [[["batch_normalization_522", 0, 0, {}]]], "class_name": "Activation", "config": {"activation": "relu", "name": "activation_522", "trainable": true}, "name": "activation_522"}, {"inbound_nodes": [[["batch_normalization_527", 0, 0, {}]]], "class_name": "Activation", "config": {"activation": "relu", "name": "activation_527", "trainable": true}, "name": "activation_527"}, {"inbound_nodes": [[["activation_522", 0, 0, {}]]], "class_name": "Conv2D", "config": {"bias_initializer": {"class_name": "Zeros", "config": {}}, "strides": [1, 1], "activity_regularizer": null, "trainable": true, "kernel_regularizer": null, "data_format": "channels_last", "kernel_initializer": {"class_name": "VarianceScaling", "config": {"mode": "fan_avg", "distribution": "uniform", "scale": 1.0, "seed": null}}, "name": "conv2d_523", "bias_regularizer": null, "kernel_constraint": null, "bias_constraint": null, "activation": "linear", "use_bias": false, "dilation_rate": [1, 1], "kernel_size": [1, 7], "filters": 160, "padding": "same"}, "name": "conv2d_523"}, {"inbound_nodes": [[["activation_527", 0, 0, {}]]], "class_name": "Conv2D", "config": {"bias_initializer": {"class_name": "Zeros", "config": {}}, "strides": [1, 1], "activity_regularizer": null, "trainable": true, "kernel_regularizer": null, "data_format": "channels_last", "kernel_initializer": {"class_name": "VarianceScaling", "config": {"mode": "fan_avg", "distribution": "uniform", "scale": 1.0, "seed": null}}, "name": "conv2d_528", "bias_regularizer": null, "kernel_constraint": null, "bias_constraint": null, "activation": "linear", "use_bias": false, "dilation_rate": [1, 1], "kernel_size": [7, 1], "filters": 160, "padding": "same"}, "name": "conv2d_528"}, {"inbound_nodes": [[["conv2d_523", 0, 0, {}]]], "class_name": "BatchNormalization", "config": {"gamma_regularizer": null, "trainable": true, "gamma_initializer": {"class_name": "Ones", "config": {}}, "beta_initializer": {"class_name": "Zeros", "config": {}}, "epsilon": 0.001, "axis": 3, "beta_regularizer": null, "beta_constraint": null, "gamma_constraint": null, "scale": false, "moving_mean_initializer": {"class_name": "Zeros", "config": {}}, "moving_variance_initializer": {"class_name": "Ones", "config": {}}, "name": "batch_normalization_523", "momentum": 0.99, "center": true}, "name": "batch_normalization_523"}, {"inbound_nodes": [[["conv2d_528", 0, 0, {}]]], "class_name": "BatchNormalization", "config": {"gamma_regularizer": null, "trainable": true, "gamma_initializer": {"class_name": "Ones", "config": {}}, "beta_initializer": {"class_name": "Zeros", "config": {}}, "epsilon": 0.001, "axis": 3, "beta_regularizer": null, "beta_constraint": null, "gamma_constraint": null, "scale": false, "moving_mean_initializer": {"class_name": "Zeros", "config": {}}, "moving_variance_initializer": {"class_name": "Ones", "config": {}}, "name": "batch_normalization_528", "momentum": 0.99, "center": true}, "name": "batch_normalization_528"}, {"inbound_nodes": [[["batch_normalization_523", 0, 0, {}]]], "class_name": "Activation", "config": {"activation": "relu", "name": "activation_523", "trainable": true}, "name": "activation_523"}, {"inbound_nodes": [[["batch_normalization_528", 0, 0, {}]]], "class_name": "Activation", "config": {"activation": "relu", "name": "activation_528", "trainable": true}, "name": "activation_528"}, {"inbound_nodes": [[["mixed5", 0, 0, {}]]], "class_name": "AveragePooling2D", "config": {"data_format": "channels_last", "name": "average_pooling2d_51", "pool_size": [3, 3], "trainable": true, "strides": [1, 1], "padding": "same"}, "name": "average_pooling2d_51"}, {"inbound_nodes": [[["mixed5", 0, 0, {}]]], "class_name": "Conv2D", "config": {"bias_initializer": {"class_name": "Zeros", "config": {}}, "strides": [1, 1], "activity_regularizer": null, "trainable": true, "kernel_regularizer": null, "data_format": "channels_last", "kernel_initializer": {"class_name": "VarianceScaling", "config": {"mode": "fan_avg", "distribution": "uniform", "scale": 1.0, "seed": null}}, "name": "conv2d_521", "bias_regularizer": null, "kernel_constraint": null, "bias_constraint": null, "activation": "linear", "use_bias": false, "dilation_rate": [1, 1], "kernel_size": [1, 1], "filters": 192, "padding": "same"}, "name": "conv2d_521"}, {"inbound_nodes": [[["activation_523", 0, 0, {}]]], "class_name": "Conv2D", "config": {"bias_initializer": {"class_name": "Zeros", "config": {}}, "strides": [1, 1], "activity_regularizer": null, "trainable": true, "kernel_regularizer": null, "data_format": "channels_last", "kernel_initializer": {"class_name": "VarianceScaling", "config": {"mode": "fan_avg", "distribution": "uniform", "scale": 1.0, "seed": null}}, "name": "conv2d_524", "bias_regularizer": null, "kernel_constraint": null, "bias_constraint": null, "activation": "linear", "use_bias": false, "dilation_rate": [1, 1], "kernel_size": [7, 1], "filters": 192, "padding": "same"}, "name": "conv2d_524"}, {"inbound_nodes": [[["activation_528", 0, 0, {}]]], "class_name": "Conv2D", "config": {"bias_initializer": {"class_name": "Zeros", "config": {}}, "strides": [1, 1], "activity_regularizer": null, "trainable": true, "kernel_regularizer": null, "data_format": "channels_last", "kernel_initializer": {"class_name": "VarianceScaling", "config": {"mode": "fan_avg", "distribution": "uniform", "scale": 1.0, "seed": null}}, "name": "conv2d_529", "bias_regularizer": null, "kernel_constraint": null, "bias_constraint": null, "activation": "linear", "use_bias": false, "dilation_rate": [1, 1], "kernel_size": [1, 7], "filters": 192, "padding": "same"}, "name": "conv2d_529"}, {"inbound_nodes": [[["average_pooling2d_51", 0, 0, {}]]], "class_name": "Conv2D", "config": {"bias_initializer": {"class_name": "Zeros", "config": {}}, "strides": [1, 1], "activity_regularizer": null, "trainable": true, "kernel_regularizer": null, "data_format": "channels_last", "kernel_initializer": {"class_name": "VarianceScaling", "config": {"mode": "fan_avg", "distribution": "uniform", "scale": 1.0, "seed": null}}, "name": "conv2d_530", "bias_regularizer": null, "kernel_constraint": null, "bias_constraint": null, "activation": "linear", "use_bias": false, "dilation_rate": [1, 1], "kernel_size": [1, 1], "filters": 192, "padding": "same"}, "name": "conv2d_530"}, {"inbound_nodes": [[["conv2d_521", 0, 0, {}]]], "class_name": "BatchNormalization", "config": {"gamma_regularizer": null, "trainable": true, "gamma_initializer": {"class_name": "Ones", "config": {}}, "beta_initializer": {"class_name": "Zeros", "config": {}}, "epsilon": 0.001, "axis": 3, "beta_regularizer": null, "beta_constraint": null, "gamma_constraint": null, "scale": false, "moving_mean_initializer": {"class_name": "Zeros", "config": {}}, "moving_variance_initializer": {"class_name": "Ones", "config": {}}, "name": "batch_normalization_521", "momentum": 0.99, "center": true}, "name": "batch_normalization_521"}, {"inbound_nodes": [[["conv2d_524", 0, 0, {}]]], "class_name": "BatchNormalization", "config": {"gamma_regularizer": null, "trainable": true, "gamma_initializer": {"class_name": "Ones", "config": {}}, "beta_initializer": {"class_name": "Zeros", "config": {}}, "epsilon": 0.001, "axis": 3, "beta_regularizer": null, "beta_constraint": null, "gamma_constraint": null, "scale": false, "moving_mean_initializer": {"class_name": "Zeros", "config": {}}, "moving_variance_initializer": {"class_name": "Ones", "config": {}}, "name": "batch_normalization_524", "momentum": 0.99, "center": true}, "name": "batch_normalization_524"}, {"inbound_nodes": [[["conv2d_529", 0, 0, {}]]], "class_name": "BatchNormalization", "config": {"gamma_regularizer": null, "trainable": true, "gamma_initializer": {"class_name": "Ones", "config": {}}, "beta_initializer": {"class_name": "Zeros", "config": {}}, "epsilon": 0.001, "axis": 3, "beta_regularizer": null, "beta_constraint": null, "gamma_constraint": null, "scale": false, "moving_mean_initializer": {"class_name": "Zeros", "config": {}}, "moving_variance_initializer": {"class_name": "Ones", "config": {}}, "name": "batch_normalization_529", "momentum": 0.99, "center": true}, "name": "batch_normalization_529"}, {"inbound_nodes": [[["conv2d_530", 0, 0, {}]]], "class_name": "BatchNormalization", "config": {"gamma_regularizer": null, "trainable": true, "gamma_initializer": {"class_name": "Ones", "config": {}}, "beta_initializer": {"class_name": "Zeros", "config": {}}, "epsilon": 0.001, "axis": 3, "beta_regularizer": null, "beta_constraint": null, "gamma_constraint": null, "scale": false, "moving_mean_initializer": {"class_name": "Zeros", "config": {}}, "moving_variance_initializer": {"class_name": "Ones", "config": {}}, "name": "batch_normalization_530", "momentum": 0.99, "center": true}, "name": "batch_normalization_530"}, {"inbound_nodes": [[["batch_normalization_521", 0, 0, {}]]], "class_name": "Activation", "config": {"activation": "relu", "name": "activation_521", "trainable": true}, "name": "activation_521"}, {"inbound_nodes": [[["batch_normalization_524", 0, 0, {}]]], "class_name": "Activation", "config": {"activation": "relu", "name": "activation_524", "trainable": true}, "name": "activation_524"}, {"inbound_nodes": [[["batch_normalization_529", 0, 0, {}]]], "class_name": "Activation", "config": {"activation": "relu", "name": "activation_529", "trainable": true}, "name": "activation_529"}, {"inbound_nodes": [[["batch_normalization_530", 0, 0, {}]]], "class_name": "Activation", "config": {"activation": "relu", "name": "activation_530", "trainable": true}, "name": "activation_530"}, {"inbound_nodes": [[["activation_521", 0, 0, {}], ["activation_524", 0, 0, {}], ["activation_529", 0, 0, {}], ["activation_530", 0, 0, {}]]], "class_name": "Concatenate", "config": {"name": "mixed6", "axis": 3, "trainable": true}, "name": "mixed6"}, {"inbound_nodes": [[["mixed6", 0, 0, {}]]], "class_name": "Conv2D", "config": {"bias_initializer": {"class_name": "Zeros", "config": {}}, "strides": [1, 1], "activity_regularizer": null, "trainable": true, "kernel_regularizer": null, "data_format": "channels_last", "kernel_initializer": {"class_name": "VarianceScaling", "config": {"mode": "fan_avg", "distribution": "uniform", "scale": 1.0, "seed": null}}, "name": "conv2d_535", "bias_regularizer": null, "kernel_constraint": null, "bias_constraint": null, "activation": "linear", "use_bias": false, "dilation_rate": [1, 1], "kernel_size": [1, 1], "filters": 192, "padding": "same"}, "name": "conv2d_535"}, {"inbound_nodes": [[["conv2d_535", 0, 0, {}]]], "class_name": "BatchNormalization", "config": {"gamma_regularizer": null, "trainable": true, "gamma_initializer": {"class_name": "Ones", "config": {}}, "beta_initializer": {"class_name": "Zeros", "config": {}}, "epsilon": 0.001, "axis": 3, "beta_regularizer": null, "beta_constraint": null, "gamma_constraint": null, "scale": false, "moving_mean_initializer": {"class_name": "Zeros", "config": {}}, "moving_variance_initializer": {"class_name": "Ones", "config": {}}, "name": "batch_normalization_535", "momentum": 0.99, "center": true}, "name": "batch_normalization_535"}, {"inbound_nodes": [[["batch_normalization_535", 0, 0, {}]]], "class_name": "Activation", "config": {"activation": "relu", "name": "activation_535", "trainable": true}, "name": "activation_535"}, {"inbound_nodes": [[["activation_535", 0, 0, {}]]], "class_name": "Conv2D", "config": {"bias_initializer": {"class_name": "Zeros", "config": {}}, "strides": [1, 1], "activity_regularizer": null, "trainable": true, "kernel_regularizer": null, "data_format": "channels_last", "kernel_initializer": {"class_name": "VarianceScaling", "config": {"mode": "fan_avg", "distribution": "uniform", "scale": 1.0, "seed": null}}, "name": "conv2d_536", "bias_regularizer": null, "kernel_constraint": null, "bias_constraint": null, "activation": "linear", "use_bias": false, "dilation_rate": [1, 1], "kernel_size": [7, 1], "filters": 192, "padding": "same"}, "name": "conv2d_536"}, {"inbound_nodes": [[["conv2d_536", 0, 0, {}]]], "class_name": "BatchNormalization", "config": {"gamma_regularizer": null, "trainable": true, "gamma_initializer": {"class_name": "Ones", "config": {}}, "beta_initializer": {"class_name": "Zeros", "config": {}}, "epsilon": 0.001, "axis": 3, "beta_regularizer": null, "beta_constraint": null, "gamma_constraint": null, "scale": false, "moving_mean_initializer": {"class_name": "Zeros", "config": {}}, "moving_variance_initializer": {"class_name": "Ones", "config": {}}, "name": "batch_normalization_536", "momentum": 0.99, "center": true}, "name": "batch_normalization_536"}, {"inbound_nodes": [[["batch_normalization_536", 0, 0, {}]]], "class_name": "Activation", "config": {"activation": "relu", "name": "activation_536", "trainable": true}, "name": "activation_536"}, {"inbound_nodes": [[["mixed6", 0, 0, {}]]], "class_name": "Conv2D", "config": {"bias_initializer": {"class_name": "Zeros", "config": {}}, "strides": [1, 1], "activity_regularizer": null, "trainable": true, "kernel_regularizer": null, "data_format": "channels_last", "kernel_initializer": {"class_name": "VarianceScaling", "config": {"mode": "fan_avg", "distribution": "uniform", "scale": 1.0, "seed": null}}, "name": "conv2d_532", "bias_regularizer": null, "kernel_constraint": null, "bias_constraint": null, "activation": "linear", "use_bias": false, "dilation_rate": [1, 1], "kernel_size": [1, 1], "filters": 192, "padding": "same"}, "name": "conv2d_532"}, {"inbound_nodes": [[["activation_536", 0, 0, {}]]], "class_name": "Conv2D", "config": {"bias_initializer": {"class_name": "Zeros", "config": {}}, "strides": [1, 1], "activity_regularizer": null, "trainable": true, "kernel_regularizer": null, "data_format": "channels_last", "kernel_initializer": {"class_name": "VarianceScaling", "config": {"mode": "fan_avg", "distribution": "uniform", "scale": 1.0, "seed": null}}, "name": "conv2d_537", "bias_regularizer": null, "kernel_constraint": null, "bias_constraint": null, "activation": "linear", "use_bias": false, "dilation_rate": [1, 1], "kernel_size": [1, 7], "filters": 192, "padding": "same"}, "name": "conv2d_537"}, {"inbound_nodes": [[["conv2d_532", 0, 0, {}]]], "class_name": "BatchNormalization", "config": {"gamma_regularizer": null, "trainable": true, "gamma_initializer": {"class_name": "Ones", "config": {}}, "beta_initializer": {"class_name": "Zeros", "config": {}}, "epsilon": 0.001, "axis": 3, "beta_regularizer": null, "beta_constraint": null, "gamma_constraint": null, "scale": false, "moving_mean_initializer": {"class_name": "Zeros", "config": {}}, "moving_variance_initializer": {"class_name": "Ones", "config": {}}, "name": "batch_normalization_532", "momentum": 0.99, "center": true}, "name": "batch_normalization_532"}, {"inbound_nodes": [[["conv2d_537", 0, 0, {}]]], "class_name": "BatchNormalization", "config": {"gamma_regularizer": null, "trainable": true, "gamma_initializer": {"class_name": "Ones", "config": {}}, "beta_initializer": {"class_name": "Zeros", "config": {}}, "epsilon": 0.001, "axis": 3, "beta_regularizer": null, "beta_constraint": null, "gamma_constraint": null, "scale": false, "moving_mean_initializer": {"class_name": "Zeros", "config": {}}, "moving_variance_initializer": {"class_name": "Ones", "config": {}}, "name": "batch_normalization_537", "momentum": 0.99, "center": true}, "name": "batch_normalization_537"}, {"inbound_nodes": [[["batch_normalization_532", 0, 0, {}]]], "class_name": "Activation", "config": {"activation": "relu", "name": "activation_532", "trainable": true}, "name": "activation_532"}, {"inbound_nodes": [[["batch_normalization_537", 0, 0, {}]]], "class_name": "Activation", "config": {"activation": "relu", "name": "activation_537", "trainable": true}, "name": "activation_537"}, {"inbound_nodes": [[["activation_532", 0, 0, {}]]], "class_name": "Conv2D", "config": {"bias_initializer": {"class_name": "Zeros", "config": {}}, "strides": [1, 1], "activity_regularizer": null, "trainable": true, "kernel_regularizer": null, "data_format": "channels_last", "kernel_initializer": {"class_name": "VarianceScaling", "config": {"mode": "fan_avg", "distribution": "uniform", "scale": 1.0, "seed": null}}, "name": "conv2d_533", "bias_regularizer": null, "kernel_constraint": null, "bias_constraint": null, "activation": "linear", "use_bias": false, "dilation_rate": [1, 1], "kernel_size": [1, 7], "filters": 192, "padding": "same"}, "name": "conv2d_533"}, {"inbound_nodes": [[["activation_537", 0, 0, {}]]], "class_name": "Conv2D", "config": {"bias_initializer": {"class_name": "Zeros", "config": {}}, "strides": [1, 1], "activity_regularizer": null, "trainable": true, "kernel_regularizer": null, "data_format": "channels_last", "kernel_initializer": {"class_name": "VarianceScaling", "config": {"mode": "fan_avg", "distribution": "uniform", "scale": 1.0, "seed": null}}, "name": "conv2d_538", "bias_regularizer": null, "kernel_constraint": null, "bias_constraint": null, "activation": "linear", "use_bias": false, "dilation_rate": [1, 1], "kernel_size": [7, 1], "filters": 192, "padding": "same"}, "name": "conv2d_538"}, {"inbound_nodes": [[["conv2d_533", 0, 0, {}]]], "class_name": "BatchNormalization", "config": {"gamma_regularizer": null, "trainable": true, "gamma_initializer": {"class_name": "Ones", "config": {}}, "beta_initializer": {"class_name": "Zeros", "config": {}}, "epsilon": 0.001, "axis": 3, "beta_regularizer": null, "beta_constraint": null, "gamma_constraint": null, "scale": false, "moving_mean_initializer": {"class_name": "Zeros", "config": {}}, "moving_variance_initializer": {"class_name": "Ones", "config": {}}, "name": "batch_normalization_533", "momentum": 0.99, "center": true}, "name": "batch_normalization_533"}, {"inbound_nodes": [[["conv2d_538", 0, 0, {}]]], "class_name": "BatchNormalization", "config": {"gamma_regularizer": null, "trainable": true, "gamma_initializer": {"class_name": "Ones", "config": {}}, "beta_initializer": {"class_name": "Zeros", "config": {}}, "epsilon": 0.001, "axis": 3, "beta_regularizer": null, "beta_constraint": null, "gamma_constraint": null, "scale": false, "moving_mean_initializer": {"class_name": "Zeros", "config": {}}, "moving_variance_initializer": {"class_name": "Ones", "config": {}}, "name": "batch_normalization_538", "momentum": 0.99, "center": true}, "name": "batch_normalization_538"}, {"inbound_nodes": [[["batch_normalization_533", 0, 0, {}]]], "class_name": "Activation", "config": {"activation": "relu", "name": "activation_533", "trainable": true}, "name": "activation_533"}, {"inbound_nodes": [[["batch_normalization_538", 0, 0, {}]]], "class_name": "Activation", "config": {"activation": "relu", "name": "activation_538", "trainable": true}, "name": "activation_538"}, {"inbound_nodes": [[["mixed6", 0, 0, {}]]], "class_name": "AveragePooling2D", "config": {"data_format": "channels_last", "name": "average_pooling2d_52", "pool_size": [3, 3], "trainable": true, "strides": [1, 1], "padding": "same"}, "name": "average_pooling2d_52"}, {"inbound_nodes": [[["mixed6", 0, 0, {}]]], "class_name": "Conv2D", "config": {"bias_initializer": {"class_name": "Zeros", "config": {}}, "strides": [1, 1], "activity_regularizer": null, "trainable": true, "kernel_regularizer": null, "data_format": "channels_last", "kernel_initializer": {"class_name": "VarianceScaling", "config": {"mode": "fan_avg", "distribution": "uniform", "scale": 1.0, "seed": null}}, "name": "conv2d_531", "bias_regularizer": null, "kernel_constraint": null, "bias_constraint": null, "activation": "linear", "use_bias": false, "dilation_rate": [1, 1], "kernel_size": [1, 1], "filters": 192, "padding": "same"}, "name": "conv2d_531"}, {"inbound_nodes": [[["activation_533", 0, 0, {}]]], "class_name": "Conv2D", "config": {"bias_initializer": {"class_name": "Zeros", "config": {}}, "strides": [1, 1], "activity_regularizer": null, "trainable": true, "kernel_regularizer": null, "data_format": "channels_last", "kernel_initializer": {"class_name": "VarianceScaling", "config": {"mode": "fan_avg", "distribution": "uniform", "scale": 1.0, "seed": null}}, "name": "conv2d_534", "bias_regularizer": null, "kernel_constraint": null, "bias_constraint": null, "activation": "linear", "use_bias": false, "dilation_rate": [1, 1], "kernel_size": [7, 1], "filters": 192, "padding": "same"}, "name": "conv2d_534"}, {"inbound_nodes": [[["activation_538", 0, 0, {}]]], "class_name": "Conv2D", "config": {"bias_initializer": {"class_name": "Zeros", "config": {}}, "strides": [1, 1], "activity_regularizer": null, "trainable": true, "kernel_regularizer": null, "data_format": "channels_last", "kernel_initializer": {"class_name": "VarianceScaling", "config": {"mode": "fan_avg", "distribution": "uniform", "scale": 1.0, "seed": null}}, "name": "conv2d_539", "bias_regularizer": null, "kernel_constraint": null, "bias_constraint": null, "activation": "linear", "use_bias": false, "dilation_rate": [1, 1], "kernel_size": [1, 7], "filters": 192, "padding": "same"}, "name": "conv2d_539"}, {"inbound_nodes": [[["average_pooling2d_52", 0, 0, {}]]], "class_name": "Conv2D", "config": {"bias_initializer": {"class_name": "Zeros", "config": {}}, "strides": [1, 1], "activity_regularizer": null, "trainable": true, "kernel_regularizer": null, "data_format": "channels_last", "kernel_initializer": {"class_name": "VarianceScaling", "config": {"mode": "fan_avg", "distribution": "uniform", "scale": 1.0, "seed": null}}, "name": "conv2d_540", "bias_regularizer": null, "kernel_constraint": null, "bias_constraint": null, "activation": "linear", "use_bias": false, "dilation_rate": [1, 1], "kernel_size": [1, 1], "filters": 192, "padding": "same"}, "name": "conv2d_540"}, {"inbound_nodes": [[["conv2d_531", 0, 0, {}]]], "class_name": "BatchNormalization", "config": {"gamma_regularizer": null, "trainable": true, "gamma_initializer": {"class_name": "Ones", "config": {}}, "beta_initializer": {"class_name": "Zeros", "config": {}}, "epsilon": 0.001, "axis": 3, "beta_regularizer": null, "beta_constraint": null, "gamma_constraint": null, "scale": false, "moving_mean_initializer": {"class_name": "Zeros", "config": {}}, "moving_variance_initializer": {"class_name": "Ones", "config": {}}, "name": "batch_normalization_531", "momentum": 0.99, "center": true}, "name": "batch_normalization_531"}, {"inbound_nodes": [[["conv2d_534", 0, 0, {}]]], "class_name": "BatchNormalization", "config": {"gamma_regularizer": null, "trainable": true, "gamma_initializer": {"class_name": "Ones", "config": {}}, "beta_initializer": {"class_name": "Zeros", "config": {}}, "epsilon": 0.001, "axis": 3, "beta_regularizer": null, "beta_constraint": null, "gamma_constraint": null, "scale": false, "moving_mean_initializer": {"class_name": "Zeros", "config": {}}, "moving_variance_initializer": {"class_name": "Ones", "config": {}}, "name": "batch_normalization_534", "momentum": 0.99, "center": true}, "name": "batch_normalization_534"}, {"inbound_nodes": [[["conv2d_539", 0, 0, {}]]], "class_name": "BatchNormalization", "config": {"gamma_regularizer": null, "trainable": true, "gamma_initializer": {"class_name": "Ones", "config": {}}, "beta_initializer": {"class_name": "Zeros", "config": {}}, "epsilon": 0.001, "axis": 3, "beta_regularizer": null, "beta_constraint": null, "gamma_constraint": null, "scale": false, "moving_mean_initializer": {"class_name": "Zeros", "config": {}}, "moving_variance_initializer": {"class_name": "Ones", "config": {}}, "name": "batch_normalization_539", "momentum": 0.99, "center": true}, "name": "batch_normalization_539"}, {"inbound_nodes": [[["conv2d_540", 0, 0, {}]]], "class_name": "BatchNormalization", "config": {"gamma_regularizer": null, "trainable": true, "gamma_initializer": {"class_name": "Ones", "config": {}}, "beta_initializer": {"class_name": "Zeros", "config": {}}, "epsilon": 0.001, "axis": 3, "beta_regularizer": null, "beta_constraint": null, "gamma_constraint": null, "scale": false, "moving_mean_initializer": {"class_name": "Zeros", "config": {}}, "moving_variance_initializer": {"class_name": "Ones", "config": {}}, "name": "batch_normalization_540", "momentum": 0.99, "center": true}, "name": "batch_normalization_540"}, {"inbound_nodes": [[["batch_normalization_531", 0, 0, {}]]], "class_name": "Activation", "config": {"activation": "relu", "name": "activation_531", "trainable": true}, "name": "activation_531"}, {"inbound_nodes": [[["batch_normalization_534", 0, 0, {}]]], "class_name": "Activation", "config": {"activation": "relu", "name": "activation_534", "trainable": true}, "name": "activation_534"}, {"inbound_nodes": [[["batch_normalization_539", 0, 0, {}]]], "class_name": "Activation", "config": {"activation": "relu", "name": "activation_539", "trainable": true}, "name": "activation_539"}, {"inbound_nodes": [[["batch_normalization_540", 0, 0, {}]]], "class_name": "Activation", "config": {"activation": "relu", "name": "activation_540", "trainable": true}, "name": "activation_540"}, {"inbound_nodes": [[["activation_531", 0, 0, {}], ["activation_534", 0, 0, {}], ["activation_539", 0, 0, {}], ["activation_540", 0, 0, {}]]], "class_name": "Concatenate", "config": {"name": "mixed7", "axis": 3, "trainable": true}, "name": "mixed7"}, {"inbound_nodes": [[["mixed7", 0, 0, {}]]], "class_name": "Conv2D", "config": {"bias_initializer": {"class_name": "Zeros", "config": {}}, "strides": [1, 1], "activity_regularizer": null, "trainable": true, "kernel_regularizer": null, "data_format": "channels_last", "kernel_initializer": {"class_name": "VarianceScaling", "config": {"mode": "fan_avg", "distribution": "uniform", "scale": 1.0, "seed": null}}, "name": "conv2d_543", "bias_regularizer": null, "kernel_constraint": null, "bias_constraint": null, "activation": "linear", "use_bias": false, "dilation_rate": [1, 1], "kernel_size": [1, 1], "filters": 192, "padding": "same"}, "name": "conv2d_543"}, {"inbound_nodes": [[["conv2d_543", 0, 0, {}]]], "class_name": "BatchNormalization", "config": {"gamma_regularizer": null, "trainable": true, "gamma_initializer": {"class_name": "Ones", "config": {}}, "beta_initializer": {"class_name": "Zeros", "config": {}}, "epsilon": 0.001, "axis": 3, "beta_regularizer": null, "beta_constraint": null, "gamma_constraint": null, "scale": false, "moving_mean_initializer": {"class_name": "Zeros", "config": {}}, "moving_variance_initializer": {"class_name": "Ones", "config": {}}, "name": "batch_normalization_543", "momentum": 0.99, "center": true}, "name": "batch_normalization_543"}, {"inbound_nodes": [[["batch_normalization_543", 0, 0, {}]]], "class_name": "Activation", "config": {"activation": "relu", "name": "activation_543", "trainable": true}, "name": "activation_543"}, {"inbound_nodes": [[["activation_543", 0, 0, {}]]], "class_name": "Conv2D", "config": {"bias_initializer": {"class_name": "Zeros", "config": {}}, "strides": [1, 1], "activity_regularizer": null, "trainable": true, "kernel_regularizer": null, "data_format": "channels_last", "kernel_initializer": {"class_name": "VarianceScaling", "config": {"mode": "fan_avg", "distribution": "uniform", "scale": 1.0, "seed": null}}, "name": "conv2d_544", "bias_regularizer": null, "kernel_constraint": null, "bias_constraint": null, "activation": "linear", "use_bias": false, "dilation_rate": [1, 1], "kernel_size": [1, 7], "filters": 192, "padding": "same"}, "name": "conv2d_544"}, {"inbound_nodes": [[["conv2d_544", 0, 0, {}]]], "class_name": "BatchNormalization", "config": {"gamma_regularizer": null, "trainable": true, "gamma_initializer": {"class_name": "Ones", "config": {}}, "beta_initializer": {"class_name": "Zeros", "config": {}}, "epsilon": 0.001, "axis": 3, "beta_regularizer": null, "beta_constraint": null, "gamma_constraint": null, "scale": false, "moving_mean_initializer": {"class_name": "Zeros", "config": {}}, "moving_variance_initializer": {"class_name": "Ones", "config": {}}, "name": "batch_normalization_544", "momentum": 0.99, "center": true}, "name": "batch_normalization_544"}, {"inbound_nodes": [[["batch_normalization_544", 0, 0, {}]]], "class_name": "Activation", "config": {"activation": "relu", "name": "activation_544", "trainable": true}, "name": "activation_544"}, {"inbound_nodes": [[["mixed7", 0, 0, {}]]], "class_name": "Conv2D", "config": {"bias_initializer": {"class_name": "Zeros", "config": {}}, "strides": [1, 1], "activity_regularizer": null, "trainable": true, "kernel_regularizer": null, "data_format": "channels_last", "kernel_initializer": {"class_name": "VarianceScaling", "config": {"mode": "fan_avg", "distribution": "uniform", "scale": 1.0, "seed": null}}, "name": "conv2d_541", "bias_regularizer": null, "kernel_constraint": null, "bias_constraint": null, "activation": "linear", "use_bias": false, "dilation_rate": [1, 1], "kernel_size": [1, 1], "filters": 192, "padding": "same"}, "name": "conv2d_541"}, {"inbound_nodes": [[["activation_544", 0, 0, {}]]], "class_name": "Conv2D", "config": {"bias_initializer": {"class_name": "Zeros", "config": {}}, "strides": [1, 1], "activity_regularizer": null, "trainable": true, "kernel_regularizer": null, "data_format": "channels_last", "kernel_initializer": {"class_name": "VarianceScaling", "config": {"mode": "fan_avg", "distribution": "uniform", "scale": 1.0, "seed": null}}, "name": "conv2d_545", "bias_regularizer": null, "kernel_constraint": null, "bias_constraint": null, "activation": "linear", "use_bias": false, "dilation_rate": [1, 1], "kernel_size": [7, 1], "filters": 192, "padding": "same"}, "name": "conv2d_545"}, {"inbound_nodes": [[["conv2d_541", 0, 0, {}]]], "class_name": "BatchNormalization", "config": {"gamma_regularizer": null, "trainable": true, "gamma_initializer": {"class_name": "Ones", "config": {}}, "beta_initializer": {"class_name": "Zeros", "config": {}}, "epsilon": 0.001, "axis": 3, "beta_regularizer": null, "beta_constraint": null, "gamma_constraint": null, "scale": false, "moving_mean_initializer": {"class_name": "Zeros", "config": {}}, "moving_variance_initializer": {"class_name": "Ones", "config": {}}, "name": "batch_normalization_541", "momentum": 0.99, "center": true}, "name": "batch_normalization_541"}, {"inbound_nodes": [[["conv2d_545", 0, 0, {}]]], "class_name": "BatchNormalization", "config": {"gamma_regularizer": null, "trainable": true, "gamma_initializer": {"class_name": "Ones", "config": {}}, "beta_initializer": {"class_name": "Zeros", "config": {}}, "epsilon": 0.001, "axis": 3, "beta_regularizer": null, "beta_constraint": null, "gamma_constraint": null, "scale": false, "moving_mean_initializer": {"class_name": "Zeros", "config": {}}, "moving_variance_initializer": {"class_name": "Ones", "config": {}}, "name": "batch_normalization_545", "momentum": 0.99, "center": true}, "name": "batch_normalization_545"}, {"inbound_nodes": [[["batch_normalization_541", 0, 0, {}]]], "class_name": "Activation", "config": {"activation": "relu", "name": "activation_541", "trainable": true}, "name": "activation_541"}, {"inbound_nodes": [[["batch_normalization_545", 0, 0, {}]]], "class_name": "Activation", "config": {"activation": "relu", "name": "activation_545", "trainable": true}, "name": "activation_545"}, {"inbound_nodes": [[["activation_541", 0, 0, {}]]], "class_name": "Conv2D", "config": {"bias_initializer": {"class_name": "Zeros", "config": {}}, "strides": [2, 2], "activity_regularizer": null, "trainable": true, "kernel_regularizer": null, "data_format": "channels_last", "kernel_initializer": {"class_name": "VarianceScaling", "config": {"mode": "fan_avg", "distribution": "uniform", "scale": 1.0, "seed": null}}, "name": "conv2d_542", "bias_regularizer": null, "kernel_constraint": null, "bias_constraint": null, "activation": "linear", "use_bias": false, "dilation_rate": [1, 1], "kernel_size": [3, 3], "filters": 320, "padding": "valid"}, "name": "conv2d_542"}, {"inbound_nodes": [[["activation_545", 0, 0, {}]]], "class_name": "Conv2D", "config": {"bias_initializer": {"class_name": "Zeros", "config": {}}, "strides": [2, 2], "activity_regularizer": null, "trainable": true, "kernel_regularizer": null, "data_format": "channels_last", "kernel_initializer": {"class_name": "VarianceScaling", "config": {"mode": "fan_avg", "distribution": "uniform", "scale": 1.0, "seed": null}}, "name": "conv2d_546", "bias_regularizer": null, "kernel_constraint": null, "bias_constraint": null, "activation": "linear", "use_bias": false, "dilation_rate": [1, 1], "kernel_size": [3, 3], "filters": 192, "padding": "valid"}, "name": "conv2d_546"}, {"inbound_nodes": [[["conv2d_542", 0, 0, {}]]], "class_name": "BatchNormalization", "config": {"gamma_regularizer": null, "trainable": true, "gamma_initializer": {"class_name": "Ones", "config": {}}, "beta_initializer": {"class_name": "Zeros", "config": {}}, "epsilon": 0.001, "axis": 3, "beta_regularizer": null, "beta_constraint": null, "gamma_constraint": null, "scale": false, "moving_mean_initializer": {"class_name": "Zeros", "config": {}}, "moving_variance_initializer": {"class_name": "Ones", "config": {}}, "name": "batch_normalization_542", "momentum": 0.99, "center": true}, "name": "batch_normalization_542"}, {"inbound_nodes": [[["conv2d_546", 0, 0, {}]]], "class_name": "BatchNormalization", "config": {"gamma_regularizer": null, "trainable": true, "gamma_initializer": {"class_name": "Ones", "config": {}}, "beta_initializer": {"class_name": "Zeros", "config": {}}, "epsilon": 0.001, "axis": 3, "beta_regularizer": null, "beta_constraint": null, "gamma_constraint": null, "scale": false, "moving_mean_initializer": {"class_name": "Zeros", "config": {}}, "moving_variance_initializer": {"class_name": "Ones", "config": {}}, "name": "batch_normalization_546", "momentum": 0.99, "center": true}, "name": "batch_normalization_546"}, {"inbound_nodes": [[["batch_normalization_542", 0, 0, {}]]], "class_name": "Activation", "config": {"activation": "relu", "name": "activation_542", "trainable": true}, "name": "activation_542"}, {"inbound_nodes": [[["batch_normalization_546", 0, 0, {}]]], "class_name": "Activation", "config": {"activation": "relu", "name": "activation_546", "trainable": true}, "name": "activation_546"}, {"inbound_nodes": [[["mixed7", 0, 0, {}]]], "class_name": "MaxPooling2D", "config": {"data_format": "channels_last", "name": "max_pooling2d_24", "pool_size": [3, 3], "trainable": true, "strides": [2, 2], "padding": "valid"}, "name": "max_pooling2d_24"}, {"inbound_nodes": [[["activation_542", 0, 0, {}], ["activation_546", 0, 0, {}], ["max_pooling2d_24", 0, 0, {}]]], "class_name": "Concatenate", "config": {"name": "mixed8", "axis": 3, "trainable": true}, "name": "mixed8"}, {"inbound_nodes": [[["mixed8", 0, 0, {}]]], "class_name": "Conv2D", "config": {"bias_initializer": {"class_name": "Zeros", "config": {}}, "strides": [1, 1], "activity_regularizer": null, "trainable": true, "kernel_regularizer": null, "data_format": "channels_last", "kernel_initializer": {"class_name": "VarianceScaling", "config": {"mode": "fan_avg", "distribution": "uniform", "scale": 1.0, "seed": null}}, "name": "conv2d_551", "bias_regularizer": null, "kernel_constraint": null, "bias_constraint": null, "activation": "linear", "use_bias": false, "dilation_rate": [1, 1], "kernel_size": [1, 1], "filters": 448, "padding": "same"}, "name": "conv2d_551"}, {"inbound_nodes": [[["conv2d_551", 0, 0, {}]]], "class_name": "BatchNormalization", "config": {"gamma_regularizer": null, "trainable": true, "gamma_initializer": {"class_name": "Ones", "config": {}}, "beta_initializer": {"class_name": "Zeros", "config": {}}, "epsilon": 0.001, "axis": 3, "beta_regularizer": null, "beta_constraint": null, "gamma_constraint": null, "scale": false, "moving_mean_initializer": {"class_name": "Zeros", "config": {}}, "moving_variance_initializer": {"class_name": "Ones", "config": {}}, "name": "batch_normalization_551", "momentum": 0.99, "center": true}, "name": "batch_normalization_551"}, {"inbound_nodes": [[["batch_normalization_551", 0, 0, {}]]], "class_name": "Activation", "config": {"activation": "relu", "name": "activation_551", "trainable": true}, "name": "activation_551"}, {"inbound_nodes": [[["mixed8", 0, 0, {}]]], "class_name": "Conv2D", "config": {"bias_initializer": {"class_name": "Zeros", "config": {}}, "strides": [1, 1], "activity_regularizer": null, "trainable": true, "kernel_regularizer": null, "data_format": "channels_last", "kernel_initializer": {"class_name": "VarianceScaling", "config": {"mode": "fan_avg", "distribution": "uniform", "scale": 1.0, "seed": null}}, "name": "conv2d_548", "bias_regularizer": null, "kernel_constraint": null, "bias_constraint": null, "activation": "linear", "use_bias": false, "dilation_rate": [1, 1], "kernel_size": [1, 1], "filters": 384, "padding": "same"}, "name": "conv2d_548"}, {"inbound_nodes": [[["activation_551", 0, 0, {}]]], "class_name": "Conv2D", "config": {"bias_initializer": {"class_name": "Zeros", "config": {}}, "strides": [1, 1], "activity_regularizer": null, "trainable": true, "kernel_regularizer": null, "data_format": "channels_last", "kernel_initializer": {"class_name": "VarianceScaling", "config": {"mode": "fan_avg", "distribution": "uniform", "scale": 1.0, "seed": null}}, "name": "conv2d_552", "bias_regularizer": null, "kernel_constraint": null, "bias_constraint": null, "activation": "linear", "use_bias": false, "dilation_rate": [1, 1], "kernel_size": [3, 3], "filters": 384, "padding": "same"}, "name": "conv2d_552"}, {"inbound_nodes": [[["conv2d_548", 0, 0, {}]]], "class_name": "BatchNormalization", "config": {"gamma_regularizer": null, "trainable": true, "gamma_initializer": {"class_name": "Ones", "config": {}}, "beta_initializer": {"class_name": "Zeros", "config": {}}, "epsilon": 0.001, "axis": 3, "beta_regularizer": null, "beta_constraint": null, "gamma_constraint": null, "scale": false, "moving_mean_initializer": {"class_name": "Zeros", "config": {}}, "moving_variance_initializer": {"class_name": "Ones", "config": {}}, "name": "batch_normalization_548", "momentum": 0.99, "center": true}, "name": "batch_normalization_548"}, {"inbound_nodes": [[["conv2d_552", 0, 0, {}]]], "class_name": "BatchNormalization", "config": {"gamma_regularizer": null, "trainable": true, "gamma_initializer": {"class_name": "Ones", "config": {}}, "beta_initializer": {"class_name": "Zeros", "config": {}}, "epsilon": 0.001, "axis": 3, "beta_regularizer": null, "beta_constraint": null, "gamma_constraint": null, "scale": false, "moving_mean_initializer": {"class_name": "Zeros", "config": {}}, "moving_variance_initializer": {"class_name": "Ones", "config": {}}, "name": "batch_normalization_552", "momentum": 0.99, "center": true}, "name": "batch_normalization_552"}, {"inbound_nodes": [[["batch_normalization_548", 0, 0, {}]]], "class_name": "Activation", "config": {"activation": "relu", "name": "activation_548", "trainable": true}, "name": "activation_548"}, {"inbound_nodes": [[["batch_normalization_552", 0, 0, {}]]], "class_name": "Activation", "config": {"activation": "relu", "name": "activation_552", "trainable": true}, "name": "activation_552"}, {"inbound_nodes": [[["activation_548", 0, 0, {}]]], "class_name": "Conv2D", "config": {"bias_initializer": {"class_name": "Zeros", "config": {}}, "strides": [1, 1], "activity_regularizer": null, "trainable": true, "kernel_regularizer": null, "data_format": "channels_last", "kernel_initializer": {"class_name": "VarianceScaling", "config": {"mode": "fan_avg", "distribution": "uniform", "scale": 1.0, "seed": null}}, "name": "conv2d_549", "bias_regularizer": null, "kernel_constraint": null, "bias_constraint": null, "activation": "linear", "use_bias": false, "dilation_rate": [1, 1], "kernel_size": [1, 3], "filters": 384, "padding": "same"}, "name": "conv2d_549"}, {"inbound_nodes": [[["activation_548", 0, 0, {}]]], "class_name": "Conv2D", "config": {"bias_initializer": {"class_name": "Zeros", "config": {}}, "strides": [1, 1], "activity_regularizer": null, "trainable": true, "kernel_regularizer": null, "data_format": "channels_last", "kernel_initializer": {"class_name": "VarianceScaling", "config": {"mode": "fan_avg", "distribution": "uniform", "scale": 1.0, "seed": null}}, "name": "conv2d_550", "bias_regularizer": null, "kernel_constraint": null, "bias_constraint": null, "activation": "linear", "use_bias": false, "dilation_rate": [1, 1], "kernel_size": [3, 1], "filters": 384, "padding": "same"}, "name": "conv2d_550"}, {"inbound_nodes": [[["activation_552", 0, 0, {}]]], "class_name": "Conv2D", "config": {"bias_initializer": {"class_name": "Zeros", "config": {}}, "strides": [1, 1], "activity_regularizer": null, "trainable": true, "kernel_regularizer": null, "data_format": "channels_last", "kernel_initializer": {"class_name": "VarianceScaling", "config": {"mode": "fan_avg", "distribution": "uniform", "scale": 1.0, "seed": null}}, "name": "conv2d_553", "bias_regularizer": null, "kernel_constraint": null, "bias_constraint": null, "activation": "linear", "use_bias": false, "dilation_rate": [1, 1], "kernel_size": [1, 3], "filters": 384, "padding": "same"}, "name": "conv2d_553"}, {"inbound_nodes": [[["activation_552", 0, 0, {}]]], "class_name": "Conv2D", "config": {"bias_initializer": {"class_name": "Zeros", "config": {}}, "strides": [1, 1], "activity_regularizer": null, "trainable": true, "kernel_regularizer": null, "data_format": "channels_last", "kernel_initializer": {"class_name": "VarianceScaling", "config": {"mode": "fan_avg", "distribution": "uniform", "scale": 1.0, "seed": null}}, "name": "conv2d_554", "bias_regularizer": null, "kernel_constraint": null, "bias_constraint": null, "activation": "linear", "use_bias": false, "dilation_rate": [1, 1], "kernel_size": [3, 1], "filters": 384, "padding": "same"}, "name": "conv2d_554"}, {"inbound_nodes": [[["mixed8", 0, 0, {}]]], "class_name": "AveragePooling2D", "config": {"data_format": "channels_last", "name": "average_pooling2d_53", "pool_size": [3, 3], "trainable": true, "strides": [1, 1], "padding": "same"}, "name": "average_pooling2d_53"}, {"inbound_nodes": [[["mixed8", 0, 0, {}]]], "class_name": "Conv2D", "config": {"bias_initializer": {"class_name": "Zeros", "config": {}}, "strides": [1, 1], "activity_regularizer": null, "trainable": true, "kernel_regularizer": null, "data_format": "channels_last", "kernel_initializer": {"class_name": "VarianceScaling", "config": {"mode": "fan_avg", "distribution": "uniform", "scale": 1.0, "seed": null}}, "name": "conv2d_547", "bias_regularizer": null, "kernel_constraint": null, "bias_constraint": null, "activation": "linear", "use_bias": false, "dilation_rate": [1, 1], "kernel_size": [1, 1], "filters": 320, "padding": "same"}, "name": "conv2d_547"}, {"inbound_nodes": [[["conv2d_549", 0, 0, {}]]], "class_name": "BatchNormalization", "config": {"gamma_regularizer": null, "trainable": true, "gamma_initializer": {"class_name": "Ones", "config": {}}, "beta_initializer": {"class_name": "Zeros", "config": {}}, "epsilon": 0.001, "axis": 3, "beta_regularizer": null, "beta_constraint": null, "gamma_constraint": null, "scale": false, "moving_mean_initializer": {"class_name": "Zeros", "config": {}}, "moving_variance_initializer": {"class_name": "Ones", "config": {}}, "name": "batch_normalization_549", "momentum": 0.99, "center": true}, "name": "batch_normalization_549"}, {"inbound_nodes": [[["conv2d_550", 0, 0, {}]]], "class_name": "BatchNormalization", "config": {"gamma_regularizer": null, "trainable": true, "gamma_initializer": {"class_name": "Ones", "config": {}}, "beta_initializer": {"class_name": "Zeros", "config": {}}, "epsilon": 0.001, "axis": 3, "beta_regularizer": null, "beta_constraint": null, "gamma_constraint": null, "scale": false, "moving_mean_initializer": {"class_name": "Zeros", "config": {}}, "moving_variance_initializer": {"class_name": "Ones", "config": {}}, "name": "batch_normalization_550", "momentum": 0.99, "center": true}, "name": "batch_normalization_550"}, {"inbound_nodes": [[["conv2d_553", 0, 0, {}]]], "class_name": "BatchNormalization", "config": {"gamma_regularizer": null, "trainable": true, "gamma_initializer": {"class_name": "Ones", "config": {}}, "beta_initializer": {"class_name": "Zeros", "config": {}}, "epsilon": 0.001, "axis": 3, "beta_regularizer": null, "beta_constraint": null, "gamma_constraint": null, "scale": false, "moving_mean_initializer": {"class_name": "Zeros", "config": {}}, "moving_variance_initializer": {"class_name": "Ones", "config": {}}, "name": "batch_normalization_553", "momentum": 0.99, "center": true}, "name": "batch_normalization_553"}, {"inbound_nodes": [[["conv2d_554", 0, 0, {}]]], "class_name": "BatchNormalization", "config": {"gamma_regularizer": null, "trainable": true, "gamma_initializer": {"class_name": "Ones", "config": {}}, "beta_initializer": {"class_name": "Zeros", "config": {}}, "epsilon": 0.001, "axis": 3, "beta_regularizer": null, "beta_constraint": null, "gamma_constraint": null, "scale": false, "moving_mean_initializer": {"class_name": "Zeros", "config": {}}, "moving_variance_initializer": {"class_name": "Ones", "config": {}}, "name": "batch_normalization_554", "momentum": 0.99, "center": true}, "name": "batch_normalization_554"}, {"inbound_nodes": [[["average_pooling2d_53", 0, 0, {}]]], "class_name": "Conv2D", "config": {"bias_initializer": {"class_name": "Zeros", "config": {}}, "strides": [1, 1], "activity_regularizer": null, "trainable": true, "kernel_regularizer": null, "data_format": "channels_last", "kernel_initializer": {"class_name": "VarianceScaling", "config": {"mode": "fan_avg", "distribution": "uniform", "scale": 1.0, "seed": null}}, "name": "conv2d_555", "bias_regularizer": null, "kernel_constraint": null, "bias_constraint": null, "activation": "linear", "use_bias": false, "dilation_rate": [1, 1], "kernel_size": [1, 1], "filters": 192, "padding": "same"}, "name": "conv2d_555"}, {"inbound_nodes": [[["conv2d_547", 0, 0, {}]]], "class_name": "BatchNormalization", "config": {"gamma_regularizer": null, "trainable": true, "gamma_initializer": {"class_name": "Ones", "config": {}}, "beta_initializer": {"class_name": "Zeros", "config": {}}, "epsilon": 0.001, "axis": 3, "beta_regularizer": null, "beta_constraint": null, "gamma_constraint": null, "scale": false, "moving_mean_initializer": {"class_name": "Zeros", "config": {}}, "moving_variance_initializer": {"class_name": "Ones", "config": {}}, "name": "batch_normalization_547", "momentum": 0.99, "center": true}, "name": "batch_normalization_547"}, {"inbound_nodes": [[["batch_normalization_549", 0, 0, {}]]], "class_name": "Activation", "config": {"activation": "relu", "name": "activation_549", "trainable": true}, "name": "activation_549"}, {"inbound_nodes": [[["batch_normalization_550", 0, 0, {}]]], "class_name": "Activation", "config": {"activation": "relu", "name": "activation_550", "trainable": true}, "name": "activation_550"}, {"inbound_nodes": [[["batch_normalization_553", 0, 0, {}]]], "class_name": "Activation", "config": {"activation": "relu", "name": "activation_553", "trainable": true}, "name": "activation_553"}, {"inbound_nodes": [[["batch_normalization_554", 0, 0, {}]]], "class_name": "Activation", "config": {"activation": "relu", "name": "activation_554", "trainable": true}, "name": "activation_554"}, {"inbound_nodes": [[["conv2d_555", 0, 0, {}]]], "class_name": "BatchNormalization", "config": {"gamma_regularizer": null, "trainable": true, "gamma_initializer": {"class_name": "Ones", "config": {}}, "beta_initializer": {"class_name": "Zeros", "config": {}}, "epsilon": 0.001, "axis": 3, "beta_regularizer": null, "beta_constraint": null, "gamma_constraint": null, "scale": false, "moving_mean_initializer": {"class_name": "Zeros", "config": {}}, "moving_variance_initializer": {"class_name": "Ones", "config": {}}, "name": "batch_normalization_555", "momentum": 0.99, "center": true}, "name": "batch_normalization_555"}, {"inbound_nodes": [[["batch_normalization_547", 0, 0, {}]]], "class_name": "Activation", "config": {"activation": "relu", "name": "activation_547", "trainable": true}, "name": "activation_547"}, {"inbound_nodes": [[["activation_549", 0, 0, {}], ["activation_550", 0, 0, {}]]], "class_name": "Concatenate", "config": {"name": "mixed9_0", "axis": 3, "trainable": true}, "name": "mixed9_0"}, {"inbound_nodes": [[["activation_553", 0, 0, {}], ["activation_554", 0, 0, {}]]], "class_name": "Concatenate", "config": {"name": "concatenate_11", "axis": 3, "trainable": true}, "name": "concatenate_11"}, {"inbound_nodes": [[["batch_normalization_555", 0, 0, {}]]], "class_name": "Activation", "config": {"activation": "relu", "name": "activation_555", "trainable": true}, "name": "activation_555"}, {"inbound_nodes": [[["activation_547", 0, 0, {}], ["mixed9_0", 0, 0, {}], ["concatenate_11", 0, 0, {}], ["activation_555", 0, 0, {}]]], "class_name": "Concatenate", "config": {"name": "mixed9", "axis": 3, "trainable": true}, "name": "mixed9"}, {"inbound_nodes": [[["mixed9", 0, 0, {}]]], "class_name": "Conv2D", "config": {"bias_initializer": {"class_name": "Zeros", "config": {}}, "strides": [1, 1], "activity_regularizer": null, "trainable": true, "kernel_regularizer": null, "data_format": "channels_last", "kernel_initializer": {"class_name": "VarianceScaling", "config": {"mode": "fan_avg", "distribution": "uniform", "scale": 1.0, "seed": null}}, "name": "conv2d_560", "bias_regularizer": null, "kernel_constraint": null, "bias_constraint": null, "activation": "linear", "use_bias": false, "dilation_rate": [1, 1], "kernel_size": [1, 1], "filters": 448, "padding": "same"}, "name": "conv2d_560"}, {"inbound_nodes": [[["conv2d_560", 0, 0, {}]]], "class_name": "BatchNormalization", "config": {"gamma_regularizer": null, "trainable": true, "gamma_initializer": {"class_name": "Ones", "config": {}}, "beta_initializer": {"class_name": "Zeros", "config": {}}, "epsilon": 0.001, "axis": 3, "beta_regularizer": null, "beta_constraint": null, "gamma_constraint": null, "scale": false, "moving_mean_initializer": {"class_name": "Zeros", "config": {}}, "moving_variance_initializer": {"class_name": "Ones", "config": {}}, "name": "batch_normalization_560", "momentum": 0.99, "center": true}, "name": "batch_normalization_560"}, {"inbound_nodes": [[["batch_normalization_560", 0, 0, {}]]], "class_name": "Activation", "config": {"activation": "relu", "name": "activation_560", "trainable": true}, "name": "activation_560"}, {"inbound_nodes": [[["mixed9", 0, 0, {}]]], "class_name": "Conv2D", "config": {"bias_initializer": {"class_name": "Zeros", "config": {}}, "strides": [1, 1], "activity_regularizer": null, "trainable": true, "kernel_regularizer": null, "data_format": "channels_last", "kernel_initializer": {"class_name": "VarianceScaling", "config": {"mode": "fan_avg", "distribution": "uniform", "scale": 1.0, "seed": null}}, "name": "conv2d_557", "bias_regularizer": null, "kernel_constraint": null, "bias_constraint": null, "activation": "linear", "use_bias": false, "dilation_rate": [1, 1], "kernel_size": [1, 1], "filters": 384, "padding": "same"}, "name": "conv2d_557"}, {"inbound_nodes": [[["activation_560", 0, 0, {}]]], "class_name": "Conv2D", "config": {"bias_initializer": {"class_name": "Zeros", "config": {}}, "strides": [1, 1], "activity_regularizer": null, "trainable": true, "kernel_regularizer": null, "data_format": "channels_last", "kernel_initializer": {"class_name": "VarianceScaling", "config": {"mode": "fan_avg", "distribution": "uniform", "scale": 1.0, "seed": null}}, "name": "conv2d_561", "bias_regularizer": null, "kernel_constraint": null, "bias_constraint": null, "activation": "linear", "use_bias": false, "dilation_rate": [1, 1], "kernel_size": [3, 3], "filters": 384, "padding": "same"}, "name": "conv2d_561"}, {"inbound_nodes": [[["conv2d_557", 0, 0, {}]]], "class_name": "BatchNormalization", "config": {"gamma_regularizer": null, "trainable": true, "gamma_initializer": {"class_name": "Ones", "config": {}}, "beta_initializer": {"class_name": "Zeros", "config": {}}, "epsilon": 0.001, "axis": 3, "beta_regularizer": null, "beta_constraint": null, "gamma_constraint": null, "scale": false, "moving_mean_initializer": {"class_name": "Zeros", "config": {}}, "moving_variance_initializer": {"class_name": "Ones", "config": {}}, "name": "batch_normalization_557", "momentum": 0.99, "center": true}, "name": "batch_normalization_557"}, {"inbound_nodes": [[["conv2d_561", 0, 0, {}]]], "class_name": "BatchNormalization", "config": {"gamma_regularizer": null, "trainable": true, "gamma_initializer": {"class_name": "Ones", "config": {}}, "beta_initializer": {"class_name": "Zeros", "config": {}}, "epsilon": 0.001, "axis": 3, "beta_regularizer": null, "beta_constraint": null, "gamma_constraint": null, "scale": false, "moving_mean_initializer": {"class_name": "Zeros", "config": {}}, "moving_variance_initializer": {"class_name": "Ones", "config": {}}, "name": "batch_normalization_561", "momentum": 0.99, "center": true}, "name": "batch_normalization_561"}, {"inbound_nodes": [[["batch_normalization_557", 0, 0, {}]]], "class_name": "Activation", "config": {"activation": "relu", "name": "activation_557", "trainable": true}, "name": "activation_557"}, {"inbound_nodes": [[["batch_normalization_561", 0, 0, {}]]], "class_name": "Activation", "config": {"activation": "relu", "name": "activation_561", "trainable": true}, "name": "activation_561"}, {"inbound_nodes": [[["activation_557", 0, 0, {}]]], "class_name": "Conv2D", "config": {"bias_initializer": {"class_name": "Zeros", "config": {}}, "strides": [1, 1], "activity_regularizer": null, "trainable": true, "kernel_regularizer": null, "data_format": "channels_last", "kernel_initializer": {"class_name": "VarianceScaling", "config": {"mode": "fan_avg", "distribution": "uniform", "scale": 1.0, "seed": null}}, "name": "conv2d_558", "bias_regularizer": null, "kernel_constraint": null, "bias_constraint": null, "activation": "linear", "use_bias": false, "dilation_rate": [1, 1], "kernel_size": [1, 3], "filters": 384, "padding": "same"}, "name": "conv2d_558"}, {"inbound_nodes": [[["activation_557", 0, 0, {}]]], "class_name": "Conv2D", "config": {"bias_initializer": {"class_name": "Zeros", "config": {}}, "strides": [1, 1], "activity_regularizer": null, "trainable": true, "kernel_regularizer": null, "data_format": "channels_last", "kernel_initializer": {"class_name": "VarianceScaling", "config": {"mode": "fan_avg", "distribution": "uniform", "scale": 1.0, "seed": null}}, "name": "conv2d_559", "bias_regularizer": null, "kernel_constraint": null, "bias_constraint": null, "activation": "linear", "use_bias": false, "dilation_rate": [1, 1], "kernel_size": [3, 1], "filters": 384, "padding": "same"}, "name": "conv2d_559"}, {"inbound_nodes": [[["activation_561", 0, 0, {}]]], "class_name": "Conv2D", "config": {"bias_initializer": {"class_name": "Zeros", "config": {}}, "strides": [1, 1], "activity_regularizer": null, "trainable": true, "kernel_regularizer": null, "data_format": "channels_last", "kernel_initializer": {"class_name": "VarianceScaling", "config": {"mode": "fan_avg", "distribution": "uniform", "scale": 1.0, "seed": null}}, "name": "conv2d_562", "bias_regularizer": null, "kernel_constraint": null, "bias_constraint": null, "activation": "linear", "use_bias": false, "dilation_rate": [1, 1], "kernel_size": [1, 3], "filters": 384, "padding": "same"}, "name": "conv2d_562"}, {"inbound_nodes": [[["activation_561", 0, 0, {}]]], "class_name": "Conv2D", "config": {"bias_initializer": {"class_name": "Zeros", "config": {}}, "strides": [1, 1], "activity_regularizer": null, "trainable": true, "kernel_regularizer": null, "data_format": "channels_last", "kernel_initializer": {"class_name": "VarianceScaling", "config": {"mode": "fan_avg", "distribution": "uniform", "scale": 1.0, "seed": null}}, "name": "conv2d_563", "bias_regularizer": null, "kernel_constraint": null, "bias_constraint": null, "activation": "linear", "use_bias": false, "dilation_rate": [1, 1], "kernel_size": [3, 1], "filters": 384, "padding": "same"}, "name": "conv2d_563"}, {"inbound_nodes": [[["mixed9", 0, 0, {}]]], "class_name": "AveragePooling2D", "config": {"data_format": "channels_last", "name": "average_pooling2d_54", "pool_size": [3, 3], "trainable": true, "strides": [1, 1], "padding": "same"}, "name": "average_pooling2d_54"}, {"inbound_nodes": [[["mixed9", 0, 0, {}]]], "class_name": "Conv2D", "config": {"bias_initializer": {"class_name": "Zeros", "config": {}}, "strides": [1, 1], "activity_regularizer": null, "trainable": true, "kernel_regularizer": null, "data_format": "channels_last", "kernel_initializer": {"class_name": "VarianceScaling", "config": {"mode": "fan_avg", "distribution": "uniform", "scale": 1.0, "seed": null}}, "name": "conv2d_556", "bias_regularizer": null, "kernel_constraint": null, "bias_constraint": null, "activation": "linear", "use_bias": false, "dilation_rate": [1, 1], "kernel_size": [1, 1], "filters": 320, "padding": "same"}, "name": "conv2d_556"}, {"inbound_nodes": [[["conv2d_558", 0, 0, {}]]], "class_name": "BatchNormalization", "config": {"gamma_regularizer": null, "trainable": true, "gamma_initializer": {"class_name": "Ones", "config": {}}, "beta_initializer": {"class_name": "Zeros", "config": {}}, "epsilon": 0.001, "axis": 3, "beta_regularizer": null, "beta_constraint": null, "gamma_constraint": null, "scale": false, "moving_mean_initializer": {"class_name": "Zeros", "config": {}}, "moving_variance_initializer": {"class_name": "Ones", "config": {}}, "name": "batch_normalization_558", "momentum": 0.99, "center": true}, "name": "batch_normalization_558"}, {"inbound_nodes": [[["conv2d_559", 0, 0, {}]]], "class_name": "BatchNormalization", "config": {"gamma_regularizer": null, "trainable": true, "gamma_initializer": {"class_name": "Ones", "config": {}}, "beta_initializer": {"class_name": "Zeros", "config": {}}, "epsilon": 0.001, "axis": 3, "beta_regularizer": null, "beta_constraint": null, "gamma_constraint": null, "scale": false, "moving_mean_initializer": {"class_name": "Zeros", "config": {}}, "moving_variance_initializer": {"class_name": "Ones", "config": {}}, "name": "batch_normalization_559", "momentum": 0.99, "center": true}, "name": "batch_normalization_559"}, {"inbound_nodes": [[["conv2d_562", 0, 0, {}]]], "class_name": "BatchNormalization", "config": {"gamma_regularizer": null, "trainable": true, "gamma_initializer": {"class_name": "Ones", "config": {}}, "beta_initializer": {"class_name": "Zeros", "config": {}}, "epsilon": 0.001, "axis": 3, "beta_regularizer": null, "beta_constraint": null, "gamma_constraint": null, "scale": false, "moving_mean_initializer": {"class_name": "Zeros", "config": {}}, "moving_variance_initializer": {"class_name": "Ones", "config": {}}, "name": "batch_normalization_562", "momentum": 0.99, "center": true}, "name": "batch_normalization_562"}, {"inbound_nodes": [[["conv2d_563", 0, 0, {}]]], "class_name": "BatchNormalization", "config": {"gamma_regularizer": null, "trainable": true, "gamma_initializer": {"class_name": "Ones", "config": {}}, "beta_initializer": {"class_name": "Zeros", "config": {}}, "epsilon": 0.001, "axis": 3, "beta_regularizer": null, "beta_constraint": null, "gamma_constraint": null, "scale": false, "moving_mean_initializer": {"class_name": "Zeros", "config": {}}, "moving_variance_initializer": {"class_name": "Ones", "config": {}}, "name": "batch_normalization_563", "momentum": 0.99, "center": true}, "name": "batch_normalization_563"}, {"inbound_nodes": [[["average_pooling2d_54", 0, 0, {}]]], "class_name": "Conv2D", "config": {"bias_initializer": {"class_name": "Zeros", "config": {}}, "strides": [1, 1], "activity_regularizer": null, "trainable": true, "kernel_regularizer": null, "data_format": "channels_last", "kernel_initializer": {"class_name": "VarianceScaling", "config": {"mode": "fan_avg", "distribution": "uniform", "scale": 1.0, "seed": null}}, "name": "conv2d_564", "bias_regularizer": null, "kernel_constraint": null, "bias_constraint": null, "activation": "linear", "use_bias": false, "dilation_rate": [1, 1], "kernel_size": [1, 1], "filters": 192, "padding": "same"}, "name": "conv2d_564"}, {"inbound_nodes": [[["conv2d_556", 0, 0, {}]]], "class_name": "BatchNormalization", "config": {"gamma_regularizer": null, "trainable": true, "gamma_initializer": {"class_name": "Ones", "config": {}}, "beta_initializer": {"class_name": "Zeros", "config": {}}, "epsilon": 0.001, "axis": 3, "beta_regularizer": null, "beta_constraint": null, "gamma_constraint": null, "scale": false, "moving_mean_initializer": {"class_name": "Zeros", "config": {}}, "moving_variance_initializer": {"class_name": "Ones", "config": {}}, "name": "batch_normalization_556", "momentum": 0.99, "center": true}, "name": "batch_normalization_556"}, {"inbound_nodes": [[["batch_normalization_558", 0, 0, {}]]], "class_name": "Activation", "config": {"activation": "relu", "name": "activation_558", "trainable": true}, "name": "activation_558"}, {"inbound_nodes": [[["batch_normalization_559", 0, 0, {}]]], "class_name": "Activation", "config": {"activation": "relu", "name": "activation_559", "trainable": true}, "name": "activation_559"}, {"inbound_nodes": [[["batch_normalization_562", 0, 0, {}]]], "class_name": "Activation", "config": {"activation": "relu", "name": "activation_562", "trainable": true}, "name": "activation_562"}, {"inbound_nodes": [[["batch_normalization_563", 0, 0, {}]]], "class_name": "Activation", "config": {"activation": "relu", "name": "activation_563", "trainable": true}, "name": "activation_563"}, {"inbound_nodes": [[["conv2d_564", 0, 0, {}]]], "class_name": "BatchNormalization", "config": {"gamma_regularizer": null, "trainable": true, "gamma_initializer": {"class_name": "Ones", "config": {}}, "beta_initializer": {"class_name": "Zeros", "config": {}}, "epsilon": 0.001, "axis": 3, "beta_regularizer": null, "beta_constraint": null, "gamma_constraint": null, "scale": false, "moving_mean_initializer": {"class_name": "Zeros", "config": {}}, "moving_variance_initializer": {"class_name": "Ones", "config": {}}, "name": "batch_normalization_564", "momentum": 0.99, "center": true}, "name": "batch_normalization_564"}, {"inbound_nodes": [[["batch_normalization_556", 0, 0, {}]]], "class_name": "Activation", "config": {"activation": "relu", "name": "activation_556", "trainable": true}, "name": "activation_556"}, {"inbound_nodes": [[["activation_558", 0, 0, {}], ["activation_559", 0, 0, {}]]], "class_name": "Concatenate", "config": {"name": "mixed9_1", "axis": 3, "trainable": true}, "name": "mixed9_1"}, {"inbound_nodes": [[["activation_562", 0, 0, {}], ["activation_563", 0, 0, {}]]], "class_name": "Concatenate", "config": {"name": "concatenate_12", "axis": 3, "trainable": true}, "name": "concatenate_12"}, {"inbound_nodes": [[["batch_normalization_564", 0, 0, {}]]], "class_name": "Activation", "config": {"activation": "relu", "name": "activation_564", "trainable": true}, "name": "activation_564"}, {"inbound_nodes": [[["activation_556", 0, 0, {}], ["mixed9_1", 0, 0, {}], ["concatenate_12", 0, 0, {}], ["activation_564", 0, 0, {}]]], "class_name": "Concatenate", "config": {"name": "mixed10", "axis": 3, "trainable": true}, "name": "mixed10"}, {"inbound_nodes": [[["mixed10", 0, 0, {}]]], "class_name": "Sequential", "config": [{"class_name": "GlobalAveragePooling2D", "config": {"batch_input_shape": [null, 8, 8, 2048], "data_format": "channels_last", "trainable": true, "name": "global_average_pooling2d_4", "dtype": "float32"}}, {"class_name": "Dense", "config": {"bias_initializer": {"class_name": "Zeros", "config": {}}, "activity_regularizer": null, "name": "dense_7", "kernel_initializer": {"class_name": "VarianceScaling", "config": {"mode": "fan_avg", "distribution": "uniform", "scale": 1.0, "seed": null}}, "trainable": true, "bias_regularizer": null, "kernel_constraint": null, "units": 256, "bias_constraint": null, "activation": "relu", "use_bias": true, "kernel_regularizer": null}}, {"class_name": "Dropout", "config": {"rate": 0.5, "name": "dropout_4", "trainable": true}}, {"class_name": "Dense", "config": {"bias_initializer": {"class_name": "Zeros", "config": {}}, "activity_regularizer": null, "name": "dense_8", "kernel_initializer": {"class_name": "VarianceScaling", "config": {"mode": "fan_avg", "distribution": "uniform", "scale": 1.0, "seed": null}}, "trainable": true, "bias_regularizer": null, "kernel_constraint": null, "units": 1, "bias_constraint": null, "activation": "sigmoid", "use_bias": true, "kernel_regularizer": null}}], "name": "sequential_4"}], "name": "model_3", "output_layers": [["sequential_4", 1, 0]], "input_layers": [["input_6", 0, 0]]}, "keras_version": "2.0.8"}