{"keras_version": "2.0.8", "class_name": "Model", "backend": "tensorflow", "config": {"input_layers": [["input_2", 0, 0]], "output_layers": [["sequential_2", 1, 0]], "name": "model_2", "layers": [{"class_name": "InputLayer", "name": "input_2", "inbound_nodes": [], "config": {"name": "input_2", "batch_input_shape": [null, 299, 299, 3], "dtype": "float32", "sparse": false}}, {"class_name": "Conv2D", "name": "conv2d_95", "inbound_nodes": [[["input_2", 0, 0, {}]]], "config": {"bias_regularizer": null, "kernel_regularizer": null, "kernel_constraint": null, "use_bias": false, "activation": "linear", "bias_initializer": {"class_name": "Zeros", "config": {}}, "data_format": "channels_last", "kernel_size": [3, 3], "kernel_initializer": {"class_name": "VarianceScaling", "config": {"scale": 1.0, "mode": "fan_avg", "seed": null, "distribution": "uniform"}}, "name": "conv2d_95", "trainable": true, "dilation_rate": [1, 1], "filters": 32, "padding": "valid", "activity_regularizer": null, "strides": [2, 2], "bias_constraint": null}}, {"class_name": "BatchNormalization", "name": "batch_normalization_95", "inbound_nodes": [[["conv2d_95", 0, 0, {}]]], "config": {"center": true, "moving_mean_initializer": {"class_name": "Zeros", "config": {}}, "moving_variance_initializer": {"class_name": "Ones", "config": {}}, "axis": 3, "gamma_constraint": null, "beta_regularizer": null, "momentum": 0.99, "epsilon": 0.001, "scale": false, "beta_initializer": {"class_name": "Zeros", "config": {}}, "gamma_regularizer": null, "name": "batch_normalization_95", "gamma_initializer": {"class_name": "Ones", "config": {}}, "trainable": true, "beta_constraint": null}}, {"class_name": "Activation", "name": "activation_95", "inbound_nodes": [[["batch_normalization_95", 0, 0, {}]]], "config": {"name": "activation_95", "trainable": true, "activation": "relu"}}, {"class_name": "Conv2D", "name": "conv2d_96", "inbound_nodes": [[["activation_95", 0, 0, {}]]], "config": {"bias_regularizer": null, "kernel_regularizer": null, "kernel_constraint": null, "use_bias": false, "activation": "linear", "bias_initializer": {"class_name": "Zeros", "config": {}}, "data_format": "channels_last", "kernel_size": [3, 3], "kernel_initializer": {"class_name": "VarianceScaling", "config": {"scale": 1.0, "mode": "fan_avg", "seed": null, "distribution": "uniform"}}, "name": "conv2d_96", "trainable": true, "dilation_rate": [1, 1], "filters": 32, "padding": "valid", "activity_regularizer": null, "strides": [1, 1], "bias_constraint": null}}, {"class_name": "BatchNormalization", "name": "batch_normalization_96", "inbound_nodes": [[["conv2d_96", 0, 0, {}]]], "config": {"center": true, "moving_mean_initializer": {"class_name": "Zeros", "config": {}}, "moving_variance_initializer": {"class_name": "Ones", "config": {}}, "axis": 3, "gamma_constraint": null, "beta_regularizer": null, "momentum": 0.99, "epsilon": 0.001, "scale": false, "beta_initializer": {"class_name": "Zeros", "config": {}}, "gamma_regularizer": null, "name": "batch_normalization_96", "gamma_initializer": {"class_name": "Ones", "config": {}}, "trainable": true, "beta_constraint": null}}, {"class_name": "Activation", "name": "activation_96", "inbound_nodes": [[["batch_normalization_96", 0, 0, {}]]], "config": {"name": "activation_96", "trainable": true, "activation": "relu"}}, {"class_name": "Conv2D", "name": "conv2d_97", "inbound_nodes": [[["activation_96", 0, 0, {}]]], "config": {"bias_regularizer": null, "kernel_regularizer": null, "kernel_constraint": null, "use_bias": false, "activation": "linear", "bias_initializer": {"class_name": "Zeros", "config": {}}, "data_format": "channels_last", "kernel_size": [3, 3], "kernel_initializer": {"class_name": "VarianceScaling", "config": {"scale": 1.0, "mode": "fan_avg", "seed": null, "distribution": "uniform"}}, "name": "conv2d_97", "trainable": true, "dilation_rate": [1, 1], "filters": 64, "padding": "same", "activity_regularizer": null, "strides": [1, 1], "bias_constraint": null}}, {"class_name": "BatchNormalization", "name": "batch_normalization_97", "inbound_nodes": [[["conv2d_97", 0, 0, {}]]], "config": {"center": true, "moving_mean_initializer": {"class_name": "Zeros", "config": {}}, "moving_variance_initializer": {"class_name": "Ones", "config": {}}, "axis": 3, "gamma_constraint": null, "beta_regularizer": null, "momentum": 0.99, "epsilon": 0.001, "scale": false, "beta_initializer": {"class_name": "Zeros", "config": {}}, "gamma_regularizer": null, "name": "batch_normalization_97", "gamma_initializer": {"class_name": "Ones", "config": {}}, "trainable": true, "beta_constraint": null}}, {"class_name": "Activation", "name": "activation_97", "inbound_nodes": [[["batch_normalization_97", 0, 0, {}]]], "config": {"name": "activation_97", "trainable": true, "activation": "relu"}}, {"class_name": "MaxPooling2D", "name": "max_pooling2d_5", "inbound_nodes": [[["activation_97", 0, 0, {}]]], "config": {"name": "max_pooling2d_5", "pool_size": [3, 3], "padding": "valid", "strides": [2, 2], "trainable": true, "data_format": "channels_last"}}, {"class_name": "Conv2D", "name": "conv2d_98", "inbound_nodes": [[["max_pooling2d_5", 0, 0, {}]]], "config": {"bias_regularizer": null, "kernel_regularizer": null, "kernel_constraint": null, "use_bias": false, "activation": "linear", "bias_initializer": {"class_name": "Zeros", "config": {}}, "data_format": "channels_last", "kernel_size": [1, 1], "kernel_initializer": {"class_name": "VarianceScaling", "config": {"scale": 1.0, "mode": "fan_avg", "seed": null, "distribution": "uniform"}}, "name": "conv2d_98", "trainable": true, "dilation_rate": [1, 1], "filters": 80, "padding": "valid", "activity_regularizer": null, "strides": [1, 1], "bias_constraint": null}}, {"class_name": "BatchNormalization", "name": "batch_normalization_98", "inbound_nodes": [[["conv2d_98", 0, 0, {}]]], "config": {"center": true, "moving_mean_initializer": {"class_name": "Zeros", "config": {}}, "moving_variance_initializer": {"class_name": "Ones", "config": {}}, "axis": 3, "gamma_constraint": null, "beta_regularizer": null, "momentum": 0.99, "epsilon": 0.001, "scale": false, "beta_initializer": {"class_name": "Zeros", "config": {}}, "gamma_regularizer": null, "name": "batch_normalization_98", "gamma_initializer": {"class_name": "Ones", "config": {}}, "trainable": true, "beta_constraint": null}}, {"class_name": "Activation", "name": "activation_98", "inbound_nodes": [[["batch_normalization_98", 0, 0, {}]]], "config": {"name": "activation_98", "trainable": true, "activation": "relu"}}, {"class_name": "Conv2D", "name": "conv2d_99", "inbound_nodes": [[["activation_98", 0, 0, {}]]], "config": {"bias_regularizer": null, "kernel_regularizer": null, "kernel_constraint": null, "use_bias": false, "activation": "linear", "bias_initializer": {"class_name": "Zeros", "config": {}}, "data_format": "channels_last", "kernel_size": [3, 3], "kernel_initializer": {"class_name": "VarianceScaling", "config": {"scale": 1.0, "mode": "fan_avg", "seed": null, "distribution": "uniform"}}, "name": "conv2d_99", "trainable": true, "dilation_rate": [1, 1], "filters": 192, "padding": "valid", "activity_regularizer": null, "strides": [1, 1], "bias_constraint": null}}, {"class_name": "BatchNormalization", "name": "batch_normalization_99", "inbound_nodes": [[["conv2d_99", 0, 0, {}]]], "config": {"center": true, "moving_mean_initializer": {"class_name": "Zeros", "config": {}}, "moving_variance_initializer": {"class_name": "Ones", "config": {}}, "axis": 3, "gamma_constraint": null, "beta_regularizer": null, "momentum": 0.99, "epsilon": 0.001, "scale": false, "beta_initializer": {"class_name": "Zeros", "config": {}}, "gamma_regularizer": null, "name": "batch_normalization_99", "gamma_initializer": {"class_name": "Ones", "config": {}}, "trainable": true, "beta_constraint": null}}, {"class_name": "Activation", "name": "activation_99", "inbound_nodes": [[["batch_normalization_99", 0, 0, {}]]], "config": {"name": "activation_99", "trainable": true, "activation": "relu"}}, {"class_name": "MaxPooling2D", "name": "max_pooling2d_6", "inbound_nodes": [[["activation_99", 0, 0, {}]]], "config": {"name": "max_pooling2d_6", "pool_size": [3, 3], "padding": "valid", "strides": [2, 2], "trainable": true, "data_format": "channels_last"}}, {"class_name": "Conv2D", "name": "conv2d_103", "inbound_nodes": [[["max_pooling2d_6", 0, 0, {}]]], "config": {"bias_regularizer": null, "kernel_regularizer": null, "kernel_constraint": null, "use_bias": false, "activation": "linear", "bias_initializer": {"class_name": "Zeros", "config": {}}, "data_format": "channels_last", "kernel_size": [1, 1], "kernel_initializer": {"class_name": "VarianceScaling", "config": {"scale": 1.0, "mode": "fan_avg", "seed": null, "distribution": "uniform"}}, "name": "conv2d_103", "trainable": true, "dilation_rate": [1, 1], "filters": 64, "padding": "same", "activity_regularizer": null, "strides": [1, 1], "bias_constraint": null}}, {"class_name": "BatchNormalization", "name": "batch_normalization_103", "inbound_nodes": [[["conv2d_103", 0, 0, {}]]], "config": {"center": true, "moving_mean_initializer": {"class_name": "Zeros", "config": {}}, "moving_variance_initializer": {"class_name": "Ones", "config": {}}, "axis": 3, "gamma_constraint": null, "beta_regularizer": null, "momentum": 0.99, "epsilon": 0.001, "scale": false, "beta_initializer": {"class_name": "Zeros", "config": {}}, "gamma_regularizer": null, "name": "batch_normalization_103", "gamma_initializer": {"class_name": "Ones", "config": {}}, "trainable": true, "beta_constraint": null}}, {"class_name": "Activation", "name": "activation_103", "inbound_nodes": [[["batch_normalization_103", 0, 0, {}]]], "config": {"name": "activation_103", "trainable": true, "activation": "relu"}}, {"class_name": "Conv2D", "name": "conv2d_101", "inbound_nodes": [[["max_pooling2d_6", 0, 0, {}]]], "config": {"bias_regularizer": null, "kernel_regularizer": null, "kernel_constraint": null, "use_bias": false, "activation": "linear", "bias_initializer": {"class_name": "Zeros", "config": {}}, "data_format": "channels_last", "kernel_size": [1, 1], "kernel_initializer": {"class_name": "VarianceScaling", "config": {"scale": 1.0, "mode": "fan_avg", "seed": null, "distribution": "uniform"}}, "name": "conv2d_101", "trainable": true, "dilation_rate": [1, 1], "filters": 48, "padding": "same", "activity_regularizer": null, "strides": [1, 1], "bias_constraint": null}}, {"class_name": "Conv2D", "name": "conv2d_104", "inbound_nodes": [[["activation_103", 0, 0, {}]]], "config": {"bias_regularizer": null, "kernel_regularizer": null, "kernel_constraint": null, "use_bias": false, "activation": "linear", "bias_initializer": {"class_name": "Zeros", "config": {}}, "data_format": "channels_last", "kernel_size": [3, 3], "kernel_initializer": {"class_name": "VarianceScaling", "config": {"scale": 1.0, "mode": "fan_avg", "seed": null, "distribution": "uniform"}}, "name": "conv2d_104", "trainable": true, "dilation_rate": [1, 1], "filters": 96, "padding": "same", "activity_regularizer": null, "strides": [1, 1], "bias_constraint": null}}, {"class_name": "BatchNormalization", "name": "batch_normalization_101", "inbound_nodes": [[["conv2d_101", 0, 0, {}]]], "config": {"center": true, "moving_mean_initializer": {"class_name": "Zeros", "config": {}}, "moving_variance_initializer": {"class_name": "Ones", "config": {}}, "axis": 3, "gamma_constraint": null, "beta_regularizer": null, "momentum": 0.99, "epsilon": 0.001, "scale": false, "beta_initializer": {"class_name": "Zeros", "config": {}}, "gamma_regularizer": null, "name": "batch_normalization_101", "gamma_initializer": {"class_name": "Ones", "config": {}}, "trainable": true, "beta_constraint": null}}, {"class_name": "BatchNormalization", "name": "batch_normalization_104", "inbound_nodes": [[["conv2d_104", 0, 0, {}]]], "config": {"center": true, "moving_mean_initializer": {"class_name": "Zeros", "config": {}}, "moving_variance_initializer": {"class_name": "Ones", "config": {}}, "axis": 3, "gamma_constraint": null, "beta_regularizer": null, "momentum": 0.99, "epsilon": 0.001, "scale": false, "beta_initializer": {"class_name": "Zeros", "config": {}}, "gamma_regularizer": null, "name": "batch_normalization_104", "gamma_initializer": {"class_name": "Ones", "config": {}}, "trainable": true, "beta_constraint": null}}, {"class_name": "Activation", "name": "activation_101", "inbound_nodes": [[["batch_normalization_101", 0, 0, {}]]], "config": {"name": "activation_101", "trainable": true, "activation": "relu"}}, {"class_name": "Activation", "name": "activation_104", "inbound_nodes": [[["batch_normalization_104", 0, 0, {}]]], "config": {"name": "activation_104", "trainable": true, "activation": "relu"}}, {"class_name": "AveragePooling2D", "name": "average_pooling2d_10", "inbound_nodes": [[["max_pooling2d_6", 0, 0, {}]]], "config": {"name": "average_pooling2d_10", "pool_size": [3, 3], "padding": "same", "strides": [1, 1], "trainable": true, "data_format": "channels_last"}}, {"class_name": "Conv2D", "name": "conv2d_100", "inbound_nodes": [[["max_pooling2d_6", 0, 0, {}]]], "config": {"bias_regularizer": null, "kernel_regularizer": null, "kernel_constraint": null, "use_bias": false, "activation": "linear", "bias_initializer": {"class_name": "Zeros", "config": {}}, "data_format": "channels_last", "kernel_size": [1, 1], "kernel_initializer": {"class_name": "VarianceScaling", "config": {"scale": 1.0, "mode": "fan_avg", "seed": null, "distribution": "uniform"}}, "name": "conv2d_100", "trainable": true, "dilation_rate": [1, 1], "filters": 64, "padding": "same", "activity_regularizer": null, "strides": [1, 1], "bias_constraint": null}}, {"class_name": "Conv2D", "name": "conv2d_102", "inbound_nodes": [[["activation_101", 0, 0, {}]]], "config": {"bias_regularizer": null, "kernel_regularizer": null, "kernel_constraint": null, "use_bias": false, "activation": "linear", "bias_initializer": {"class_name": "Zeros", "config": {}}, "data_format": "channels_last", "kernel_size": [5, 5], "kernel_initializer": {"class_name": "VarianceScaling", "config": {"scale": 1.0, "mode": "fan_avg", "seed": null, "distribution": "uniform"}}, "name": "conv2d_102", "trainable": true, "dilation_rate": [1, 1], "filters": 64, "padding": "same", "activity_regularizer": null, "strides": [1, 1], "bias_constraint": null}}, {"class_name": "Conv2D", "name": "conv2d_105", "inbound_nodes": [[["activation_104", 0, 0, {}]]], "config": {"bias_regularizer": null, "kernel_regularizer": null, "kernel_constraint": null, "use_bias": false, "activation": "linear", "bias_initializer": {"class_name": "Zeros", "config": {}}, "data_format": "channels_last", "kernel_size": [3, 3], "kernel_initializer": {"class_name": "VarianceScaling", "config": {"scale": 1.0, "mode": "fan_avg", "seed": null, "distribution": "uniform"}}, "name": "conv2d_105", "trainable": true, "dilation_rate": [1, 1], "filters": 96, "padding": "same", "activity_regularizer": null, "strides": [1, 1], "bias_constraint": null}}, {"class_name": "Conv2D", "name": "conv2d_106", "inbound_nodes": [[["average_pooling2d_10", 0, 0, {}]]], "config": {"bias_regularizer": null, "kernel_regularizer": null, "kernel_constraint": null, "use_bias": false, "activation": "linear", "bias_initializer": {"class_name": "Zeros", "config": {}}, "data_format": "channels_last", "kernel_size": [1, 1], "kernel_initializer": {"class_name": "VarianceScaling", "config": {"scale": 1.0, "mode": "fan_avg", "seed": null, "distribution": "uniform"}}, "name": "conv2d_106", "trainable": true, "dilation_rate": [1, 1], "filters": 32, "padding": "same", "activity_regularizer": null, "strides": [1, 1], "bias_constraint": null}}, {"class_name": "BatchNormalization", "name": "batch_normalization_100", "inbound_nodes": [[["conv2d_100", 0, 0, {}]]], "config": {"center": true, "moving_mean_initializer": {"class_name": "Zeros", "config": {}}, "moving_variance_initializer": {"class_name": "Ones", "config": {}}, "axis": 3, "gamma_constraint": null, "beta_regularizer": null, "momentum": 0.99, "epsilon": 0.001, "scale": false, "beta_initializer": {"class_name": "Zeros", "config": {}}, "gamma_regularizer": null, "name": "batch_normalization_100", "gamma_initializer": {"class_name": "Ones", "config": {}}, "trainable": true, "beta_constraint": null}}, {"class_name": "BatchNormalization", "name": "batch_normalization_102", "inbound_nodes": [[["conv2d_102", 0, 0, {}]]], "config": {"center": true, "moving_mean_initializer": {"class_name": "Zeros", "config": {}}, "moving_variance_initializer": {"class_name": "Ones", "config": {}}, "axis": 3, "gamma_constraint": null, "beta_regularizer": null, "momentum": 0.99, "epsilon": 0.001, "scale": false, "beta_initializer": {"class_name": "Zeros", "config": {}}, "gamma_regularizer": null, "name": "batch_normalization_102", "gamma_initializer": {"class_name": "Ones", "config": {}}, "trainable": true, "beta_constraint": null}}, {"class_name": "BatchNormalization", "name": "batch_normalization_105", "inbound_nodes": [[["conv2d_105", 0, 0, {}]]], "config": {"center": true, "moving_mean_initializer": {"class_name": "Zeros", "config": {}}, "moving_variance_initializer": {"class_name": "Ones", "config": {}}, "axis": 3, "gamma_constraint": null, "beta_regularizer": null, "momentum": 0.99, "epsilon": 0.001, "scale": false, "beta_initializer": {"class_name": "Zeros", "config": {}}, "gamma_regularizer": null, "name": "batch_normalization_105", "gamma_initializer": {"class_name": "Ones", "config": {}}, "trainable": true, "beta_constraint": null}}, {"class_name": "BatchNormalization", "name": "batch_normalization_106", "inbound_nodes": [[["conv2d_106", 0, 0, {}]]], "config": {"center": true, "moving_mean_initializer": {"class_name": "Zeros", "config": {}}, "moving_variance_initializer": {"class_name": "Ones", "config": {}}, "axis": 3, "gamma_constraint": null, "beta_regularizer": null, "momentum": 0.99, "epsilon": 0.001, "scale": false, "beta_initializer": {"class_name": "Zeros", "config": {}}, "gamma_regularizer": null, "name": "batch_normalization_106", "gamma_initializer": {"class_name": "Ones", "config": {}}, "trainable": true, "beta_constraint": null}}, {"class_name": "Activation", "name": "activation_100", "inbound_nodes": [[["batch_normalization_100", 0, 0, {}]]], "config": {"name": "activation_100", "trainable": true, "activation": "relu"}}, {"class_name": "Activation", "name": "activation_102", "inbound_nodes": [[["batch_normalization_102", 0, 0, {}]]], "config": {"name": "activation_102", "trainable": true, "activation": "relu"}}, {"class_name": "Activation", "name": "activation_105", "inbound_nodes": [[["batch_normalization_105", 0, 0, {}]]], "config": {"name": "activation_105", "trainable": true, "activation": "relu"}}, {"class_name": "Activation", "name": "activation_106", "inbound_nodes": [[["batch_normalization_106", 0, 0, {}]]], "config": {"name": "activation_106", "trainable": true, "activation": "relu"}}, {"class_name": "Concatenate", "name": "mixed0", "inbound_nodes": [[["activation_100", 0, 0, {}], ["activation_102", 0, 0, {}], ["activation_105", 0, 0, {}], ["activation_106", 0, 0, {}]]], "config": {"name": "mixed0", "trainable": true, "axis": 3}}, {"class_name": "Conv2D", "name": "conv2d_110", "inbound_nodes": [[["mixed0", 0, 0, {}]]], "config": {"bias_regularizer": null, "kernel_regularizer": null, "kernel_constraint": null, "use_bias": false, "activation": "linear", "bias_initializer": {"class_name": "Zeros", "config": {}}, "data_format": "channels_last", "kernel_size": [1, 1], "kernel_initializer": {"class_name": "VarianceScaling", "config": {"scale": 1.0, "mode": "fan_avg", "seed": null, "distribution": "uniform"}}, "name": "conv2d_110", "trainable": true, "dilation_rate": [1, 1], "filters": 64, "padding": "same", "activity_regularizer": null, "strides": [1, 1], "bias_constraint": null}}, {"class_name": "BatchNormalization", "name": "batch_normalization_110", "inbound_nodes": [[["conv2d_110", 0, 0, {}]]], "config": {"center": true, "moving_mean_initializer": {"class_name": "Zeros", "config": {}}, "moving_variance_initializer": {"class_name": "Ones", "config": {}}, "axis": 3, "gamma_constraint": null, "beta_regularizer": null, "momentum": 0.99, "epsilon": 0.001, "scale": false, "beta_initializer": {"class_name": "Zeros", "config": {}}, "gamma_regularizer": null, "name": "batch_normalization_110", "gamma_initializer": {"class_name": "Ones", "config": {}}, "trainable": true, "beta_constraint": null}}, {"class_name": "Activation", "name": "activation_110", "inbound_nodes": [[["batch_normalization_110", 0, 0, {}]]], "config": {"name": "activation_110", "trainable": true, "activation": "relu"}}, {"class_name": "Conv2D", "name": "conv2d_108", "inbound_nodes": [[["mixed0", 0, 0, {}]]], "config": {"bias_regularizer": null, "kernel_regularizer": null, "kernel_constraint": null, "use_bias": false, "activation": "linear", "bias_initializer": {"class_name": "Zeros", "config": {}}, "data_format": "channels_last", "kernel_size": [1, 1], "kernel_initializer": {"class_name": "VarianceScaling", "config": {"scale": 1.0, "mode": "fan_avg", "seed": null, "distribution": "uniform"}}, "name": "conv2d_108", "trainable": true, "dilation_rate": [1, 1], "filters": 48, "padding": "same", "activity_regularizer": null, "strides": [1, 1], "bias_constraint": null}}, {"class_name": "Conv2D", "name": "conv2d_111", "inbound_nodes": [[["activation_110", 0, 0, {}]]], "config": {"bias_regularizer": null, "kernel_regularizer": null, "kernel_constraint": null, "use_bias": false, "activation": "linear", "bias_initializer": {"class_name": "Zeros", "config": {}}, "data_format": "channels_last", "kernel_size": [3, 3], "kernel_initializer": {"class_name": "VarianceScaling", "config": {"scale": 1.0, "mode": "fan_avg", "seed": null, "distribution": "uniform"}}, "name": "conv2d_111", "trainable": true, "dilation_rate": [1, 1], "filters": 96, "padding": "same", "activity_regularizer": null, "strides": [1, 1], "bias_constraint": null}}, {"class_name": "BatchNormalization", "name": "batch_normalization_108", "inbound_nodes": [[["conv2d_108", 0, 0, {}]]], "config": {"center": true, "moving_mean_initializer": {"class_name": "Zeros", "config": {}}, "moving_variance_initializer": {"class_name": "Ones", "config": {}}, "axis": 3, "gamma_constraint": null, "beta_regularizer": null, "momentum": 0.99, "epsilon": 0.001, "scale": false, "beta_initializer": {"class_name": "Zeros", "config": {}}, "gamma_regularizer": null, "name": "batch_normalization_108", "gamma_initializer": {"class_name": "Ones", "config": {}}, "trainable": true, "beta_constraint": null}}, {"class_name": "BatchNormalization", "name": "batch_normalization_111", "inbound_nodes": [[["conv2d_111", 0, 0, {}]]], "config": {"center": true, "moving_mean_initializer": {"class_name": "Zeros", "config": {}}, "moving_variance_initializer": {"class_name": "Ones", "config": {}}, "axis": 3, "gamma_constraint": null, "beta_regularizer": null, "momentum": 0.99, "epsilon": 0.001, "scale": false, "beta_initializer": {"class_name": "Zeros", "config": {}}, "gamma_regularizer": null, "name": "batch_normalization_111", "gamma_initializer": {"class_name": "Ones", "config": {}}, "trainable": true, "beta_constraint": null}}, {"class_name": "Activation", "name": "activation_108", "inbound_nodes": [[["batch_normalization_108", 0, 0, {}]]], "config": {"name": "activation_108", "trainable": true, "activation": "relu"}}, {"class_name": "Activation", "name": "activation_111", "inbound_nodes": [[["batch_normalization_111", 0, 0, {}]]], "config": {"name": "activation_111", "trainable": true, "activation": "relu"}}, {"class_name": "AveragePooling2D", "name": "average_pooling2d_11", "inbound_nodes": [[["mixed0", 0, 0, {}]]], "config": {"name": "average_pooling2d_11", "pool_size": [3, 3], "padding": "same", "strides": [1, 1], "trainable": true, "data_format": "channels_last"}}, {"class_name": "Conv2D", "name": "conv2d_107", "inbound_nodes": [[["mixed0", 0, 0, {}]]], "config": {"bias_regularizer": null, "kernel_regularizer": null, "kernel_constraint": null, "use_bias": false, "activation": "linear", "bias_initializer": {"class_name": "Zeros", "config": {}}, "data_format": "channels_last", "kernel_size": [1, 1], "kernel_initializer": {"class_name": "VarianceScaling", "config": {"scale": 1.0, "mode": "fan_avg", "seed": null, "distribution": "uniform"}}, "name": "conv2d_107", "trainable": true, "dilation_rate": [1, 1], "filters": 64, "padding": "same", "activity_regularizer": null, "strides": [1, 1], "bias_constraint": null}}, {"class_name": "Conv2D", "name": "conv2d_109", "inbound_nodes": [[["activation_108", 0, 0, {}]]], "config": {"bias_regularizer": null, "kernel_regularizer": null, "kernel_constraint": null, "use_bias": false, "activation": "linear", "bias_initializer": {"class_name": "Zeros", "config": {}}, "data_format": "channels_last", "kernel_size": [5, 5], "kernel_initializer": {"class_name": "VarianceScaling", "config": {"scale": 1.0, "mode": "fan_avg", "seed": null, "distribution": "uniform"}}, "name": "conv2d_109", "trainable": true, "dilation_rate": [1, 1], "filters": 64, "padding": "same", "activity_regularizer": null, "strides": [1, 1], "bias_constraint": null}}, {"class_name": "Conv2D", "name": "conv2d_112", "inbound_nodes": [[["activation_111", 0, 0, {}]]], "config": {"bias_regularizer": null, "kernel_regularizer": null, "kernel_constraint": null, "use_bias": false, "activation": "linear", "bias_initializer": {"class_name": "Zeros", "config": {}}, "data_format": "channels_last", "kernel_size": [3, 3], "kernel_initializer": {"class_name": "VarianceScaling", "config": {"scale": 1.0, "mode": "fan_avg", "seed": null, "distribution": "uniform"}}, "name": "conv2d_112", "trainable": true, "dilation_rate": [1, 1], "filters": 96, "padding": "same", "activity_regularizer": null, "strides": [1, 1], "bias_constraint": null}}, {"class_name": "Conv2D", "name": "conv2d_113", "inbound_nodes": [[["average_pooling2d_11", 0, 0, {}]]], "config": {"bias_regularizer": null, "kernel_regularizer": null, "kernel_constraint": null, "use_bias": false, "activation": "linear", "bias_initializer": {"class_name": "Zeros", "config": {}}, "data_format": "channels_last", "kernel_size": [1, 1], "kernel_initializer": {"class_name": "VarianceScaling", "config": {"scale": 1.0, "mode": "fan_avg", "seed": null, "distribution": "uniform"}}, "name": "conv2d_113", "trainable": true, "dilation_rate": [1, 1], "filters": 64, "padding": "same", "activity_regularizer": null, "strides": [1, 1], "bias_constraint": null}}, {"class_name": "BatchNormalization", "name": "batch_normalization_107", "inbound_nodes": [[["conv2d_107", 0, 0, {}]]], "config": {"center": true, "moving_mean_initializer": {"class_name": "Zeros", "config": {}}, "moving_variance_initializer": {"class_name": "Ones", "config": {}}, "axis": 3, "gamma_constraint": null, "beta_regularizer": null, "momentum": 0.99, "epsilon": 0.001, "scale": false, "beta_initializer": {"class_name": "Zeros", "config": {}}, "gamma_regularizer": null, "name": "batch_normalization_107", "gamma_initializer": {"class_name": "Ones", "config": {}}, "trainable": true, "beta_constraint": null}}, {"class_name": "BatchNormalization", "name": "batch_normalization_109", "inbound_nodes": [[["conv2d_109", 0, 0, {}]]], "config": {"center": true, "moving_mean_initializer": {"class_name": "Zeros", "config": {}}, "moving_variance_initializer": {"class_name": "Ones", "config": {}}, "axis": 3, "gamma_constraint": null, "beta_regularizer": null, "momentum": 0.99, "epsilon": 0.001, "scale": false, "beta_initializer": {"class_name": "Zeros", "config": {}}, "gamma_regularizer": null, "name": "batch_normalization_109", "gamma_initializer": {"class_name": "Ones", "config": {}}, "trainable": true, "beta_constraint": null}}, {"class_name": "BatchNormalization", "name": "batch_normalization_112", "inbound_nodes": [[["conv2d_112", 0, 0, {}]]], "config": {"center": true, "moving_mean_initializer": {"class_name": "Zeros", "config": {}}, "moving_variance_initializer": {"class_name": "Ones", "config": {}}, "axis": 3, "gamma_constraint": null, "beta_regularizer": null, "momentum": 0.99, "epsilon": 0.001, "scale": false, "beta_initializer": {"class_name": "Zeros", "config": {}}, "gamma_regularizer": null, "name": "batch_normalization_112", "gamma_initializer": {"class_name": "Ones", "config": {}}, "trainable": true, "beta_constraint": null}}, {"class_name": "BatchNormalization", "name": "batch_normalization_113", "inbound_nodes": [[["conv2d_113", 0, 0, {}]]], "config": {"center": true, "moving_mean_initializer": {"class_name": "Zeros", "config": {}}, "moving_variance_initializer": {"class_name": "Ones", "config": {}}, "axis": 3, "gamma_constraint": null, "beta_regularizer": null, "momentum": 0.99, "epsilon": 0.001, "scale": false, "beta_initializer": {"class_name": "Zeros", "config": {}}, "gamma_regularizer": null, "name": "batch_normalization_113", "gamma_initializer": {"class_name": "Ones", "config": {}}, "trainable": true, "beta_constraint": null}}, {"class_name": "Activation", "name": "activation_107", "inbound_nodes": [[["batch_normalization_107", 0, 0, {}]]], "config": {"name": "activation_107", "trainable": true, "activation": "relu"}}, {"class_name": "Activation", "name": "activation_109", "inbound_nodes": [[["batch_normalization_109", 0, 0, {}]]], "config": {"name": "activation_109", "trainable": true, "activation": "relu"}}, {"class_name": "Activation", "name": "activation_112", "inbound_nodes": [[["batch_normalization_112", 0, 0, {}]]], "config": {"name": "activation_112", "trainable": true, "activation": "relu"}}, {"class_name": "Activation", "name": "activation_113", "inbound_nodes": [[["batch_normalization_113", 0, 0, {}]]], "config": {"name": "activation_113", "trainable": true, "activation": "relu"}}, {"class_name": "Concatenate", "name": "mixed1", "inbound_nodes": [[["activation_107", 0, 0, {}], ["activation_109", 0, 0, {}], ["activation_112", 0, 0, {}], ["activation_113", 0, 0, {}]]], "config": {"name": "mixed1", "trainable": true, "axis": 3}}, {"class_name": "Conv2D", "name": "conv2d_117", "inbound_nodes": [[["mixed1", 0, 0, {}]]], "config": {"bias_regularizer": null, "kernel_regularizer": null, "kernel_constraint": null, "use_bias": false, "activation": "linear", "bias_initializer": {"class_name": "Zeros", "config": {}}, "data_format": "channels_last", "kernel_size": [1, 1], "kernel_initializer": {"class_name": "VarianceScaling", "config": {"scale": 1.0, "mode": "fan_avg", "seed": null, "distribution": "uniform"}}, "name": "conv2d_117", "trainable": true, "dilation_rate": [1, 1], "filters": 64, "padding": "same", "activity_regularizer": null, "strides": [1, 1], "bias_constraint": null}}, {"class_name": "BatchNormalization", "name": "batch_normalization_117", "inbound_nodes": [[["conv2d_117", 0, 0, {}]]], "config": {"center": true, "moving_mean_initializer": {"class_name": "Zeros", "config": {}}, "moving_variance_initializer": {"class_name": "Ones", "config": {}}, "axis": 3, "gamma_constraint": null, "beta_regularizer": null, "momentum": 0.99, "epsilon": 0.001, "scale": false, "beta_initializer": {"class_name": "Zeros", "config": {}}, "gamma_regularizer": null, "name": "batch_normalization_117", "gamma_initializer": {"class_name": "Ones", "config": {}}, "trainable": true, "beta_constraint": null}}, {"class_name": "Activation", "name": "activation_117", "inbound_nodes": [[["batch_normalization_117", 0, 0, {}]]], "config": {"name": "activation_117", "trainable": true, "activation": "relu"}}, {"class_name": "Conv2D", "name": "conv2d_115", "inbound_nodes": [[["mixed1", 0, 0, {}]]], "config": {"bias_regularizer": null, "kernel_regularizer": null, "kernel_constraint": null, "use_bias": false, "activation": "linear", "bias_initializer": {"class_name": "Zeros", "config": {}}, "data_format": "channels_last", "kernel_size": [1, 1], "kernel_initializer": {"class_name": "VarianceScaling", "config": {"scale": 1.0, "mode": "fan_avg", "seed": null, "distribution": "uniform"}}, "name": "conv2d_115", "trainable": true, "dilation_rate": [1, 1], "filters": 48, "padding": "same", "activity_regularizer": null, "strides": [1, 1], "bias_constraint": null}}, {"class_name": "Conv2D", "name": "conv2d_118", "inbound_nodes": [[["activation_117", 0, 0, {}]]], "config": {"bias_regularizer": null, "kernel_regularizer": null, "kernel_constraint": null, "use_bias": false, "activation": "linear", "bias_initializer": {"class_name": "Zeros", "config": {}}, "data_format": "channels_last", "kernel_size": [3, 3], "kernel_initializer": {"class_name": "VarianceScaling", "config": {"scale": 1.0, "mode": "fan_avg", "seed": null, "distribution": "uniform"}}, "name": "conv2d_118", "trainable": true, "dilation_rate": [1, 1], "filters": 96, "padding": "same", "activity_regularizer": null, "strides": [1, 1], "bias_constraint": null}}, {"class_name": "BatchNormalization", "name": "batch_normalization_115", "inbound_nodes": [[["conv2d_115", 0, 0, {}]]], "config": {"center": true, "moving_mean_initializer": {"class_name": "Zeros", "config": {}}, "moving_variance_initializer": {"class_name": "Ones", "config": {}}, "axis": 3, "gamma_constraint": null, "beta_regularizer": null, "momentum": 0.99, "epsilon": 0.001, "scale": false, "beta_initializer": {"class_name": "Zeros", "config": {}}, "gamma_regularizer": null, "name": "batch_normalization_115", "gamma_initializer": {"class_name": "Ones", "config": {}}, "trainable": true, "beta_constraint": null}}, {"class_name": "BatchNormalization", "name": "batch_normalization_118", "inbound_nodes": [[["conv2d_118", 0, 0, {}]]], "config": {"center": true, "moving_mean_initializer": {"class_name": "Zeros", "config": {}}, "moving_variance_initializer": {"class_name": "Ones", "config": {}}, "axis": 3, "gamma_constraint": null, "beta_regularizer": null, "momentum": 0.99, "epsilon": 0.001, "scale": false, "beta_initializer": {"class_name": "Zeros", "config": {}}, "gamma_regularizer": null, "name": "batch_normalization_118", "gamma_initializer": {"class_name": "Ones", "config": {}}, "trainable": true, "beta_constraint": null}}, {"class_name": "Activation", "name": "activation_115", "inbound_nodes": [[["batch_normalization_115", 0, 0, {}]]], "config": {"name": "activation_115", "trainable": true, "activation": "relu"}}, {"class_name": "Activation", "name": "activation_118", "inbound_nodes": [[["batch_normalization_118", 0, 0, {}]]], "config": {"name": "activation_118", "trainable": true, "activation": "relu"}}, {"class_name": "AveragePooling2D", "name": "average_pooling2d_12", "inbound_nodes": [[["mixed1", 0, 0, {}]]], "config": {"name": "average_pooling2d_12", "pool_size": [3, 3], "padding": "same", "strides": [1, 1], "trainable": true, "data_format": "channels_last"}}, {"class_name": "Conv2D", "name": "conv2d_114", "inbound_nodes": [[["mixed1", 0, 0, {}]]], "config": {"bias_regularizer": null, "kernel_regularizer": null, "kernel_constraint": null, "use_bias": false, "activation": "linear", "bias_initializer": {"class_name": "Zeros", "config": {}}, "data_format": "channels_last", "kernel_size": [1, 1], "kernel_initializer": {"class_name": "VarianceScaling", "config": {"scale": 1.0, "mode": "fan_avg", "seed": null, "distribution": "uniform"}}, "name": "conv2d_114", "trainable": true, "dilation_rate": [1, 1], "filters": 64, "padding": "same", "activity_regularizer": null, "strides": [1, 1], "bias_constraint": null}}, {"class_name": "Conv2D", "name": "conv2d_116", "inbound_nodes": [[["activation_115", 0, 0, {}]]], "config": {"bias_regularizer": null, "kernel_regularizer": null, "kernel_constraint": null, "use_bias": false, "activation": "linear", "bias_initializer": {"class_name": "Zeros", "config": {}}, "data_format": "channels_last", "kernel_size": [5, 5], "kernel_initializer": {"class_name": "VarianceScaling", "config": {"scale": 1.0, "mode": "fan_avg", "seed": null, "distribution": "uniform"}}, "name": "conv2d_116", "trainable": true, "dilation_rate": [1, 1], "filters": 64, "padding": "same", "activity_regularizer": null, "strides": [1, 1], "bias_constraint": null}}, {"class_name": "Conv2D", "name": "conv2d_119", "inbound_nodes": [[["activation_118", 0, 0, {}]]], "config": {"bias_regularizer": null, "kernel_regularizer": null, "kernel_constraint": null, "use_bias": false, "activation": "linear", "bias_initializer": {"class_name": "Zeros", "config": {}}, "data_format": "channels_last", "kernel_size": [3, 3], "kernel_initializer": {"class_name": "VarianceScaling", "config": {"scale": 1.0, "mode": "fan_avg", "seed": null, "distribution": "uniform"}}, "name": "conv2d_119", "trainable": true, "dilation_rate": [1, 1], "filters": 96, "padding": "same", "activity_regularizer": null, "strides": [1, 1], "bias_constraint": null}}, {"class_name": "Conv2D", "name": "conv2d_120", "inbound_nodes": [[["average_pooling2d_12", 0, 0, {}]]], "config": {"bias_regularizer": null, "kernel_regularizer": null, "kernel_constraint": null, "use_bias": false, "activation": "linear", "bias_initializer": {"class_name": "Zeros", "config": {}}, "data_format": "channels_last", "kernel_size": [1, 1], "kernel_initializer": {"class_name": "VarianceScaling", "config": {"scale": 1.0, "mode": "fan_avg", "seed": null, "distribution": "uniform"}}, "name": "conv2d_120", "trainable": true, "dilation_rate": [1, 1], "filters": 64, "padding": "same", "activity_regularizer": null, "strides": [1, 1], "bias_constraint": null}}, {"class_name": "BatchNormalization", "name": "batch_normalization_114", "inbound_nodes": [[["conv2d_114", 0, 0, {}]]], "config": {"center": true, "moving_mean_initializer": {"class_name": "Zeros", "config": {}}, "moving_variance_initializer": {"class_name": "Ones", "config": {}}, "axis": 3, "gamma_constraint": null, "beta_regularizer": null, "momentum": 0.99, "epsilon": 0.001, "scale": false, "beta_initializer": {"class_name": "Zeros", "config": {}}, "gamma_regularizer": null, "name": "batch_normalization_114", "gamma_initializer": {"class_name": "Ones", "config": {}}, "trainable": true, "beta_constraint": null}}, {"class_name": "BatchNormalization", "name": "batch_normalization_116", "inbound_nodes": [[["conv2d_116", 0, 0, {}]]], "config": {"center": true, "moving_mean_initializer": {"class_name": "Zeros", "config": {}}, "moving_variance_initializer": {"class_name": "Ones", "config": {}}, "axis": 3, "gamma_constraint": null, "beta_regularizer": null, "momentum": 0.99, "epsilon": 0.001, "scale": false, "beta_initializer": {"class_name": "Zeros", "config": {}}, "gamma_regularizer": null, "name": "batch_normalization_116", "gamma_initializer": {"class_name": "Ones", "config": {}}, "trainable": true, "beta_constraint": null}}, {"class_name": "BatchNormalization", "name": "batch_normalization_119", "inbound_nodes": [[["conv2d_119", 0, 0, {}]]], "config": {"center": true, "moving_mean_initializer": {"class_name": "Zeros", "config": {}}, "moving_variance_initializer": {"class_name": "Ones", "config": {}}, "axis": 3, "gamma_constraint": null, "beta_regularizer": null, "momentum": 0.99, "epsilon": 0.001, "scale": false, "beta_initializer": {"class_name": "Zeros", "config": {}}, "gamma_regularizer": null, "name": "batch_normalization_119", "gamma_initializer": {"class_name": "Ones", "config": {}}, "trainable": true, "beta_constraint": null}}, {"class_name": "BatchNormalization", "name": "batch_normalization_120", "inbound_nodes": [[["conv2d_120", 0, 0, {}]]], "config": {"center": true, "moving_mean_initializer": {"class_name": "Zeros", "config": {}}, "moving_variance_initializer": {"class_name": "Ones", "config": {}}, "axis": 3, "gamma_constraint": null, "beta_regularizer": null, "momentum": 0.99, "epsilon": 0.001, "scale": false, "beta_initializer": {"class_name": "Zeros", "config": {}}, "gamma_regularizer": null, "name": "batch_normalization_120", "gamma_initializer": {"class_name": "Ones", "config": {}}, "trainable": true, "beta_constraint": null}}, {"class_name": "Activation", "name": "activation_114", "inbound_nodes": [[["batch_normalization_114", 0, 0, {}]]], "config": {"name": "activation_114", "trainable": true, "activation": "relu"}}, {"class_name": "Activation", "name": "activation_116", "inbound_nodes": [[["batch_normalization_116", 0, 0, {}]]], "config": {"name": "activation_116", "trainable": true, "activation": "relu"}}, {"class_name": "Activation", "name": "activation_119", "inbound_nodes": [[["batch_normalization_119", 0, 0, {}]]], "config": {"name": "activation_119", "trainable": true, "activation": "relu"}}, {"class_name": "Activation", "name": "activation_120", "inbound_nodes": [[["batch_normalization_120", 0, 0, {}]]], "config": {"name": "activation_120", "trainable": true, "activation": "relu"}}, {"class_name": "Concatenate", "name": "mixed2", "inbound_nodes": [[["activation_114", 0, 0, {}], ["activation_116", 0, 0, {}], ["activation_119", 0, 0, {}], ["activation_120", 0, 0, {}]]], "config": {"name": "mixed2", "trainable": true, "axis": 3}}, {"class_name": "Conv2D", "name": "conv2d_122", "inbound_nodes": [[["mixed2", 0, 0, {}]]], "config": {"bias_regularizer": null, "kernel_regularizer": null, "kernel_constraint": null, "use_bias": false, "activation": "linear", "bias_initializer": {"class_name": "Zeros", "config": {}}, "data_format": "channels_last", "kernel_size": [1, 1], "kernel_initializer": {"class_name": "VarianceScaling", "config": {"scale": 1.0, "mode": "fan_avg", "seed": null, "distribution": "uniform"}}, "name": "conv2d_122", "trainable": true, "dilation_rate": [1, 1], "filters": 64, "padding": "same", "activity_regularizer": null, "strides": [1, 1], "bias_constraint": null}}, {"class_name": "BatchNormalization", "name": "batch_normalization_122", "inbound_nodes": [[["conv2d_122", 0, 0, {}]]], "config": {"center": true, "moving_mean_initializer": {"class_name": "Zeros", "config": {}}, "moving_variance_initializer": {"class_name": "Ones", "config": {}}, "axis": 3, "gamma_constraint": null, "beta_regularizer": null, "momentum": 0.99, "epsilon": 0.001, "scale": false, "beta_initializer": {"class_name": "Zeros", "config": {}}, "gamma_regularizer": null, "name": "batch_normalization_122", "gamma_initializer": {"class_name": "Ones", "config": {}}, "trainable": true, "beta_constraint": null}}, {"class_name": "Activation", "name": "activation_122", "inbound_nodes": [[["batch_normalization_122", 0, 0, {}]]], "config": {"name": "activation_122", "trainable": true, "activation": "relu"}}, {"class_name": "Conv2D", "name": "conv2d_123", "inbound_nodes": [[["activation_122", 0, 0, {}]]], "config": {"bias_regularizer": null, "kernel_regularizer": null, "kernel_constraint": null, "use_bias": false, "activation": "linear", "bias_initializer": {"class_name": "Zeros", "config": {}}, "data_format": "channels_last", "kernel_size": [3, 3], "kernel_initializer": {"class_name": "VarianceScaling", "config": {"scale": 1.0, "mode": "fan_avg", "seed": null, "distribution": "uniform"}}, "name": "conv2d_123", "trainable": true, "dilation_rate": [1, 1], "filters": 96, "padding": "same", "activity_regularizer": null, "strides": [1, 1], "bias_constraint": null}}, {"class_name": "BatchNormalization", "name": "batch_normalization_123", "inbound_nodes": [[["conv2d_123", 0, 0, {}]]], "config": {"center": true, "moving_mean_initializer": {"class_name": "Zeros", "config": {}}, "moving_variance_initializer": {"class_name": "Ones", "config": {}}, "axis": 3, "gamma_constraint": null, "beta_regularizer": null, "momentum": 0.99, "epsilon": 0.001, "scale": false, "beta_initializer": {"class_name": "Zeros", "config": {}}, "gamma_regularizer": null, "name": "batch_normalization_123", "gamma_initializer": {"class_name": "Ones", "config": {}}, "trainable": true, "beta_constraint": null}}, {"class_name": "Activation", "name": "activation_123", "inbound_nodes": [[["batch_normalization_123", 0, 0, {}]]], "config": {"name": "activation_123", "trainable": true, "activation": "relu"}}, {"class_name": "Conv2D", "name": "conv2d_121", "inbound_nodes": [[["mixed2", 0, 0, {}]]], "config": {"bias_regularizer": null, "kernel_regularizer": null, "kernel_constraint": null, "use_bias": false, "activation": "linear", "bias_initializer": {"class_name": "Zeros", "config": {}}, "data_format": "channels_last", "kernel_size": [3, 3], "kernel_initializer": {"class_name": "VarianceScaling", "config": {"scale": 1.0, "mode": "fan_avg", "seed": null, "distribution": "uniform"}}, "name": "conv2d_121", "trainable": true, "dilation_rate": [1, 1], "filters": 384, "padding": "valid", "activity_regularizer": null, "strides": [2, 2], "bias_constraint": null}}, {"class_name": "Conv2D", "name": "conv2d_124", "inbound_nodes": [[["activation_123", 0, 0, {}]]], "config": {"bias_regularizer": null, "kernel_regularizer": null, "kernel_constraint": null, "use_bias": false, "activation": "linear", "bias_initializer": {"class_name": "Zeros", "config": {}}, "data_format": "channels_last", "kernel_size": [3, 3], "kernel_initializer": {"class_name": "VarianceScaling", "config": {"scale": 1.0, "mode": "fan_avg", "seed": null, "distribution": "uniform"}}, "name": "conv2d_124", "trainable": true, "dilation_rate": [1, 1], "filters": 96, "padding": "valid", "activity_regularizer": null, "strides": [2, 2], "bias_constraint": null}}, {"class_name": "BatchNormalization", "name": "batch_normalization_121", "inbound_nodes": [[["conv2d_121", 0, 0, {}]]], "config": {"center": true, "moving_mean_initializer": {"class_name": "Zeros", "config": {}}, "moving_variance_initializer": {"class_name": "Ones", "config": {}}, "axis": 3, "gamma_constraint": null, "beta_regularizer": null, "momentum": 0.99, "epsilon": 0.001, "scale": false, "beta_initializer": {"class_name": "Zeros", "config": {}}, "gamma_regularizer": null, "name": "batch_normalization_121", "gamma_initializer": {"class_name": "Ones", "config": {}}, "trainable": true, "beta_constraint": null}}, {"class_name": "BatchNormalization", "name": "batch_normalization_124", "inbound_nodes": [[["conv2d_124", 0, 0, {}]]], "config": {"center": true, "moving_mean_initializer": {"class_name": "Zeros", "config": {}}, "moving_variance_initializer": {"class_name": "Ones", "config": {}}, "axis": 3, "gamma_constraint": null, "beta_regularizer": null, "momentum": 0.99, "epsilon": 0.001, "scale": false, "beta_initializer": {"class_name": "Zeros", "config": {}}, "gamma_regularizer": null, "name": "batch_normalization_124", "gamma_initializer": {"class_name": "Ones", "config": {}}, "trainable": true, "beta_constraint": null}}, {"class_name": "Activation", "name": "activation_121", "inbound_nodes": [[["batch_normalization_121", 0, 0, {}]]], "config": {"name": "activation_121", "trainable": true, "activation": "relu"}}, {"class_name": "Activation", "name": "activation_124", "inbound_nodes": [[["batch_normalization_124", 0, 0, {}]]], "config": {"name": "activation_124", "trainable": true, "activation": "relu"}}, {"class_name": "MaxPooling2D", "name": "max_pooling2d_7", "inbound_nodes": [[["mixed2", 0, 0, {}]]], "config": {"name": "max_pooling2d_7", "pool_size": [3, 3], "padding": "valid", "strides": [2, 2], "trainable": true, "data_format": "channels_last"}}, {"class_name": "Concatenate", "name": "mixed3", "inbound_nodes": [[["activation_121", 0, 0, {}], ["activation_124", 0, 0, {}], ["max_pooling2d_7", 0, 0, {}]]], "config": {"name": "mixed3", "trainable": true, "axis": 3}}, {"class_name": "Conv2D", "name": "conv2d_129", "inbound_nodes": [[["mixed3", 0, 0, {}]]], "config": {"bias_regularizer": null, "kernel_regularizer": null, "kernel_constraint": null, "use_bias": false, "activation": "linear", "bias_initializer": {"class_name": "Zeros", "config": {}}, "data_format": "channels_last", "kernel_size": [1, 1], "kernel_initializer": {"class_name": "VarianceScaling", "config": {"scale": 1.0, "mode": "fan_avg", "seed": null, "distribution": "uniform"}}, "name": "conv2d_129", "trainable": true, "dilation_rate": [1, 1], "filters": 128, "padding": "same", "activity_regularizer": null, "strides": [1, 1], "bias_constraint": null}}, {"class_name": "BatchNormalization", "name": "batch_normalization_129", "inbound_nodes": [[["conv2d_129", 0, 0, {}]]], "config": {"center": true, "moving_mean_initializer": {"class_name": "Zeros", "config": {}}, "moving_variance_initializer": {"class_name": "Ones", "config": {}}, "axis": 3, "gamma_constraint": null, "beta_regularizer": null, "momentum": 0.99, "epsilon": 0.001, "scale": false, "beta_initializer": {"class_name": "Zeros", "config": {}}, "gamma_regularizer": null, "name": "batch_normalization_129", "gamma_initializer": {"class_name": "Ones", "config": {}}, "trainable": true, "beta_constraint": null}}, {"class_name": "Activation", "name": "activation_129", "inbound_nodes": [[["batch_normalization_129", 0, 0, {}]]], "config": {"name": "activation_129", "trainable": true, "activation": "relu"}}, {"class_name": "Conv2D", "name": "conv2d_130", "inbound_nodes": [[["activation_129", 0, 0, {}]]], "config": {"bias_regularizer": null, "kernel_regularizer": null, "kernel_constraint": null, "use_bias": false, "activation": "linear", "bias_initializer": {"class_name": "Zeros", "config": {}}, "data_format": "channels_last", "kernel_size": [7, 1], "kernel_initializer": {"class_name": "VarianceScaling", "config": {"scale": 1.0, "mode": "fan_avg", "seed": null, "distribution": "uniform"}}, "name": "conv2d_130", "trainable": true, "dilation_rate": [1, 1], "filters": 128, "padding": "same", "activity_regularizer": null, "strides": [1, 1], "bias_constraint": null}}, {"class_name": "BatchNormalization", "name": "batch_normalization_130", "inbound_nodes": [[["conv2d_130", 0, 0, {}]]], "config": {"center": true, "moving_mean_initializer": {"class_name": "Zeros", "config": {}}, "moving_variance_initializer": {"class_name": "Ones", "config": {}}, "axis": 3, "gamma_constraint": null, "beta_regularizer": null, "momentum": 0.99, "epsilon": 0.001, "scale": false, "beta_initializer": {"class_name": "Zeros", "config": {}}, "gamma_regularizer": null, "name": "batch_normalization_130", "gamma_initializer": {"class_name": "Ones", "config": {}}, "trainable": true, "beta_constraint": null}}, {"class_name": "Activation", "name": "activation_130", "inbound_nodes": [[["batch_normalization_130", 0, 0, {}]]], "config": {"name": "activation_130", "trainable": true, "activation": "relu"}}, {"class_name": "Conv2D", "name": "conv2d_126", "inbound_nodes": [[["mixed3", 0, 0, {}]]], "config": {"bias_regularizer": null, "kernel_regularizer": null, "kernel_constraint": null, "use_bias": false, "activation": "linear", "bias_initializer": {"class_name": "Zeros", "config": {}}, "data_format": "channels_last", "kernel_size": [1, 1], "kernel_initializer": {"class_name": "VarianceScaling", "config": {"scale": 1.0, "mode": "fan_avg", "seed": null, "distribution": "uniform"}}, "name": "conv2d_126", "trainable": true, "dilation_rate": [1, 1], "filters": 128, "padding": "same", "activity_regularizer": null, "strides": [1, 1], "bias_constraint": null}}, {"class_name": "Conv2D", "name": "conv2d_131", "inbound_nodes": [[["activation_130", 0, 0, {}]]], "config": {"bias_regularizer": null, "kernel_regularizer": null, "kernel_constraint": null, "use_bias": false, "activation": "linear", "bias_initializer": {"class_name": "Zeros", "config": {}}, "data_format": "channels_last", "kernel_size": [1, 7], "kernel_initializer": {"class_name": "VarianceScaling", "config": {"scale": 1.0, "mode": "fan_avg", "seed": null, "distribution": "uniform"}}, "name": "conv2d_131", "trainable": true, "dilation_rate": [1, 1], "filters": 128, "padding": "same", "activity_regularizer": null, "strides": [1, 1], "bias_constraint": null}}, {"class_name": "BatchNormalization", "name": "batch_normalization_126", "inbound_nodes": [[["conv2d_126", 0, 0, {}]]], "config": {"center": true, "moving_mean_initializer": {"class_name": "Zeros", "config": {}}, "moving_variance_initializer": {"class_name": "Ones", "config": {}}, "axis": 3, "gamma_constraint": null, "beta_regularizer": null, "momentum": 0.99, "epsilon": 0.001, "scale": false, "beta_initializer": {"class_name": "Zeros", "config": {}}, "gamma_regularizer": null, "name": "batch_normalization_126", "gamma_initializer": {"class_name": "Ones", "config": {}}, "trainable": true, "beta_constraint": null}}, {"class_name": "BatchNormalization", "name": "batch_normalization_131", "inbound_nodes": [[["conv2d_131", 0, 0, {}]]], "config": {"center": true, "moving_mean_initializer": {"class_name": "Zeros", "config": {}}, "moving_variance_initializer": {"class_name": "Ones", "config": {}}, "axis": 3, "gamma_constraint": null, "beta_regularizer": null, "momentum": 0.99, "epsilon": 0.001, "scale": false, "beta_initializer": {"class_name": "Zeros", "config": {}}, "gamma_regularizer": null, "name": "batch_normalization_131", "gamma_initializer": {"class_name": "Ones", "config": {}}, "trainable": true, "beta_constraint": null}}, {"class_name": "Activation", "name": "activation_126", "inbound_nodes": [[["batch_normalization_126", 0, 0, {}]]], "config": {"name": "activation_126", "trainable": true, "activation": "relu"}}, {"class_name": "Activation", "name": "activation_131", "inbound_nodes": [[["batch_normalization_131", 0, 0, {}]]], "config": {"name": "activation_131", "trainable": true, "activation": "relu"}}, {"class_name": "Conv2D", "name": "conv2d_127", "inbound_nodes": [[["activation_126", 0, 0, {}]]], "config": {"bias_regularizer": null, "kernel_regularizer": null, "kernel_constraint": null, "use_bias": false, "activation": "linear", "bias_initializer": {"class_name": "Zeros", "config": {}}, "data_format": "channels_last", "kernel_size": [1, 7], "kernel_initializer": {"class_name": "VarianceScaling", "config": {"scale": 1.0, "mode": "fan_avg", "seed": null, "distribution": "uniform"}}, "name": "conv2d_127", "trainable": true, "dilation_rate": [1, 1], "filters": 128, "padding": "same", "activity_regularizer": null, "strides": [1, 1], "bias_constraint": null}}, {"class_name": "Conv2D", "name": "conv2d_132", "inbound_nodes": [[["activation_131", 0, 0, {}]]], "config": {"bias_regularizer": null, "kernel_regularizer": null, "kernel_constraint": null, "use_bias": false, "activation": "linear", "bias_initializer": {"class_name": "Zeros", "config": {}}, "data_format": "channels_last", "kernel_size": [7, 1], "kernel_initializer": {"class_name": "VarianceScaling", "config": {"scale": 1.0, "mode": "fan_avg", "seed": null, "distribution": "uniform"}}, "name": "conv2d_132", "trainable": true, "dilation_rate": [1, 1], "filters": 128, "padding": "same", "activity_regularizer": null, "strides": [1, 1], "bias_constraint": null}}, {"class_name": "BatchNormalization", "name": "batch_normalization_127", "inbound_nodes": [[["conv2d_127", 0, 0, {}]]], "config": {"center": true, "moving_mean_initializer": {"class_name": "Zeros", "config": {}}, "moving_variance_initializer": {"class_name": "Ones", "config": {}}, "axis": 3, "gamma_constraint": null, "beta_regularizer": null, "momentum": 0.99, "epsilon": 0.001, "scale": false, "beta_initializer": {"class_name": "Zeros", "config": {}}, "gamma_regularizer": null, "name": "batch_normalization_127", "gamma_initializer": {"class_name": "Ones", "config": {}}, "trainable": true, "beta_constraint": null}}, {"class_name": "BatchNormalization", "name": "batch_normalization_132", "inbound_nodes": [[["conv2d_132", 0, 0, {}]]], "config": {"center": true, "moving_mean_initializer": {"class_name": "Zeros", "config": {}}, "moving_variance_initializer": {"class_name": "Ones", "config": {}}, "axis": 3, "gamma_constraint": null, "beta_regularizer": null, "momentum": 0.99, "epsilon": 0.001, "scale": false, "beta_initializer": {"class_name": "Zeros", "config": {}}, "gamma_regularizer": null, "name": "batch_normalization_132", "gamma_initializer": {"class_name": "Ones", "config": {}}, "trainable": true, "beta_constraint": null}}, {"class_name": "Activation", "name": "activation_127", "inbound_nodes": [[["batch_normalization_127", 0, 0, {}]]], "config": {"name": "activation_127", "trainable": true, "activation": "relu"}}, {"class_name": "Activation", "name": "activation_132", "inbound_nodes": [[["batch_normalization_132", 0, 0, {}]]], "config": {"name": "activation_132", "trainable": true, "activation": "relu"}}, {"class_name": "AveragePooling2D", "name": "average_pooling2d_13", "inbound_nodes": [[["mixed3", 0, 0, {}]]], "config": {"name": "average_pooling2d_13", "pool_size": [3, 3], "padding": "same", "strides": [1, 1], "trainable": true, "data_format": "channels_last"}}, {"class_name": "Conv2D", "name": "conv2d_125", "inbound_nodes": [[["mixed3", 0, 0, {}]]], "config": {"bias_regularizer": null, "kernel_regularizer": null, "kernel_constraint": null, "use_bias": false, "activation": "linear", "bias_initializer": {"class_name": "Zeros", "config": {}}, "data_format": "channels_last", "kernel_size": [1, 1], "kernel_initializer": {"class_name": "VarianceScaling", "config": {"scale": 1.0, "mode": "fan_avg", "seed": null, "distribution": "uniform"}}, "name": "conv2d_125", "trainable": true, "dilation_rate": [1, 1], "filters": 192, "padding": "same", "activity_regularizer": null, "strides": [1, 1], "bias_constraint": null}}, {"class_name": "Conv2D", "name": "conv2d_128", "inbound_nodes": [[["activation_127", 0, 0, {}]]], "config": {"bias_regularizer": null, "kernel_regularizer": null, "kernel_constraint": null, "use_bias": false, "activation": "linear", "bias_initializer": {"class_name": "Zeros", "config": {}}, "data_format": "channels_last", "kernel_size": [7, 1], "kernel_initializer": {"class_name": "VarianceScaling", "config": {"scale": 1.0, "mode": "fan_avg", "seed": null, "distribution": "uniform"}}, "name": "conv2d_128", "trainable": true, "dilation_rate": [1, 1], "filters": 192, "padding": "same", "activity_regularizer": null, "strides": [1, 1], "bias_constraint": null}}, {"class_name": "Conv2D", "name": "conv2d_133", "inbound_nodes": [[["activation_132", 0, 0, {}]]], "config": {"bias_regularizer": null, "kernel_regularizer": null, "kernel_constraint": null, "use_bias": false, "activation": "linear", "bias_initializer": {"class_name": "Zeros", "config": {}}, "data_format": "channels_last", "kernel_size": [1, 7], "kernel_initializer": {"class_name": "VarianceScaling", "config": {"scale": 1.0, "mode": "fan_avg", "seed": null, "distribution": "uniform"}}, "name": "conv2d_133", "trainable": true, "dilation_rate": [1, 1], "filters": 192, "padding": "same", "activity_regularizer": null, "strides": [1, 1], "bias_constraint": null}}, {"class_name": "Conv2D", "name": "conv2d_134", "inbound_nodes": [[["average_pooling2d_13", 0, 0, {}]]], "config": {"bias_regularizer": null, "kernel_regularizer": null, "kernel_constraint": null, "use_bias": false, "activation": "linear", "bias_initializer": {"class_name": "Zeros", "config": {}}, "data_format": "channels_last", "kernel_size": [1, 1], "kernel_initializer": {"class_name": "VarianceScaling", "config": {"scale": 1.0, "mode": "fan_avg", "seed": null, "distribution": "uniform"}}, "name": "conv2d_134", "trainable": true, "dilation_rate": [1, 1], "filters": 192, "padding": "same", "activity_regularizer": null, "strides": [1, 1], "bias_constraint": null}}, {"class_name": "BatchNormalization", "name": "batch_normalization_125", "inbound_nodes": [[["conv2d_125", 0, 0, {}]]], "config": {"center": true, "moving_mean_initializer": {"class_name": "Zeros", "config": {}}, "moving_variance_initializer": {"class_name": "Ones", "config": {}}, "axis": 3, "gamma_constraint": null, "beta_regularizer": null, "momentum": 0.99, "epsilon": 0.001, "scale": false, "beta_initializer": {"class_name": "Zeros", "config": {}}, "gamma_regularizer": null, "name": "batch_normalization_125", "gamma_initializer": {"class_name": "Ones", "config": {}}, "trainable": true, "beta_constraint": null}}, {"class_name": "BatchNormalization", "name": "batch_normalization_128", "inbound_nodes": [[["conv2d_128", 0, 0, {}]]], "config": {"center": true, "moving_mean_initializer": {"class_name": "Zeros", "config": {}}, "moving_variance_initializer": {"class_name": "Ones", "config": {}}, "axis": 3, "gamma_constraint": null, "beta_regularizer": null, "momentum": 0.99, "epsilon": 0.001, "scale": false, "beta_initializer": {"class_name": "Zeros", "config": {}}, "gamma_regularizer": null, "name": "batch_normalization_128", "gamma_initializer": {"class_name": "Ones", "config": {}}, "trainable": true, "beta_constraint": null}}, {"class_name": "BatchNormalization", "name": "batch_normalization_133", "inbound_nodes": [[["conv2d_133", 0, 0, {}]]], "config": {"center": true, "moving_mean_initializer": {"class_name": "Zeros", "config": {}}, "moving_variance_initializer": {"class_name": "Ones", "config": {}}, "axis": 3, "gamma_constraint": null, "beta_regularizer": null, "momentum": 0.99, "epsilon": 0.001, "scale": false, "beta_initializer": {"class_name": "Zeros", "config": {}}, "gamma_regularizer": null, "name": "batch_normalization_133", "gamma_initializer": {"class_name": "Ones", "config": {}}, "trainable": true, "beta_constraint": null}}, {"class_name": "BatchNormalization", "name": "batch_normalization_134", "inbound_nodes": [[["conv2d_134", 0, 0, {}]]], "config": {"center": true, "moving_mean_initializer": {"class_name": "Zeros", "config": {}}, "moving_variance_initializer": {"class_name": "Ones", "config": {}}, "axis": 3, "gamma_constraint": null, "beta_regularizer": null, "momentum": 0.99, "epsilon": 0.001, "scale": false, "beta_initializer": {"class_name": "Zeros", "config": {}}, "gamma_regularizer": null, "name": "batch_normalization_134", "gamma_initializer": {"class_name": "Ones", "config": {}}, "trainable": true, "beta_constraint": null}}, {"class_name": "Activation", "name": "activation_125", "inbound_nodes": [[["batch_normalization_125", 0, 0, {}]]], "config": {"name": "activation_125", "trainable": true, "activation": "relu"}}, {"class_name": "Activation", "name": "activation_128", "inbound_nodes": [[["batch_normalization_128", 0, 0, {}]]], "config": {"name": "activation_128", "trainable": true, "activation": "relu"}}, {"class_name": "Activation", "name": "activation_133", "inbound_nodes": [[["batch_normalization_133", 0, 0, {}]]], "config": {"name": "activation_133", "trainable": true, "activation": "relu"}}, {"class_name": "Activation", "name": "activation_134", "inbound_nodes": [[["batch_normalization_134", 0, 0, {}]]], "config": {"name": "activation_134", "trainable": true, "activation": "relu"}}, {"class_name": "Concatenate", "name": "mixed4", "inbound_nodes": [[["activation_125", 0, 0, {}], ["activation_128", 0, 0, {}], ["activation_133", 0, 0, {}], ["activation_134", 0, 0, {}]]], "config": {"name": "mixed4", "trainable": true, "axis": 3}}, {"class_name": "Conv2D", "name": "conv2d_139", "inbound_nodes": [[["mixed4", 0, 0, {}]]], "config": {"bias_regularizer": null, "kernel_regularizer": null, "kernel_constraint": null, "use_bias": false, "activation": "linear", "bias_initializer": {"class_name": "Zeros", "config": {}}, "data_format": "channels_last", "kernel_size": [1, 1], "kernel_initializer": {"class_name": "VarianceScaling", "config": {"scale": 1.0, "mode": "fan_avg", "seed": null, "distribution": "uniform"}}, "name": "conv2d_139", "trainable": true, "dilation_rate": [1, 1], "filters": 160, "padding": "same", "activity_regularizer": null, "strides": [1, 1], "bias_constraint": null}}, {"class_name": "BatchNormalization", "name": "batch_normalization_139", "inbound_nodes": [[["conv2d_139", 0, 0, {}]]], "config": {"center": true, "moving_mean_initializer": {"class_name": "Zeros", "config": {}}, "moving_variance_initializer": {"class_name": "Ones", "config": {}}, "axis": 3, "gamma_constraint": null, "beta_regularizer": null, "momentum": 0.99, "epsilon": 0.001, "scale": false, "beta_initializer": {"class_name": "Zeros", "config": {}}, "gamma_regularizer": null, "name": "batch_normalization_139", "gamma_initializer": {"class_name": "Ones", "config": {}}, "trainable": true, "beta_constraint": null}}, {"class_name": "Activation", "name": "activation_139", "inbound_nodes": [[["batch_normalization_139", 0, 0, {}]]], "config": {"name": "activation_139", "trainable": true, "activation": "relu"}}, {"class_name": "Conv2D", "name": "conv2d_140", "inbound_nodes": [[["activation_139", 0, 0, {}]]], "config": {"bias_regularizer": null, "kernel_regularizer": null, "kernel_constraint": null, "use_bias": false, "activation": "linear", "bias_initializer": {"class_name": "Zeros", "config": {}}, "data_format": "channels_last", "kernel_size": [7, 1], "kernel_initializer": {"class_name": "VarianceScaling", "config": {"scale": 1.0, "mode": "fan_avg", "seed": null, "distribution": "uniform"}}, "name": "conv2d_140", "trainable": true, "dilation_rate": [1, 1], "filters": 160, "padding": "same", "activity_regularizer": null, "strides": [1, 1], "bias_constraint": null}}, {"class_name": "BatchNormalization", "name": "batch_normalization_140", "inbound_nodes": [[["conv2d_140", 0, 0, {}]]], "config": {"center": true, "moving_mean_initializer": {"class_name": "Zeros", "config": {}}, "moving_variance_initializer": {"class_name": "Ones", "config": {}}, "axis": 3, "gamma_constraint": null, "beta_regularizer": null, "momentum": 0.99, "epsilon": 0.001, "scale": false, "beta_initializer": {"class_name": "Zeros", "config": {}}, "gamma_regularizer": null, "name": "batch_normalization_140", "gamma_initializer": {"class_name": "Ones", "config": {}}, "trainable": true, "beta_constraint": null}}, {"class_name": "Activation", "name": "activation_140", "inbound_nodes": [[["batch_normalization_140", 0, 0, {}]]], "config": {"name": "activation_140", "trainable": true, "activation": "relu"}}, {"class_name": "Conv2D", "name": "conv2d_136", "inbound_nodes": [[["mixed4", 0, 0, {}]]], "config": {"bias_regularizer": null, "kernel_regularizer": null, "kernel_constraint": null, "use_bias": false, "activation": "linear", "bias_initializer": {"class_name": "Zeros", "config": {}}, "data_format": "channels_last", "kernel_size": [1, 1], "kernel_initializer": {"class_name": "VarianceScaling", "config": {"scale": 1.0, "mode": "fan_avg", "seed": null, "distribution": "uniform"}}, "name": "conv2d_136", "trainable": true, "dilation_rate": [1, 1], "filters": 160, "padding": "same", "activity_regularizer": null, "strides": [1, 1], "bias_constraint": null}}, {"class_name": "Conv2D", "name": "conv2d_141", "inbound_nodes": [[["activation_140", 0, 0, {}]]], "config": {"bias_regularizer": null, "kernel_regularizer": null, "kernel_constraint": null, "use_bias": false, "activation": "linear", "bias_initializer": {"class_name": "Zeros", "config": {}}, "data_format": "channels_last", "kernel_size": [1, 7], "kernel_initializer": {"class_name": "VarianceScaling", "config": {"scale": 1.0, "mode": "fan_avg", "seed": null, "distribution": "uniform"}}, "name": "conv2d_141", "trainable": true, "dilation_rate": [1, 1], "filters": 160, "padding": "same", "activity_regularizer": null, "strides": [1, 1], "bias_constraint": null}}, {"class_name": "BatchNormalization", "name": "batch_normalization_136", "inbound_nodes": [[["conv2d_136", 0, 0, {}]]], "config": {"center": true, "moving_mean_initializer": {"class_name": "Zeros", "config": {}}, "moving_variance_initializer": {"class_name": "Ones", "config": {}}, "axis": 3, "gamma_constraint": null, "beta_regularizer": null, "momentum": 0.99, "epsilon": 0.001, "scale": false, "beta_initializer": {"class_name": "Zeros", "config": {}}, "gamma_regularizer": null, "name": "batch_normalization_136", "gamma_initializer": {"class_name": "Ones", "config": {}}, "trainable": true, "beta_constraint": null}}, {"class_name": "BatchNormalization", "name": "batch_normalization_141", "inbound_nodes": [[["conv2d_141", 0, 0, {}]]], "config": {"center": true, "moving_mean_initializer": {"class_name": "Zeros", "config": {}}, "moving_variance_initializer": {"class_name": "Ones", "config": {}}, "axis": 3, "gamma_constraint": null, "beta_regularizer": null, "momentum": 0.99, "epsilon": 0.001, "scale": false, "beta_initializer": {"class_name": "Zeros", "config": {}}, "gamma_regularizer": null, "name": "batch_normalization_141", "gamma_initializer": {"class_name": "Ones", "config": {}}, "trainable": true, "beta_constraint": null}}, {"class_name": "Activation", "name": "activation_136", "inbound_nodes": [[["batch_normalization_136", 0, 0, {}]]], "config": {"name": "activation_136", "trainable": true, "activation": "relu"}}, {"class_name": "Activation", "name": "activation_141", "inbound_nodes": [[["batch_normalization_141", 0, 0, {}]]], "config": {"name": "activation_141", "trainable": true, "activation": "relu"}}, {"class_name": "Conv2D", "name": "conv2d_137", "inbound_nodes": [[["activation_136", 0, 0, {}]]], "config": {"bias_regularizer": null, "kernel_regularizer": null, "kernel_constraint": null, "use_bias": false, "activation": "linear", "bias_initializer": {"class_name": "Zeros", "config": {}}, "data_format": "channels_last", "kernel_size": [1, 7], "kernel_initializer": {"class_name": "VarianceScaling", "config": {"scale": 1.0, "mode": "fan_avg", "seed": null, "distribution": "uniform"}}, "name": "conv2d_137", "trainable": true, "dilation_rate": [1, 1], "filters": 160, "padding": "same", "activity_regularizer": null, "strides": [1, 1], "bias_constraint": null}}, {"class_name": "Conv2D", "name": "conv2d_142", "inbound_nodes": [[["activation_141", 0, 0, {}]]], "config": {"bias_regularizer": null, "kernel_regularizer": null, "kernel_constraint": null, "use_bias": false, "activation": "linear", "bias_initializer": {"class_name": "Zeros", "config": {}}, "data_format": "channels_last", "kernel_size": [7, 1], "kernel_initializer": {"class_name": "VarianceScaling", "config": {"scale": 1.0, "mode": "fan_avg", "seed": null, "distribution": "uniform"}}, "name": "conv2d_142", "trainable": true, "dilation_rate": [1, 1], "filters": 160, "padding": "same", "activity_regularizer": null, "strides": [1, 1], "bias_constraint": null}}, {"class_name": "BatchNormalization", "name": "batch_normalization_137", "inbound_nodes": [[["conv2d_137", 0, 0, {}]]], "config": {"center": true, "moving_mean_initializer": {"class_name": "Zeros", "config": {}}, "moving_variance_initializer": {"class_name": "Ones", "config": {}}, "axis": 3, "gamma_constraint": null, "beta_regularizer": null, "momentum": 0.99, "epsilon": 0.001, "scale": false, "beta_initializer": {"class_name": "Zeros", "config": {}}, "gamma_regularizer": null, "name": "batch_normalization_137", "gamma_initializer": {"class_name": "Ones", "config": {}}, "trainable": true, "beta_constraint": null}}, {"class_name": "BatchNormalization", "name": "batch_normalization_142", "inbound_nodes": [[["conv2d_142", 0, 0, {}]]], "config": {"center": true, "moving_mean_initializer": {"class_name": "Zeros", "config": {}}, "moving_variance_initializer": {"class_name": "Ones", "config": {}}, "axis": 3, "gamma_constraint": null, "beta_regularizer": null, "momentum": 0.99, "epsilon": 0.001, "scale": false, "beta_initializer": {"class_name": "Zeros", "config": {}}, "gamma_regularizer": null, "name": "batch_normalization_142", "gamma_initializer": {"class_name": "Ones", "config": {}}, "trainable": true, "beta_constraint": null}}, {"class_name": "Activation", "name": "activation_137", "inbound_nodes": [[["batch_normalization_137", 0, 0, {}]]], "config": {"name": "activation_137", "trainable": true, "activation": "relu"}}, {"class_name": "Activation", "name": "activation_142", "inbound_nodes": [[["batch_normalization_142", 0, 0, {}]]], "config": {"name": "activation_142", "trainable": true, "activation": "relu"}}, {"class_name": "AveragePooling2D", "name": "average_pooling2d_14", "inbound_nodes": [[["mixed4", 0, 0, {}]]], "config": {"name": "average_pooling2d_14", "pool_size": [3, 3], "padding": "same", "strides": [1, 1], "trainable": true, "data_format": "channels_last"}}, {"class_name": "Conv2D", "name": "conv2d_135", "inbound_nodes": [[["mixed4", 0, 0, {}]]], "config": {"bias_regularizer": null, "kernel_regularizer": null, "kernel_constraint": null, "use_bias": false, "activation": "linear", "bias_initializer": {"class_name": "Zeros", "config": {}}, "data_format": "channels_last", "kernel_size": [1, 1], "kernel_initializer": {"class_name": "VarianceScaling", "config": {"scale": 1.0, "mode": "fan_avg", "seed": null, "distribution": "uniform"}}, "name": "conv2d_135", "trainable": true, "dilation_rate": [1, 1], "filters": 192, "padding": "same", "activity_regularizer": null, "strides": [1, 1], "bias_constraint": null}}, {"class_name": "Conv2D", "name": "conv2d_138", "inbound_nodes": [[["activation_137", 0, 0, {}]]], "config": {"bias_regularizer": null, "kernel_regularizer": null, "kernel_constraint": null, "use_bias": false, "activation": "linear", "bias_initializer": {"class_name": "Zeros", "config": {}}, "data_format": "channels_last", "kernel_size": [7, 1], "kernel_initializer": {"class_name": "VarianceScaling", "config": {"scale": 1.0, "mode": "fan_avg", "seed": null, "distribution": "uniform"}}, "name": "conv2d_138", "trainable": true, "dilation_rate": [1, 1], "filters": 192, "padding": "same", "activity_regularizer": null, "strides": [1, 1], "bias_constraint": null}}, {"class_name": "Conv2D", "name": "conv2d_143", "inbound_nodes": [[["activation_142", 0, 0, {}]]], "config": {"bias_regularizer": null, "kernel_regularizer": null, "kernel_constraint": null, "use_bias": false, "activation": "linear", "bias_initializer": {"class_name": "Zeros", "config": {}}, "data_format": "channels_last", "kernel_size": [1, 7], "kernel_initializer": {"class_name": "VarianceScaling", "config": {"scale": 1.0, "mode": "fan_avg", "seed": null, "distribution": "uniform"}}, "name": "conv2d_143", "trainable": true, "dilation_rate": [1, 1], "filters": 192, "padding": "same", "activity_regularizer": null, "strides": [1, 1], "bias_constraint": null}}, {"class_name": "Conv2D", "name": "conv2d_144", "inbound_nodes": [[["average_pooling2d_14", 0, 0, {}]]], "config": {"bias_regularizer": null, "kernel_regularizer": null, "kernel_constraint": null, "use_bias": false, "activation": "linear", "bias_initializer": {"class_name": "Zeros", "config": {}}, "data_format": "channels_last", "kernel_size": [1, 1], "kernel_initializer": {"class_name": "VarianceScaling", "config": {"scale": 1.0, "mode": "fan_avg", "seed": null, "distribution": "uniform"}}, "name": "conv2d_144", "trainable": true, "dilation_rate": [1, 1], "filters": 192, "padding": "same", "activity_regularizer": null, "strides": [1, 1], "bias_constraint": null}}, {"class_name": "BatchNormalization", "name": "batch_normalization_135", "inbound_nodes": [[["conv2d_135", 0, 0, {}]]], "config": {"center": true, "moving_mean_initializer": {"class_name": "Zeros", "config": {}}, "moving_variance_initializer": {"class_name": "Ones", "config": {}}, "axis": 3, "gamma_constraint": null, "beta_regularizer": null, "momentum": 0.99, "epsilon": 0.001, "scale": false, "beta_initializer": {"class_name": "Zeros", "config": {}}, "gamma_regularizer": null, "name": "batch_normalization_135", "gamma_initializer": {"class_name": "Ones", "config": {}}, "trainable": true, "beta_constraint": null}}, {"class_name": "BatchNormalization", "name": "batch_normalization_138", "inbound_nodes": [[["conv2d_138", 0, 0, {}]]], "config": {"center": true, "moving_mean_initializer": {"class_name": "Zeros", "config": {}}, "moving_variance_initializer": {"class_name": "Ones", "config": {}}, "axis": 3, "gamma_constraint": null, "beta_regularizer": null, "momentum": 0.99, "epsilon": 0.001, "scale": false, "beta_initializer": {"class_name": "Zeros", "config": {}}, "gamma_regularizer": null, "name": "batch_normalization_138", "gamma_initializer": {"class_name": "Ones", "config": {}}, "trainable": true, "beta_constraint": null}}, {"class_name": "BatchNormalization", "name": "batch_normalization_143", "inbound_nodes": [[["conv2d_143", 0, 0, {}]]], "config": {"center": true, "moving_mean_initializer": {"class_name": "Zeros", "config": {}}, "moving_variance_initializer": {"class_name": "Ones", "config": {}}, "axis": 3, "gamma_constraint": null, "beta_regularizer": null, "momentum": 0.99, "epsilon": 0.001, "scale": false, "beta_initializer": {"class_name": "Zeros", "config": {}}, "gamma_regularizer": null, "name": "batch_normalization_143", "gamma_initializer": {"class_name": "Ones", "config": {}}, "trainable": true, "beta_constraint": null}}, {"class_name": "BatchNormalization", "name": "batch_normalization_144", "inbound_nodes": [[["conv2d_144", 0, 0, {}]]], "config": {"center": true, "moving_mean_initializer": {"class_name": "Zeros", "config": {}}, "moving_variance_initializer": {"class_name": "Ones", "config": {}}, "axis": 3, "gamma_constraint": null, "beta_regularizer": null, "momentum": 0.99, "epsilon": 0.001, "scale": false, "beta_initializer": {"class_name": "Zeros", "config": {}}, "gamma_regularizer": null, "name": "batch_normalization_144", "gamma_initializer": {"class_name": "Ones", "config": {}}, "trainable": true, "beta_constraint": null}}, {"class_name": "Activation", "name": "activation_135", "inbound_nodes": [[["batch_normalization_135", 0, 0, {}]]], "config": {"name": "activation_135", "trainable": true, "activation": "relu"}}, {"class_name": "Activation", "name": "activation_138", "inbound_nodes": [[["batch_normalization_138", 0, 0, {}]]], "config": {"name": "activation_138", "trainable": true, "activation": "relu"}}, {"class_name": "Activation", "name": "activation_143", "inbound_nodes": [[["batch_normalization_143", 0, 0, {}]]], "config": {"name": "activation_143", "trainable": true, "activation": "relu"}}, {"class_name": "Activation", "name": "activation_144", "inbound_nodes": [[["batch_normalization_144", 0, 0, {}]]], "config": {"name": "activation_144", "trainable": true, "activation": "relu"}}, {"class_name": "Concatenate", "name": "mixed5", "inbound_nodes": [[["activation_135", 0, 0, {}], ["activation_138", 0, 0, {}], ["activation_143", 0, 0, {}], ["activation_144", 0, 0, {}]]], "config": {"name": "mixed5", "trainable": true, "axis": 3}}, {"class_name": "Conv2D", "name": "conv2d_149", "inbound_nodes": [[["mixed5", 0, 0, {}]]], "config": {"bias_regularizer": null, "kernel_regularizer": null, "kernel_constraint": null, "use_bias": false, "activation": "linear", "bias_initializer": {"class_name": "Zeros", "config": {}}, "data_format": "channels_last", "kernel_size": [1, 1], "kernel_initializer": {"class_name": "VarianceScaling", "config": {"scale": 1.0, "mode": "fan_avg", "seed": null, "distribution": "uniform"}}, "name": "conv2d_149", "trainable": true, "dilation_rate": [1, 1], "filters": 160, "padding": "same", "activity_regularizer": null, "strides": [1, 1], "bias_constraint": null}}, {"class_name": "BatchNormalization", "name": "batch_normalization_149", "inbound_nodes": [[["conv2d_149", 0, 0, {}]]], "config": {"center": true, "moving_mean_initializer": {"class_name": "Zeros", "config": {}}, "moving_variance_initializer": {"class_name": "Ones", "config": {}}, "axis": 3, "gamma_constraint": null, "beta_regularizer": null, "momentum": 0.99, "epsilon": 0.001, "scale": false, "beta_initializer": {"class_name": "Zeros", "config": {}}, "gamma_regularizer": null, "name": "batch_normalization_149", "gamma_initializer": {"class_name": "Ones", "config": {}}, "trainable": true, "beta_constraint": null}}, {"class_name": "Activation", "name": "activation_149", "inbound_nodes": [[["batch_normalization_149", 0, 0, {}]]], "config": {"name": "activation_149", "trainable": true, "activation": "relu"}}, {"class_name": "Conv2D", "name": "conv2d_150", "inbound_nodes": [[["activation_149", 0, 0, {}]]], "config": {"bias_regularizer": null, "kernel_regularizer": null, "kernel_constraint": null, "use_bias": false, "activation": "linear", "bias_initializer": {"class_name": "Zeros", "config": {}}, "data_format": "channels_last", "kernel_size": [7, 1], "kernel_initializer": {"class_name": "VarianceScaling", "config": {"scale": 1.0, "mode": "fan_avg", "seed": null, "distribution": "uniform"}}, "name": "conv2d_150", "trainable": true, "dilation_rate": [1, 1], "filters": 160, "padding": "same", "activity_regularizer": null, "strides": [1, 1], "bias_constraint": null}}, {"class_name": "BatchNormalization", "name": "batch_normalization_150", "inbound_nodes": [[["conv2d_150", 0, 0, {}]]], "config": {"center": true, "moving_mean_initializer": {"class_name": "Zeros", "config": {}}, "moving_variance_initializer": {"class_name": "Ones", "config": {}}, "axis": 3, "gamma_constraint": null, "beta_regularizer": null, "momentum": 0.99, "epsilon": 0.001, "scale": false, "beta_initializer": {"class_name": "Zeros", "config": {}}, "gamma_regularizer": null, "name": "batch_normalization_150", "gamma_initializer": {"class_name": "Ones", "config": {}}, "trainable": true, "beta_constraint": null}}, {"class_name": "Activation", "name": "activation_150", "inbound_nodes": [[["batch_normalization_150", 0, 0, {}]]], "config": {"name": "activation_150", "trainable": true, "activation": "relu"}}, {"class_name": "Conv2D", "name": "conv2d_146", "inbound_nodes": [[["mixed5", 0, 0, {}]]], "config": {"bias_regularizer": null, "kernel_regularizer": null, "kernel_constraint": null, "use_bias": false, "activation": "linear", "bias_initializer": {"class_name": "Zeros", "config": {}}, "data_format": "channels_last", "kernel_size": [1, 1], "kernel_initializer": {"class_name": "VarianceScaling", "config": {"scale": 1.0, "mode": "fan_avg", "seed": null, "distribution": "uniform"}}, "name": "conv2d_146", "trainable": true, "dilation_rate": [1, 1], "filters": 160, "padding": "same", "activity_regularizer": null, "strides": [1, 1], "bias_constraint": null}}, {"class_name": "Conv2D", "name": "conv2d_151", "inbound_nodes": [[["activation_150", 0, 0, {}]]], "config": {"bias_regularizer": null, "kernel_regularizer": null, "kernel_constraint": null, "use_bias": false, "activation": "linear", "bias_initializer": {"class_name": "Zeros", "config": {}}, "data_format": "channels_last", "kernel_size": [1, 7], "kernel_initializer": {"class_name": "VarianceScaling", "config": {"scale": 1.0, "mode": "fan_avg", "seed": null, "distribution": "uniform"}}, "name": "conv2d_151", "trainable": true, "dilation_rate": [1, 1], "filters": 160, "padding": "same", "activity_regularizer": null, "strides": [1, 1], "bias_constraint": null}}, {"class_name": "BatchNormalization", "name": "batch_normalization_146", "inbound_nodes": [[["conv2d_146", 0, 0, {}]]], "config": {"center": true, "moving_mean_initializer": {"class_name": "Zeros", "config": {}}, "moving_variance_initializer": {"class_name": "Ones", "config": {}}, "axis": 3, "gamma_constraint": null, "beta_regularizer": null, "momentum": 0.99, "epsilon": 0.001, "scale": false, "beta_initializer": {"class_name": "Zeros", "config": {}}, "gamma_regularizer": null, "name": "batch_normalization_146", "gamma_initializer": {"class_name": "Ones", "config": {}}, "trainable": true, "beta_constraint": null}}, {"class_name": "BatchNormalization", "name": "batch_normalization_151", "inbound_nodes": [[["conv2d_151", 0, 0, {}]]], "config": {"center": true, "moving_mean_initializer": {"class_name": "Zeros", "config": {}}, "moving_variance_initializer": {"class_name": "Ones", "config": {}}, "axis": 3, "gamma_constraint": null, "beta_regularizer": null, "momentum": 0.99, "epsilon": 0.001, "scale": false, "beta_initializer": {"class_name": "Zeros", "config": {}}, "gamma_regularizer": null, "name": "batch_normalization_151", "gamma_initializer": {"class_name": "Ones", "config": {}}, "trainable": true, "beta_constraint": null}}, {"class_name": "Activation", "name": "activation_146", "inbound_nodes": [[["batch_normalization_146", 0, 0, {}]]], "config": {"name": "activation_146", "trainable": true, "activation": "relu"}}, {"class_name": "Activation", "name": "activation_151", "inbound_nodes": [[["batch_normalization_151", 0, 0, {}]]], "config": {"name": "activation_151", "trainable": true, "activation": "relu"}}, {"class_name": "Conv2D", "name": "conv2d_147", "inbound_nodes": [[["activation_146", 0, 0, {}]]], "config": {"bias_regularizer": null, "kernel_regularizer": null, "kernel_constraint": null, "use_bias": false, "activation": "linear", "bias_initializer": {"class_name": "Zeros", "config": {}}, "data_format": "channels_last", "kernel_size": [1, 7], "kernel_initializer": {"class_name": "VarianceScaling", "config": {"scale": 1.0, "mode": "fan_avg", "seed": null, "distribution": "uniform"}}, "name": "conv2d_147", "trainable": true, "dilation_rate": [1, 1], "filters": 160, "padding": "same", "activity_regularizer": null, "strides": [1, 1], "bias_constraint": null}}, {"class_name": "Conv2D", "name": "conv2d_152", "inbound_nodes": [[["activation_151", 0, 0, {}]]], "config": {"bias_regularizer": null, "kernel_regularizer": null, "kernel_constraint": null, "use_bias": false, "activation": "linear", "bias_initializer": {"class_name": "Zeros", "config": {}}, "data_format": "channels_last", "kernel_size": [7, 1], "kernel_initializer": {"class_name": "VarianceScaling", "config": {"scale": 1.0, "mode": "fan_avg", "seed": null, "distribution": "uniform"}}, "name": "conv2d_152", "trainable": true, "dilation_rate": [1, 1], "filters": 160, "padding": "same", "activity_regularizer": null, "strides": [1, 1], "bias_constraint": null}}, {"class_name": "BatchNormalization", "name": "batch_normalization_147", "inbound_nodes": [[["conv2d_147", 0, 0, {}]]], "config": {"center": true, "moving_mean_initializer": {"class_name": "Zeros", "config": {}}, "moving_variance_initializer": {"class_name": "Ones", "config": {}}, "axis": 3, "gamma_constraint": null, "beta_regularizer": null, "momentum": 0.99, "epsilon": 0.001, "scale": false, "beta_initializer": {"class_name": "Zeros", "config": {}}, "gamma_regularizer": null, "name": "batch_normalization_147", "gamma_initializer": {"class_name": "Ones", "config": {}}, "trainable": true, "beta_constraint": null}}, {"class_name": "BatchNormalization", "name": "batch_normalization_152", "inbound_nodes": [[["conv2d_152", 0, 0, {}]]], "config": {"center": true, "moving_mean_initializer": {"class_name": "Zeros", "config": {}}, "moving_variance_initializer": {"class_name": "Ones", "config": {}}, "axis": 3, "gamma_constraint": null, "beta_regularizer": null, "momentum": 0.99, "epsilon": 0.001, "scale": false, "beta_initializer": {"class_name": "Zeros", "config": {}}, "gamma_regularizer": null, "name": "batch_normalization_152", "gamma_initializer": {"class_name": "Ones", "config": {}}, "trainable": true, "beta_constraint": null}}, {"class_name": "Activation", "name": "activation_147", "inbound_nodes": [[["batch_normalization_147", 0, 0, {}]]], "config": {"name": "activation_147", "trainable": true, "activation": "relu"}}, {"class_name": "Activation", "name": "activation_152", "inbound_nodes": [[["batch_normalization_152", 0, 0, {}]]], "config": {"name": "activation_152", "trainable": true, "activation": "relu"}}, {"class_name": "AveragePooling2D", "name": "average_pooling2d_15", "inbound_nodes": [[["mixed5", 0, 0, {}]]], "config": {"name": "average_pooling2d_15", "pool_size": [3, 3], "padding": "same", "strides": [1, 1], "trainable": true, "data_format": "channels_last"}}, {"class_name": "Conv2D", "name": "conv2d_145", "inbound_nodes": [[["mixed5", 0, 0, {}]]], "config": {"bias_regularizer": null, "kernel_regularizer": null, "kernel_constraint": null, "use_bias": false, "activation": "linear", "bias_initializer": {"class_name": "Zeros", "config": {}}, "data_format": "channels_last", "kernel_size": [1, 1], "kernel_initializer": {"class_name": "VarianceScaling", "config": {"scale": 1.0, "mode": "fan_avg", "seed": null, "distribution": "uniform"}}, "name": "conv2d_145", "trainable": true, "dilation_rate": [1, 1], "filters": 192, "padding": "same", "activity_regularizer": null, "strides": [1, 1], "bias_constraint": null}}, {"class_name": "Conv2D", "name": "conv2d_148", "inbound_nodes": [[["activation_147", 0, 0, {}]]], "config": {"bias_regularizer": null, "kernel_regularizer": null, "kernel_constraint": null, "use_bias": false, "activation": "linear", "bias_initializer": {"class_name": "Zeros", "config": {}}, "data_format": "channels_last", "kernel_size": [7, 1], "kernel_initializer": {"class_name": "VarianceScaling", "config": {"scale": 1.0, "mode": "fan_avg", "seed": null, "distribution": "uniform"}}, "name": "conv2d_148", "trainable": true, "dilation_rate": [1, 1], "filters": 192, "padding": "same", "activity_regularizer": null, "strides": [1, 1], "bias_constraint": null}}, {"class_name": "Conv2D", "name": "conv2d_153", "inbound_nodes": [[["activation_152", 0, 0, {}]]], "config": {"bias_regularizer": null, "kernel_regularizer": null, "kernel_constraint": null, "use_bias": false, "activation": "linear", "bias_initializer": {"class_name": "Zeros", "config": {}}, "data_format": "channels_last", "kernel_size": [1, 7], "kernel_initializer": {"class_name": "VarianceScaling", "config": {"scale": 1.0, "mode": "fan_avg", "seed": null, "distribution": "uniform"}}, "name": "conv2d_153", "trainable": true, "dilation_rate": [1, 1], "filters": 192, "padding": "same", "activity_regularizer": null, "strides": [1, 1], "bias_constraint": null}}, {"class_name": "Conv2D", "name": "conv2d_154", "inbound_nodes": [[["average_pooling2d_15", 0, 0, {}]]], "config": {"bias_regularizer": null, "kernel_regularizer": null, "kernel_constraint": null, "use_bias": false, "activation": "linear", "bias_initializer": {"class_name": "Zeros", "config": {}}, "data_format": "channels_last", "kernel_size": [1, 1], "kernel_initializer": {"class_name": "VarianceScaling", "config": {"scale": 1.0, "mode": "fan_avg", "seed": null, "distribution": "uniform"}}, "name": "conv2d_154", "trainable": true, "dilation_rate": [1, 1], "filters": 192, "padding": "same", "activity_regularizer": null, "strides": [1, 1], "bias_constraint": null}}, {"class_name": "BatchNormalization", "name": "batch_normalization_145", "inbound_nodes": [[["conv2d_145", 0, 0, {}]]], "config": {"center": true, "moving_mean_initializer": {"class_name": "Zeros", "config": {}}, "moving_variance_initializer": {"class_name": "Ones", "config": {}}, "axis": 3, "gamma_constraint": null, "beta_regularizer": null, "momentum": 0.99, "epsilon": 0.001, "scale": false, "beta_initializer": {"class_name": "Zeros", "config": {}}, "gamma_regularizer": null, "name": "batch_normalization_145", "gamma_initializer": {"class_name": "Ones", "config": {}}, "trainable": true, "beta_constraint": null}}, {"class_name": "BatchNormalization", "name": "batch_normalization_148", "inbound_nodes": [[["conv2d_148", 0, 0, {}]]], "config": {"center": true, "moving_mean_initializer": {"class_name": "Zeros", "config": {}}, "moving_variance_initializer": {"class_name": "Ones", "config": {}}, "axis": 3, "gamma_constraint": null, "beta_regularizer": null, "momentum": 0.99, "epsilon": 0.001, "scale": false, "beta_initializer": {"class_name": "Zeros", "config": {}}, "gamma_regularizer": null, "name": "batch_normalization_148", "gamma_initializer": {"class_name": "Ones", "config": {}}, "trainable": true, "beta_constraint": null}}, {"class_name": "BatchNormalization", "name": "batch_normalization_153", "inbound_nodes": [[["conv2d_153", 0, 0, {}]]], "config": {"center": true, "moving_mean_initializer": {"class_name": "Zeros", "config": {}}, "moving_variance_initializer": {"class_name": "Ones", "config": {}}, "axis": 3, "gamma_constraint": null, "beta_regularizer": null, "momentum": 0.99, "epsilon": 0.001, "scale": false, "beta_initializer": {"class_name": "Zeros", "config": {}}, "gamma_regularizer": null, "name": "batch_normalization_153", "gamma_initializer": {"class_name": "Ones", "config": {}}, "trainable": true, "beta_constraint": null}}, {"class_name": "BatchNormalization", "name": "batch_normalization_154", "inbound_nodes": [[["conv2d_154", 0, 0, {}]]], "config": {"center": true, "moving_mean_initializer": {"class_name": "Zeros", "config": {}}, "moving_variance_initializer": {"class_name": "Ones", "config": {}}, "axis": 3, "gamma_constraint": null, "beta_regularizer": null, "momentum": 0.99, "epsilon": 0.001, "scale": false, "beta_initializer": {"class_name": "Zeros", "config": {}}, "gamma_regularizer": null, "name": "batch_normalization_154", "gamma_initializer": {"class_name": "Ones", "config": {}}, "trainable": true, "beta_constraint": null}}, {"class_name": "Activation", "name": "activation_145", "inbound_nodes": [[["batch_normalization_145", 0, 0, {}]]], "config": {"name": "activation_145", "trainable": true, "activation": "relu"}}, {"class_name": "Activation", "name": "activation_148", "inbound_nodes": [[["batch_normalization_148", 0, 0, {}]]], "config": {"name": "activation_148", "trainable": true, "activation": "relu"}}, {"class_name": "Activation", "name": "activation_153", "inbound_nodes": [[["batch_normalization_153", 0, 0, {}]]], "config": {"name": "activation_153", "trainable": true, "activation": "relu"}}, {"class_name": "Activation", "name": "activation_154", "inbound_nodes": [[["batch_normalization_154", 0, 0, {}]]], "config": {"name": "activation_154", "trainable": true, "activation": "relu"}}, {"class_name": "Concatenate", "name": "mixed6", "inbound_nodes": [[["activation_145", 0, 0, {}], ["activation_148", 0, 0, {}], ["activation_153", 0, 0, {}], ["activation_154", 0, 0, {}]]], "config": {"name": "mixed6", "trainable": true, "axis": 3}}, {"class_name": "Conv2D", "name": "conv2d_159", "inbound_nodes": [[["mixed6", 0, 0, {}]]], "config": {"bias_regularizer": null, "kernel_regularizer": null, "kernel_constraint": null, "use_bias": false, "activation": "linear", "bias_initializer": {"class_name": "Zeros", "config": {}}, "data_format": "channels_last", "kernel_size": [1, 1], "kernel_initializer": {"class_name": "VarianceScaling", "config": {"scale": 1.0, "mode": "fan_avg", "seed": null, "distribution": "uniform"}}, "name": "conv2d_159", "trainable": true, "dilation_rate": [1, 1], "filters": 192, "padding": "same", "activity_regularizer": null, "strides": [1, 1], "bias_constraint": null}}, {"class_name": "BatchNormalization", "name": "batch_normalization_159", "inbound_nodes": [[["conv2d_159", 0, 0, {}]]], "config": {"center": true, "moving_mean_initializer": {"class_name": "Zeros", "config": {}}, "moving_variance_initializer": {"class_name": "Ones", "config": {}}, "axis": 3, "gamma_constraint": null, "beta_regularizer": null, "momentum": 0.99, "epsilon": 0.001, "scale": false, "beta_initializer": {"class_name": "Zeros", "config": {}}, "gamma_regularizer": null, "name": "batch_normalization_159", "gamma_initializer": {"class_name": "Ones", "config": {}}, "trainable": true, "beta_constraint": null}}, {"class_name": "Activation", "name": "activation_159", "inbound_nodes": [[["batch_normalization_159", 0, 0, {}]]], "config": {"name": "activation_159", "trainable": true, "activation": "relu"}}, {"class_name": "Conv2D", "name": "conv2d_160", "inbound_nodes": [[["activation_159", 0, 0, {}]]], "config": {"bias_regularizer": null, "kernel_regularizer": null, "kernel_constraint": null, "use_bias": false, "activation": "linear", "bias_initializer": {"class_name": "Zeros", "config": {}}, "data_format": "channels_last", "kernel_size": [7, 1], "kernel_initializer": {"class_name": "VarianceScaling", "config": {"scale": 1.0, "mode": "fan_avg", "seed": null, "distribution": "uniform"}}, "name": "conv2d_160", "trainable": true, "dilation_rate": [1, 1], "filters": 192, "padding": "same", "activity_regularizer": null, "strides": [1, 1], "bias_constraint": null}}, {"class_name": "BatchNormalization", "name": "batch_normalization_160", "inbound_nodes": [[["conv2d_160", 0, 0, {}]]], "config": {"center": true, "moving_mean_initializer": {"class_name": "Zeros", "config": {}}, "moving_variance_initializer": {"class_name": "Ones", "config": {}}, "axis": 3, "gamma_constraint": null, "beta_regularizer": null, "momentum": 0.99, "epsilon": 0.001, "scale": false, "beta_initializer": {"class_name": "Zeros", "config": {}}, "gamma_regularizer": null, "name": "batch_normalization_160", "gamma_initializer": {"class_name": "Ones", "config": {}}, "trainable": true, "beta_constraint": null}}, {"class_name": "Activation", "name": "activation_160", "inbound_nodes": [[["batch_normalization_160", 0, 0, {}]]], "config": {"name": "activation_160", "trainable": true, "activation": "relu"}}, {"class_name": "Conv2D", "name": "conv2d_156", "inbound_nodes": [[["mixed6", 0, 0, {}]]], "config": {"bias_regularizer": null, "kernel_regularizer": null, "kernel_constraint": null, "use_bias": false, "activation": "linear", "bias_initializer": {"class_name": "Zeros", "config": {}}, "data_format": "channels_last", "kernel_size": [1, 1], "kernel_initializer": {"class_name": "VarianceScaling", "config": {"scale": 1.0, "mode": "fan_avg", "seed": null, "distribution": "uniform"}}, "name": "conv2d_156", "trainable": true, "dilation_rate": [1, 1], "filters": 192, "padding": "same", "activity_regularizer": null, "strides": [1, 1], "bias_constraint": null}}, {"class_name": "Conv2D", "name": "conv2d_161", "inbound_nodes": [[["activation_160", 0, 0, {}]]], "config": {"bias_regularizer": null, "kernel_regularizer": null, "kernel_constraint": null, "use_bias": false, "activation": "linear", "bias_initializer": {"class_name": "Zeros", "config": {}}, "data_format": "channels_last", "kernel_size": [1, 7], "kernel_initializer": {"class_name": "VarianceScaling", "config": {"scale": 1.0, "mode": "fan_avg", "seed": null, "distribution": "uniform"}}, "name": "conv2d_161", "trainable": true, "dilation_rate": [1, 1], "filters": 192, "padding": "same", "activity_regularizer": null, "strides": [1, 1], "bias_constraint": null}}, {"class_name": "BatchNormalization", "name": "batch_normalization_156", "inbound_nodes": [[["conv2d_156", 0, 0, {}]]], "config": {"center": true, "moving_mean_initializer": {"class_name": "Zeros", "config": {}}, "moving_variance_initializer": {"class_name": "Ones", "config": {}}, "axis": 3, "gamma_constraint": null, "beta_regularizer": null, "momentum": 0.99, "epsilon": 0.001, "scale": false, "beta_initializer": {"class_name": "Zeros", "config": {}}, "gamma_regularizer": null, "name": "batch_normalization_156", "gamma_initializer": {"class_name": "Ones", "config": {}}, "trainable": true, "beta_constraint": null}}, {"class_name": "BatchNormalization", "name": "batch_normalization_161", "inbound_nodes": [[["conv2d_161", 0, 0, {}]]], "config": {"center": true, "moving_mean_initializer": {"class_name": "Zeros", "config": {}}, "moving_variance_initializer": {"class_name": "Ones", "config": {}}, "axis": 3, "gamma_constraint": null, "beta_regularizer": null, "momentum": 0.99, "epsilon": 0.001, "scale": false, "beta_initializer": {"class_name": "Zeros", "config": {}}, "gamma_regularizer": null, "name": "batch_normalization_161", "gamma_initializer": {"class_name": "Ones", "config": {}}, "trainable": true, "beta_constraint": null}}, {"class_name": "Activation", "name": "activation_156", "inbound_nodes": [[["batch_normalization_156", 0, 0, {}]]], "config": {"name": "activation_156", "trainable": true, "activation": "relu"}}, {"class_name": "Activation", "name": "activation_161", "inbound_nodes": [[["batch_normalization_161", 0, 0, {}]]], "config": {"name": "activation_161", "trainable": true, "activation": "relu"}}, {"class_name": "Conv2D", "name": "conv2d_157", "inbound_nodes": [[["activation_156", 0, 0, {}]]], "config": {"bias_regularizer": null, "kernel_regularizer": null, "kernel_constraint": null, "use_bias": false, "activation": "linear", "bias_initializer": {"class_name": "Zeros", "config": {}}, "data_format": "channels_last", "kernel_size": [1, 7], "kernel_initializer": {"class_name": "VarianceScaling", "config": {"scale": 1.0, "mode": "fan_avg", "seed": null, "distribution": "uniform"}}, "name": "conv2d_157", "trainable": true, "dilation_rate": [1, 1], "filters": 192, "padding": "same", "activity_regularizer": null, "strides": [1, 1], "bias_constraint": null}}, {"class_name": "Conv2D", "name": "conv2d_162", "inbound_nodes": [[["activation_161", 0, 0, {}]]], "config": {"bias_regularizer": null, "kernel_regularizer": null, "kernel_constraint": null, "use_bias": false, "activation": "linear", "bias_initializer": {"class_name": "Zeros", "config": {}}, "data_format": "channels_last", "kernel_size": [7, 1], "kernel_initializer": {"class_name": "VarianceScaling", "config": {"scale": 1.0, "mode": "fan_avg", "seed": null, "distribution": "uniform"}}, "name": "conv2d_162", "trainable": true, "dilation_rate": [1, 1], "filters": 192, "padding": "same", "activity_regularizer": null, "strides": [1, 1], "bias_constraint": null}}, {"class_name": "BatchNormalization", "name": "batch_normalization_157", "inbound_nodes": [[["conv2d_157", 0, 0, {}]]], "config": {"center": true, "moving_mean_initializer": {"class_name": "Zeros", "config": {}}, "moving_variance_initializer": {"class_name": "Ones", "config": {}}, "axis": 3, "gamma_constraint": null, "beta_regularizer": null, "momentum": 0.99, "epsilon": 0.001, "scale": false, "beta_initializer": {"class_name": "Zeros", "config": {}}, "gamma_regularizer": null, "name": "batch_normalization_157", "gamma_initializer": {"class_name": "Ones", "config": {}}, "trainable": true, "beta_constraint": null}}, {"class_name": "BatchNormalization", "name": "batch_normalization_162", "inbound_nodes": [[["conv2d_162", 0, 0, {}]]], "config": {"center": true, "moving_mean_initializer": {"class_name": "Zeros", "config": {}}, "moving_variance_initializer": {"class_name": "Ones", "config": {}}, "axis": 3, "gamma_constraint": null, "beta_regularizer": null, "momentum": 0.99, "epsilon": 0.001, "scale": false, "beta_initializer": {"class_name": "Zeros", "config": {}}, "gamma_regularizer": null, "name": "batch_normalization_162", "gamma_initializer": {"class_name": "Ones", "config": {}}, "trainable": true, "beta_constraint": null}}, {"class_name": "Activation", "name": "activation_157", "inbound_nodes": [[["batch_normalization_157", 0, 0, {}]]], "config": {"name": "activation_157", "trainable": true, "activation": "relu"}}, {"class_name": "Activation", "name": "activation_162", "inbound_nodes": [[["batch_normalization_162", 0, 0, {}]]], "config": {"name": "activation_162", "trainable": true, "activation": "relu"}}, {"class_name": "AveragePooling2D", "name": "average_pooling2d_16", "inbound_nodes": [[["mixed6", 0, 0, {}]]], "config": {"name": "average_pooling2d_16", "pool_size": [3, 3], "padding": "same", "strides": [1, 1], "trainable": true, "data_format": "channels_last"}}, {"class_name": "Conv2D", "name": "conv2d_155", "inbound_nodes": [[["mixed6", 0, 0, {}]]], "config": {"bias_regularizer": null, "kernel_regularizer": null, "kernel_constraint": null, "use_bias": false, "activation": "linear", "bias_initializer": {"class_name": "Zeros", "config": {}}, "data_format": "channels_last", "kernel_size": [1, 1], "kernel_initializer": {"class_name": "VarianceScaling", "config": {"scale": 1.0, "mode": "fan_avg", "seed": null, "distribution": "uniform"}}, "name": "conv2d_155", "trainable": true, "dilation_rate": [1, 1], "filters": 192, "padding": "same", "activity_regularizer": null, "strides": [1, 1], "bias_constraint": null}}, {"class_name": "Conv2D", "name": "conv2d_158", "inbound_nodes": [[["activation_157", 0, 0, {}]]], "config": {"bias_regularizer": null, "kernel_regularizer": null, "kernel_constraint": null, "use_bias": false, "activation": "linear", "bias_initializer": {"class_name": "Zeros", "config": {}}, "data_format": "channels_last", "kernel_size": [7, 1], "kernel_initializer": {"class_name": "VarianceScaling", "config": {"scale": 1.0, "mode": "fan_avg", "seed": null, "distribution": "uniform"}}, "name": "conv2d_158", "trainable": true, "dilation_rate": [1, 1], "filters": 192, "padding": "same", "activity_regularizer": null, "strides": [1, 1], "bias_constraint": null}}, {"class_name": "Conv2D", "name": "conv2d_163", "inbound_nodes": [[["activation_162", 0, 0, {}]]], "config": {"bias_regularizer": null, "kernel_regularizer": null, "kernel_constraint": null, "use_bias": false, "activation": "linear", "bias_initializer": {"class_name": "Zeros", "config": {}}, "data_format": "channels_last", "kernel_size": [1, 7], "kernel_initializer": {"class_name": "VarianceScaling", "config": {"scale": 1.0, "mode": "fan_avg", "seed": null, "distribution": "uniform"}}, "name": "conv2d_163", "trainable": true, "dilation_rate": [1, 1], "filters": 192, "padding": "same", "activity_regularizer": null, "strides": [1, 1], "bias_constraint": null}}, {"class_name": "Conv2D", "name": "conv2d_164", "inbound_nodes": [[["average_pooling2d_16", 0, 0, {}]]], "config": {"bias_regularizer": null, "kernel_regularizer": null, "kernel_constraint": null, "use_bias": false, "activation": "linear", "bias_initializer": {"class_name": "Zeros", "config": {}}, "data_format": "channels_last", "kernel_size": [1, 1], "kernel_initializer": {"class_name": "VarianceScaling", "config": {"scale": 1.0, "mode": "fan_avg", "seed": null, "distribution": "uniform"}}, "name": "conv2d_164", "trainable": true, "dilation_rate": [1, 1], "filters": 192, "padding": "same", "activity_regularizer": null, "strides": [1, 1], "bias_constraint": null}}, {"class_name": "BatchNormalization", "name": "batch_normalization_155", "inbound_nodes": [[["conv2d_155", 0, 0, {}]]], "config": {"center": true, "moving_mean_initializer": {"class_name": "Zeros", "config": {}}, "moving_variance_initializer": {"class_name": "Ones", "config": {}}, "axis": 3, "gamma_constraint": null, "beta_regularizer": null, "momentum": 0.99, "epsilon": 0.001, "scale": false, "beta_initializer": {"class_name": "Zeros", "config": {}}, "gamma_regularizer": null, "name": "batch_normalization_155", "gamma_initializer": {"class_name": "Ones", "config": {}}, "trainable": true, "beta_constraint": null}}, {"class_name": "BatchNormalization", "name": "batch_normalization_158", "inbound_nodes": [[["conv2d_158", 0, 0, {}]]], "config": {"center": true, "moving_mean_initializer": {"class_name": "Zeros", "config": {}}, "moving_variance_initializer": {"class_name": "Ones", "config": {}}, "axis": 3, "gamma_constraint": null, "beta_regularizer": null, "momentum": 0.99, "epsilon": 0.001, "scale": false, "beta_initializer": {"class_name": "Zeros", "config": {}}, "gamma_regularizer": null, "name": "batch_normalization_158", "gamma_initializer": {"class_name": "Ones", "config": {}}, "trainable": true, "beta_constraint": null}}, {"class_name": "BatchNormalization", "name": "batch_normalization_163", "inbound_nodes": [[["conv2d_163", 0, 0, {}]]], "config": {"center": true, "moving_mean_initializer": {"class_name": "Zeros", "config": {}}, "moving_variance_initializer": {"class_name": "Ones", "config": {}}, "axis": 3, "gamma_constraint": null, "beta_regularizer": null, "momentum": 0.99, "epsilon": 0.001, "scale": false, "beta_initializer": {"class_name": "Zeros", "config": {}}, "gamma_regularizer": null, "name": "batch_normalization_163", "gamma_initializer": {"class_name": "Ones", "config": {}}, "trainable": true, "beta_constraint": null}}, {"class_name": "BatchNormalization", "name": "batch_normalization_164", "inbound_nodes": [[["conv2d_164", 0, 0, {}]]], "config": {"center": true, "moving_mean_initializer": {"class_name": "Zeros", "config": {}}, "moving_variance_initializer": {"class_name": "Ones", "config": {}}, "axis": 3, "gamma_constraint": null, "beta_regularizer": null, "momentum": 0.99, "epsilon": 0.001, "scale": false, "beta_initializer": {"class_name": "Zeros", "config": {}}, "gamma_regularizer": null, "name": "batch_normalization_164", "gamma_initializer": {"class_name": "Ones", "config": {}}, "trainable": true, "beta_constraint": null}}, {"class_name": "Activation", "name": "activation_155", "inbound_nodes": [[["batch_normalization_155", 0, 0, {}]]], "config": {"name": "activation_155", "trainable": true, "activation": "relu"}}, {"class_name": "Activation", "name": "activation_158", "inbound_nodes": [[["batch_normalization_158", 0, 0, {}]]], "config": {"name": "activation_158", "trainable": true, "activation": "relu"}}, {"class_name": "Activation", "name": "activation_163", "inbound_nodes": [[["batch_normalization_163", 0, 0, {}]]], "config": {"name": "activation_163", "trainable": true, "activation": "relu"}}, {"class_name": "Activation", "name": "activation_164", "inbound_nodes": [[["batch_normalization_164", 0, 0, {}]]], "config": {"name": "activation_164", "trainable": true, "activation": "relu"}}, {"class_name": "Concatenate", "name": "mixed7", "inbound_nodes": [[["activation_155", 0, 0, {}], ["activation_158", 0, 0, {}], ["activation_163", 0, 0, {}], ["activation_164", 0, 0, {}]]], "config": {"name": "mixed7", "trainable": true, "axis": 3}}, {"class_name": "Conv2D", "name": "conv2d_167", "inbound_nodes": [[["mixed7", 0, 0, {}]]], "config": {"bias_regularizer": null, "kernel_regularizer": null, "kernel_constraint": null, "use_bias": false, "activation": "linear", "bias_initializer": {"class_name": "Zeros", "config": {}}, "data_format": "channels_last", "kernel_size": [1, 1], "kernel_initializer": {"class_name": "VarianceScaling", "config": {"scale": 1.0, "mode": "fan_avg", "seed": null, "distribution": "uniform"}}, "name": "conv2d_167", "trainable": true, "dilation_rate": [1, 1], "filters": 192, "padding": "same", "activity_regularizer": null, "strides": [1, 1], "bias_constraint": null}}, {"class_name": "BatchNormalization", "name": "batch_normalization_167", "inbound_nodes": [[["conv2d_167", 0, 0, {}]]], "config": {"center": true, "moving_mean_initializer": {"class_name": "Zeros", "config": {}}, "moving_variance_initializer": {"class_name": "Ones", "config": {}}, "axis": 3, "gamma_constraint": null, "beta_regularizer": null, "momentum": 0.99, "epsilon": 0.001, "scale": false, "beta_initializer": {"class_name": "Zeros", "config": {}}, "gamma_regularizer": null, "name": "batch_normalization_167", "gamma_initializer": {"class_name": "Ones", "config": {}}, "trainable": true, "beta_constraint": null}}, {"class_name": "Activation", "name": "activation_167", "inbound_nodes": [[["batch_normalization_167", 0, 0, {}]]], "config": {"name": "activation_167", "trainable": true, "activation": "relu"}}, {"class_name": "Conv2D", "name": "conv2d_168", "inbound_nodes": [[["activation_167", 0, 0, {}]]], "config": {"bias_regularizer": null, "kernel_regularizer": null, "kernel_constraint": null, "use_bias": false, "activation": "linear", "bias_initializer": {"class_name": "Zeros", "config": {}}, "data_format": "channels_last", "kernel_size": [1, 7], "kernel_initializer": {"class_name": "VarianceScaling", "config": {"scale": 1.0, "mode": "fan_avg", "seed": null, "distribution": "uniform"}}, "name": "conv2d_168", "trainable": true, "dilation_rate": [1, 1], "filters": 192, "padding": "same", "activity_regularizer": null, "strides": [1, 1], "bias_constraint": null}}, {"class_name": "BatchNormalization", "name": "batch_normalization_168", "inbound_nodes": [[["conv2d_168", 0, 0, {}]]], "config": {"center": true, "moving_mean_initializer": {"class_name": "Zeros", "config": {}}, "moving_variance_initializer": {"class_name": "Ones", "config": {}}, "axis": 3, "gamma_constraint": null, "beta_regularizer": null, "momentum": 0.99, "epsilon": 0.001, "scale": false, "beta_initializer": {"class_name": "Zeros", "config": {}}, "gamma_regularizer": null, "name": "batch_normalization_168", "gamma_initializer": {"class_name": "Ones", "config": {}}, "trainable": true, "beta_constraint": null}}, {"class_name": "Activation", "name": "activation_168", "inbound_nodes": [[["batch_normalization_168", 0, 0, {}]]], "config": {"name": "activation_168", "trainable": true, "activation": "relu"}}, {"class_name": "Conv2D", "name": "conv2d_165", "inbound_nodes": [[["mixed7", 0, 0, {}]]], "config": {"bias_regularizer": null, "kernel_regularizer": null, "kernel_constraint": null, "use_bias": false, "activation": "linear", "bias_initializer": {"class_name": "Zeros", "config": {}}, "data_format": "channels_last", "kernel_size": [1, 1], "kernel_initializer": {"class_name": "VarianceScaling", "config": {"scale": 1.0, "mode": "fan_avg", "seed": null, "distribution": "uniform"}}, "name": "conv2d_165", "trainable": true, "dilation_rate": [1, 1], "filters": 192, "padding": "same", "activity_regularizer": null, "strides": [1, 1], "bias_constraint": null}}, {"class_name": "Conv2D", "name": "conv2d_169", "inbound_nodes": [[["activation_168", 0, 0, {}]]], "config": {"bias_regularizer": null, "kernel_regularizer": null, "kernel_constraint": null, "use_bias": false, "activation": "linear", "bias_initializer": {"class_name": "Zeros", "config": {}}, "data_format": "channels_last", "kernel_size": [7, 1], "kernel_initializer": {"class_name": "VarianceScaling", "config": {"scale": 1.0, "mode": "fan_avg", "seed": null, "distribution": "uniform"}}, "name": "conv2d_169", "trainable": true, "dilation_rate": [1, 1], "filters": 192, "padding": "same", "activity_regularizer": null, "strides": [1, 1], "bias_constraint": null}}, {"class_name": "BatchNormalization", "name": "batch_normalization_165", "inbound_nodes": [[["conv2d_165", 0, 0, {}]]], "config": {"center": true, "moving_mean_initializer": {"class_name": "Zeros", "config": {}}, "moving_variance_initializer": {"class_name": "Ones", "config": {}}, "axis": 3, "gamma_constraint": null, "beta_regularizer": null, "momentum": 0.99, "epsilon": 0.001, "scale": false, "beta_initializer": {"class_name": "Zeros", "config": {}}, "gamma_regularizer": null, "name": "batch_normalization_165", "gamma_initializer": {"class_name": "Ones", "config": {}}, "trainable": true, "beta_constraint": null}}, {"class_name": "BatchNormalization", "name": "batch_normalization_169", "inbound_nodes": [[["conv2d_169", 0, 0, {}]]], "config": {"center": true, "moving_mean_initializer": {"class_name": "Zeros", "config": {}}, "moving_variance_initializer": {"class_name": "Ones", "config": {}}, "axis": 3, "gamma_constraint": null, "beta_regularizer": null, "momentum": 0.99, "epsilon": 0.001, "scale": false, "beta_initializer": {"class_name": "Zeros", "config": {}}, "gamma_regularizer": null, "name": "batch_normalization_169", "gamma_initializer": {"class_name": "Ones", "config": {}}, "trainable": true, "beta_constraint": null}}, {"class_name": "Activation", "name": "activation_165", "inbound_nodes": [[["batch_normalization_165", 0, 0, {}]]], "config": {"name": "activation_165", "trainable": true, "activation": "relu"}}, {"class_name": "Activation", "name": "activation_169", "inbound_nodes": [[["batch_normalization_169", 0, 0, {}]]], "config": {"name": "activation_169", "trainable": true, "activation": "relu"}}, {"class_name": "Conv2D", "name": "conv2d_166", "inbound_nodes": [[["activation_165", 0, 0, {}]]], "config": {"bias_regularizer": null, "kernel_regularizer": null, "kernel_constraint": null, "use_bias": false, "activation": "linear", "bias_initializer": {"class_name": "Zeros", "config": {}}, "data_format": "channels_last", "kernel_size": [3, 3], "kernel_initializer": {"class_name": "VarianceScaling", "config": {"scale": 1.0, "mode": "fan_avg", "seed": null, "distribution": "uniform"}}, "name": "conv2d_166", "trainable": true, "dilation_rate": [1, 1], "filters": 320, "padding": "valid", "activity_regularizer": null, "strides": [2, 2], "bias_constraint": null}}, {"class_name": "Conv2D", "name": "conv2d_170", "inbound_nodes": [[["activation_169", 0, 0, {}]]], "config": {"bias_regularizer": null, "kernel_regularizer": null, "kernel_constraint": null, "use_bias": false, "activation": "linear", "bias_initializer": {"class_name": "Zeros", "config": {}}, "data_format": "channels_last", "kernel_size": [3, 3], "kernel_initializer": {"class_name": "VarianceScaling", "config": {"scale": 1.0, "mode": "fan_avg", "seed": null, "distribution": "uniform"}}, "name": "conv2d_170", "trainable": true, "dilation_rate": [1, 1], "filters": 192, "padding": "valid", "activity_regularizer": null, "strides": [2, 2], "bias_constraint": null}}, {"class_name": "BatchNormalization", "name": "batch_normalization_166", "inbound_nodes": [[["conv2d_166", 0, 0, {}]]], "config": {"center": true, "moving_mean_initializer": {"class_name": "Zeros", "config": {}}, "moving_variance_initializer": {"class_name": "Ones", "config": {}}, "axis": 3, "gamma_constraint": null, "beta_regularizer": null, "momentum": 0.99, "epsilon": 0.001, "scale": false, "beta_initializer": {"class_name": "Zeros", "config": {}}, "gamma_regularizer": null, "name": "batch_normalization_166", "gamma_initializer": {"class_name": "Ones", "config": {}}, "trainable": true, "beta_constraint": null}}, {"class_name": "BatchNormalization", "name": "batch_normalization_170", "inbound_nodes": [[["conv2d_170", 0, 0, {}]]], "config": {"center": true, "moving_mean_initializer": {"class_name": "Zeros", "config": {}}, "moving_variance_initializer": {"class_name": "Ones", "config": {}}, "axis": 3, "gamma_constraint": null, "beta_regularizer": null, "momentum": 0.99, "epsilon": 0.001, "scale": false, "beta_initializer": {"class_name": "Zeros", "config": {}}, "gamma_regularizer": null, "name": "batch_normalization_170", "gamma_initializer": {"class_name": "Ones", "config": {}}, "trainable": true, "beta_constraint": null}}, {"class_name": "Activation", "name": "activation_166", "inbound_nodes": [[["batch_normalization_166", 0, 0, {}]]], "config": {"name": "activation_166", "trainable": true, "activation": "relu"}}, {"class_name": "Activation", "name": "activation_170", "inbound_nodes": [[["batch_normalization_170", 0, 0, {}]]], "config": {"name": "activation_170", "trainable": true, "activation": "relu"}}, {"class_name": "MaxPooling2D", "name": "max_pooling2d_8", "inbound_nodes": [[["mixed7", 0, 0, {}]]], "config": {"name": "max_pooling2d_8", "pool_size": [3, 3], "padding": "valid", "strides": [2, 2], "trainable": true, "data_format": "channels_last"}}, {"class_name": "Concatenate", "name": "mixed8", "inbound_nodes": [[["activation_166", 0, 0, {}], ["activation_170", 0, 0, {}], ["max_pooling2d_8", 0, 0, {}]]], "config": {"name": "mixed8", "trainable": true, "axis": 3}}, {"class_name": "Conv2D", "name": "conv2d_175", "inbound_nodes": [[["mixed8", 0, 0, {}]]], "config": {"bias_regularizer": null, "kernel_regularizer": null, "kernel_constraint": null, "use_bias": false, "activation": "linear", "bias_initializer": {"class_name": "Zeros", "config": {}}, "data_format": "channels_last", "kernel_size": [1, 1], "kernel_initializer": {"class_name": "VarianceScaling", "config": {"scale": 1.0, "mode": "fan_avg", "seed": null, "distribution": "uniform"}}, "name": "conv2d_175", "trainable": true, "dilation_rate": [1, 1], "filters": 448, "padding": "same", "activity_regularizer": null, "strides": [1, 1], "bias_constraint": null}}, {"class_name": "BatchNormalization", "name": "batch_normalization_175", "inbound_nodes": [[["conv2d_175", 0, 0, {}]]], "config": {"center": true, "moving_mean_initializer": {"class_name": "Zeros", "config": {}}, "moving_variance_initializer": {"class_name": "Ones", "config": {}}, "axis": 3, "gamma_constraint": null, "beta_regularizer": null, "momentum": 0.99, "epsilon": 0.001, "scale": false, "beta_initializer": {"class_name": "Zeros", "config": {}}, "gamma_regularizer": null, "name": "batch_normalization_175", "gamma_initializer": {"class_name": "Ones", "config": {}}, "trainable": true, "beta_constraint": null}}, {"class_name": "Activation", "name": "activation_175", "inbound_nodes": [[["batch_normalization_175", 0, 0, {}]]], "config": {"name": "activation_175", "trainable": true, "activation": "relu"}}, {"class_name": "Conv2D", "name": "conv2d_172", "inbound_nodes": [[["mixed8", 0, 0, {}]]], "config": {"bias_regularizer": null, "kernel_regularizer": null, "kernel_constraint": null, "use_bias": false, "activation": "linear", "bias_initializer": {"class_name": "Zeros", "config": {}}, "data_format": "channels_last", "kernel_size": [1, 1], "kernel_initializer": {"class_name": "VarianceScaling", "config": {"scale": 1.0, "mode": "fan_avg", "seed": null, "distribution": "uniform"}}, "name": "conv2d_172", "trainable": true, "dilation_rate": [1, 1], "filters": 384, "padding": "same", "activity_regularizer": null, "strides": [1, 1], "bias_constraint": null}}, {"class_name": "Conv2D", "name": "conv2d_176", "inbound_nodes": [[["activation_175", 0, 0, {}]]], "config": {"bias_regularizer": null, "kernel_regularizer": null, "kernel_constraint": null, "use_bias": false, "activation": "linear", "bias_initializer": {"class_name": "Zeros", "config": {}}, "data_format": "channels_last", "kernel_size": [3, 3], "kernel_initializer": {"class_name": "VarianceScaling", "config": {"scale": 1.0, "mode": "fan_avg", "seed": null, "distribution": "uniform"}}, "name": "conv2d_176", "trainable": true, "dilation_rate": [1, 1], "filters": 384, "padding": "same", "activity_regularizer": null, "strides": [1, 1], "bias_constraint": null}}, {"class_name": "BatchNormalization", "name": "batch_normalization_172", "inbound_nodes": [[["conv2d_172", 0, 0, {}]]], "config": {"center": true, "moving_mean_initializer": {"class_name": "Zeros", "config": {}}, "moving_variance_initializer": {"class_name": "Ones", "config": {}}, "axis": 3, "gamma_constraint": null, "beta_regularizer": null, "momentum": 0.99, "epsilon": 0.001, "scale": false, "beta_initializer": {"class_name": "Zeros", "config": {}}, "gamma_regularizer": null, "name": "batch_normalization_172", "gamma_initializer": {"class_name": "Ones", "config": {}}, "trainable": true, "beta_constraint": null}}, {"class_name": "BatchNormalization", "name": "batch_normalization_176", "inbound_nodes": [[["conv2d_176", 0, 0, {}]]], "config": {"center": true, "moving_mean_initializer": {"class_name": "Zeros", "config": {}}, "moving_variance_initializer": {"class_name": "Ones", "config": {}}, "axis": 3, "gamma_constraint": null, "beta_regularizer": null, "momentum": 0.99, "epsilon": 0.001, "scale": false, "beta_initializer": {"class_name": "Zeros", "config": {}}, "gamma_regularizer": null, "name": "batch_normalization_176", "gamma_initializer": {"class_name": "Ones", "config": {}}, "trainable": true, "beta_constraint": null}}, {"class_name": "Activation", "name": "activation_172", "inbound_nodes": [[["batch_normalization_172", 0, 0, {}]]], "config": {"name": "activation_172", "trainable": true, "activation": "relu"}}, {"class_name": "Activation", "name": "activation_176", "inbound_nodes": [[["batch_normalization_176", 0, 0, {}]]], "config": {"name": "activation_176", "trainable": true, "activation": "relu"}}, {"class_name": "Conv2D", "name": "conv2d_173", "inbound_nodes": [[["activation_172", 0, 0, {}]]], "config": {"bias_regularizer": null, "kernel_regularizer": null, "kernel_constraint": null, "use_bias": false, "activation": "linear", "bias_initializer": {"class_name": "Zeros", "config": {}}, "data_format": "channels_last", "kernel_size": [1, 3], "kernel_initializer": {"class_name": "VarianceScaling", "config": {"scale": 1.0, "mode": "fan_avg", "seed": null, "distribution": "uniform"}}, "name": "conv2d_173", "trainable": true, "dilation_rate": [1, 1], "filters": 384, "padding": "same", "activity_regularizer": null, "strides": [1, 1], "bias_constraint": null}}, {"class_name": "Conv2D", "name": "conv2d_174", "inbound_nodes": [[["activation_172", 0, 0, {}]]], "config": {"bias_regularizer": null, "kernel_regularizer": null, "kernel_constraint": null, "use_bias": false, "activation": "linear", "bias_initializer": {"class_name": "Zeros", "config": {}}, "data_format": "channels_last", "kernel_size": [3, 1], "kernel_initializer": {"class_name": "VarianceScaling", "config": {"scale": 1.0, "mode": "fan_avg", "seed": null, "distribution": "uniform"}}, "name": "conv2d_174", "trainable": true, "dilation_rate": [1, 1], "filters": 384, "padding": "same", "activity_regularizer": null, "strides": [1, 1], "bias_constraint": null}}, {"class_name": "Conv2D", "name": "conv2d_177", "inbound_nodes": [[["activation_176", 0, 0, {}]]], "config": {"bias_regularizer": null, "kernel_regularizer": null, "kernel_constraint": null, "use_bias": false, "activation": "linear", "bias_initializer": {"class_name": "Zeros", "config": {}}, "data_format": "channels_last", "kernel_size": [1, 3], "kernel_initializer": {"class_name": "VarianceScaling", "config": {"scale": 1.0, "mode": "fan_avg", "seed": null, "distribution": "uniform"}}, "name": "conv2d_177", "trainable": true, "dilation_rate": [1, 1], "filters": 384, "padding": "same", "activity_regularizer": null, "strides": [1, 1], "bias_constraint": null}}, {"class_name": "Conv2D", "name": "conv2d_178", "inbound_nodes": [[["activation_176", 0, 0, {}]]], "config": {"bias_regularizer": null, "kernel_regularizer": null, "kernel_constraint": null, "use_bias": false, "activation": "linear", "bias_initializer": {"class_name": "Zeros", "config": {}}, "data_format": "channels_last", "kernel_size": [3, 1], "kernel_initializer": {"class_name": "VarianceScaling", "config": {"scale": 1.0, "mode": "fan_avg", "seed": null, "distribution": "uniform"}}, "name": "conv2d_178", "trainable": true, "dilation_rate": [1, 1], "filters": 384, "padding": "same", "activity_regularizer": null, "strides": [1, 1], "bias_constraint": null}}, {"class_name": "AveragePooling2D", "name": "average_pooling2d_17", "inbound_nodes": [[["mixed8", 0, 0, {}]]], "config": {"name": "average_pooling2d_17", "pool_size": [3, 3], "padding": "same", "strides": [1, 1], "trainable": true, "data_format": "channels_last"}}, {"class_name": "Conv2D", "name": "conv2d_171", "inbound_nodes": [[["mixed8", 0, 0, {}]]], "config": {"bias_regularizer": null, "kernel_regularizer": null, "kernel_constraint": null, "use_bias": false, "activation": "linear", "bias_initializer": {"class_name": "Zeros", "config": {}}, "data_format": "channels_last", "kernel_size": [1, 1], "kernel_initializer": {"class_name": "VarianceScaling", "config": {"scale": 1.0, "mode": "fan_avg", "seed": null, "distribution": "uniform"}}, "name": "conv2d_171", "trainable": true, "dilation_rate": [1, 1], "filters": 320, "padding": "same", "activity_regularizer": null, "strides": [1, 1], "bias_constraint": null}}, {"class_name": "BatchNormalization", "name": "batch_normalization_173", "inbound_nodes": [[["conv2d_173", 0, 0, {}]]], "config": {"center": true, "moving_mean_initializer": {"class_name": "Zeros", "config": {}}, "moving_variance_initializer": {"class_name": "Ones", "config": {}}, "axis": 3, "gamma_constraint": null, "beta_regularizer": null, "momentum": 0.99, "epsilon": 0.001, "scale": false, "beta_initializer": {"class_name": "Zeros", "config": {}}, "gamma_regularizer": null, "name": "batch_normalization_173", "gamma_initializer": {"class_name": "Ones", "config": {}}, "trainable": true, "beta_constraint": null}}, {"class_name": "BatchNormalization", "name": "batch_normalization_174", "inbound_nodes": [[["conv2d_174", 0, 0, {}]]], "config": {"center": true, "moving_mean_initializer": {"class_name": "Zeros", "config": {}}, "moving_variance_initializer": {"class_name": "Ones", "config": {}}, "axis": 3, "gamma_constraint": null, "beta_regularizer": null, "momentum": 0.99, "epsilon": 0.001, "scale": false, "beta_initializer": {"class_name": "Zeros", "config": {}}, "gamma_regularizer": null, "name": "batch_normalization_174", "gamma_initializer": {"class_name": "Ones", "config": {}}, "trainable": true, "beta_constraint": null}}, {"class_name": "BatchNormalization", "name": "batch_normalization_177", "inbound_nodes": [[["conv2d_177", 0, 0, {}]]], "config": {"center": true, "moving_mean_initializer": {"class_name": "Zeros", "config": {}}, "moving_variance_initializer": {"class_name": "Ones", "config": {}}, "axis": 3, "gamma_constraint": null, "beta_regularizer": null, "momentum": 0.99, "epsilon": 0.001, "scale": false, "beta_initializer": {"class_name": "Zeros", "config": {}}, "gamma_regularizer": null, "name": "batch_normalization_177", "gamma_initializer": {"class_name": "Ones", "config": {}}, "trainable": true, "beta_constraint": null}}, {"class_name": "BatchNormalization", "name": "batch_normalization_178", "inbound_nodes": [[["conv2d_178", 0, 0, {}]]], "config": {"center": true, "moving_mean_initializer": {"class_name": "Zeros", "config": {}}, "moving_variance_initializer": {"class_name": "Ones", "config": {}}, "axis": 3, "gamma_constraint": null, "beta_regularizer": null, "momentum": 0.99, "epsilon": 0.001, "scale": false, "beta_initializer": {"class_name": "Zeros", "config": {}}, "gamma_regularizer": null, "name": "batch_normalization_178", "gamma_initializer": {"class_name": "Ones", "config": {}}, "trainable": true, "beta_constraint": null}}, {"class_name": "Conv2D", "name": "conv2d_179", "inbound_nodes": [[["average_pooling2d_17", 0, 0, {}]]], "config": {"bias_regularizer": null, "kernel_regularizer": null, "kernel_constraint": null, "use_bias": false, "activation": "linear", "bias_initializer": {"class_name": "Zeros", "config": {}}, "data_format": "channels_last", "kernel_size": [1, 1], "kernel_initializer": {"class_name": "VarianceScaling", "config": {"scale": 1.0, "mode": "fan_avg", "seed": null, "distribution": "uniform"}}, "name": "conv2d_179", "trainable": true, "dilation_rate": [1, 1], "filters": 192, "padding": "same", "activity_regularizer": null, "strides": [1, 1], "bias_constraint": null}}, {"class_name": "BatchNormalization", "name": "batch_normalization_171", "inbound_nodes": [[["conv2d_171", 0, 0, {}]]], "config": {"center": true, "moving_mean_initializer": {"class_name": "Zeros", "config": {}}, "moving_variance_initializer": {"class_name": "Ones", "config": {}}, "axis": 3, "gamma_constraint": null, "beta_regularizer": null, "momentum": 0.99, "epsilon": 0.001, "scale": false, "beta_initializer": {"class_name": "Zeros", "config": {}}, "gamma_regularizer": null, "name": "batch_normalization_171", "gamma_initializer": {"class_name": "Ones", "config": {}}, "trainable": true, "beta_constraint": null}}, {"class_name": "Activation", "name": "activation_173", "inbound_nodes": [[["batch_normalization_173", 0, 0, {}]]], "config": {"name": "activation_173", "trainable": true, "activation": "relu"}}, {"class_name": "Activation", "name": "activation_174", "inbound_nodes": [[["batch_normalization_174", 0, 0, {}]]], "config": {"name": "activation_174", "trainable": true, "activation": "relu"}}, {"class_name": "Activation", "name": "activation_177", "inbound_nodes": [[["batch_normalization_177", 0, 0, {}]]], "config": {"name": "activation_177", "trainable": true, "activation": "relu"}}, {"class_name": "Activation", "name": "activation_178", "inbound_nodes": [[["batch_normalization_178", 0, 0, {}]]], "config": {"name": "activation_178", "trainable": true, "activation": "relu"}}, {"class_name": "BatchNormalization", "name": "batch_normalization_179", "inbound_nodes": [[["conv2d_179", 0, 0, {}]]], "config": {"center": true, "moving_mean_initializer": {"class_name": "Zeros", "config": {}}, "moving_variance_initializer": {"class_name": "Ones", "config": {}}, "axis": 3, "gamma_constraint": null, "beta_regularizer": null, "momentum": 0.99, "epsilon": 0.001, "scale": false, "beta_initializer": {"class_name": "Zeros", "config": {}}, "gamma_regularizer": null, "name": "batch_normalization_179", "gamma_initializer": {"class_name": "Ones", "config": {}}, "trainable": true, "beta_constraint": null}}, {"class_name": "Activation", "name": "activation_171", "inbound_nodes": [[["batch_normalization_171", 0, 0, {}]]], "config": {"name": "activation_171", "trainable": true, "activation": "relu"}}, {"class_name": "Concatenate", "name": "mixed9_0", "inbound_nodes": [[["activation_173", 0, 0, {}], ["activation_174", 0, 0, {}]]], "config": {"name": "mixed9_0", "trainable": true, "axis": 3}}, {"class_name": "Concatenate", "name": "concatenate_3", "inbound_nodes": [[["activation_177", 0, 0, {}], ["activation_178", 0, 0, {}]]], "config": {"name": "concatenate_3", "trainable": true, "axis": 3}}, {"class_name": "Activation", "name": "activation_179", "inbound_nodes": [[["batch_normalization_179", 0, 0, {}]]], "config": {"name": "activation_179", "trainable": true, "activation": "relu"}}, {"class_name": "Concatenate", "name": "mixed9", "inbound_nodes": [[["activation_171", 0, 0, {}], ["mixed9_0", 0, 0, {}], ["concatenate_3", 0, 0, {}], ["activation_179", 0, 0, {}]]], "config": {"name": "mixed9", "trainable": true, "axis": 3}}, {"class_name": "Conv2D", "name": "conv2d_184", "inbound_nodes": [[["mixed9", 0, 0, {}]]], "config": {"bias_regularizer": null, "kernel_regularizer": null, "kernel_constraint": null, "use_bias": false, "activation": "linear", "bias_initializer": {"class_name": "Zeros", "config": {}}, "data_format": "channels_last", "kernel_size": [1, 1], "kernel_initializer": {"class_name": "VarianceScaling", "config": {"scale": 1.0, "mode": "fan_avg", "seed": null, "distribution": "uniform"}}, "name": "conv2d_184", "trainable": true, "dilation_rate": [1, 1], "filters": 448, "padding": "same", "activity_regularizer": null, "strides": [1, 1], "bias_constraint": null}}, {"class_name": "BatchNormalization", "name": "batch_normalization_184", "inbound_nodes": [[["conv2d_184", 0, 0, {}]]], "config": {"center": true, "moving_mean_initializer": {"class_name": "Zeros", "config": {}}, "moving_variance_initializer": {"class_name": "Ones", "config": {}}, "axis": 3, "gamma_constraint": null, "beta_regularizer": null, "momentum": 0.99, "epsilon": 0.001, "scale": false, "beta_initializer": {"class_name": "Zeros", "config": {}}, "gamma_regularizer": null, "name": "batch_normalization_184", "gamma_initializer": {"class_name": "Ones", "config": {}}, "trainable": true, "beta_constraint": null}}, {"class_name": "Activation", "name": "activation_184", "inbound_nodes": [[["batch_normalization_184", 0, 0, {}]]], "config": {"name": "activation_184", "trainable": true, "activation": "relu"}}, {"class_name": "Conv2D", "name": "conv2d_181", "inbound_nodes": [[["mixed9", 0, 0, {}]]], "config": {"bias_regularizer": null, "kernel_regularizer": null, "kernel_constraint": null, "use_bias": false, "activation": "linear", "bias_initializer": {"class_name": "Zeros", "config": {}}, "data_format": "channels_last", "kernel_size": [1, 1], "kernel_initializer": {"class_name": "VarianceScaling", "config": {"scale": 1.0, "mode": "fan_avg", "seed": null, "distribution": "uniform"}}, "name": "conv2d_181", "trainable": true, "dilation_rate": [1, 1], "filters": 384, "padding": "same", "activity_regularizer": null, "strides": [1, 1], "bias_constraint": null}}, {"class_name": "Conv2D", "name": "conv2d_185", "inbound_nodes": [[["activation_184", 0, 0, {}]]], "config": {"bias_regularizer": null, "kernel_regularizer": null, "kernel_constraint": null, "use_bias": false, "activation": "linear", "bias_initializer": {"class_name": "Zeros", "config": {}}, "data_format": "channels_last", "kernel_size": [3, 3], "kernel_initializer": {"class_name": "VarianceScaling", "config": {"scale": 1.0, "mode": "fan_avg", "seed": null, "distribution": "uniform"}}, "name": "conv2d_185", "trainable": true, "dilation_rate": [1, 1], "filters": 384, "padding": "same", "activity_regularizer": null, "strides": [1, 1], "bias_constraint": null}}, {"class_name": "BatchNormalization", "name": "batch_normalization_181", "inbound_nodes": [[["conv2d_181", 0, 0, {}]]], "config": {"center": true, "moving_mean_initializer": {"class_name": "Zeros", "config": {}}, "moving_variance_initializer": {"class_name": "Ones", "config": {}}, "axis": 3, "gamma_constraint": null, "beta_regularizer": null, "momentum": 0.99, "epsilon": 0.001, "scale": false, "beta_initializer": {"class_name": "Zeros", "config": {}}, "gamma_regularizer": null, "name": "batch_normalization_181", "gamma_initializer": {"class_name": "Ones", "config": {}}, "trainable": true, "beta_constraint": null}}, {"class_name": "BatchNormalization", "name": "batch_normalization_185", "inbound_nodes": [[["conv2d_185", 0, 0, {}]]], "config": {"center": true, "moving_mean_initializer": {"class_name": "Zeros", "config": {}}, "moving_variance_initializer": {"class_name": "Ones", "config": {}}, "axis": 3, "gamma_constraint": null, "beta_regularizer": null, "momentum": 0.99, "epsilon": 0.001, "scale": false, "beta_initializer": {"class_name": "Zeros", "config": {}}, "gamma_regularizer": null, "name": "batch_normalization_185", "gamma_initializer": {"class_name": "Ones", "config": {}}, "trainable": true, "beta_constraint": null}}, {"class_name": "Activation", "name": "activation_181", "inbound_nodes": [[["batch_normalization_181", 0, 0, {}]]], "config": {"name": "activation_181", "trainable": true, "activation": "relu"}}, {"class_name": "Activation", "name": "activation_185", "inbound_nodes": [[["batch_normalization_185", 0, 0, {}]]], "config": {"name": "activation_185", "trainable": true, "activation": "relu"}}, {"class_name": "Conv2D", "name": "conv2d_182", "inbound_nodes": [[["activation_181", 0, 0, {}]]], "config": {"bias_regularizer": null, "kernel_regularizer": null, "kernel_constraint": null, "use_bias": false, "activation": "linear", "bias_initializer": {"class_name": "Zeros", "config": {}}, "data_format": "channels_last", "kernel_size": [1, 3], "kernel_initializer": {"class_name": "VarianceScaling", "config": {"scale": 1.0, "mode": "fan_avg", "seed": null, "distribution": "uniform"}}, "name": "conv2d_182", "trainable": true, "dilation_rate": [1, 1], "filters": 384, "padding": "same", "activity_regularizer": null, "strides": [1, 1], "bias_constraint": null}}, {"class_name": "Conv2D", "name": "conv2d_183", "inbound_nodes": [[["activation_181", 0, 0, {}]]], "config": {"bias_regularizer": null, "kernel_regularizer": null, "kernel_constraint": null, "use_bias": false, "activation": "linear", "bias_initializer": {"class_name": "Zeros", "config": {}}, "data_format": "channels_last", "kernel_size": [3, 1], "kernel_initializer": {"class_name": "VarianceScaling", "config": {"scale": 1.0, "mode": "fan_avg", "seed": null, "distribution": "uniform"}}, "name": "conv2d_183", "trainable": true, "dilation_rate": [1, 1], "filters": 384, "padding": "same", "activity_regularizer": null, "strides": [1, 1], "bias_constraint": null}}, {"class_name": "Conv2D", "name": "conv2d_186", "inbound_nodes": [[["activation_185", 0, 0, {}]]], "config": {"bias_regularizer": null, "kernel_regularizer": null, "kernel_constraint": null, "use_bias": false, "activation": "linear", "bias_initializer": {"class_name": "Zeros", "config": {}}, "data_format": "channels_last", "kernel_size": [1, 3], "kernel_initializer": {"class_name": "VarianceScaling", "config": {"scale": 1.0, "mode": "fan_avg", "seed": null, "distribution": "uniform"}}, "name": "conv2d_186", "trainable": true, "dilation_rate": [1, 1], "filters": 384, "padding": "same", "activity_regularizer": null, "strides": [1, 1], "bias_constraint": null}}, {"class_name": "Conv2D", "name": "conv2d_187", "inbound_nodes": [[["activation_185", 0, 0, {}]]], "config": {"bias_regularizer": null, "kernel_regularizer": null, "kernel_constraint": null, "use_bias": false, "activation": "linear", "bias_initializer": {"class_name": "Zeros", "config": {}}, "data_format": "channels_last", "kernel_size": [3, 1], "kernel_initializer": {"class_name": "VarianceScaling", "config": {"scale": 1.0, "mode": "fan_avg", "seed": null, "distribution": "uniform"}}, "name": "conv2d_187", "trainable": true, "dilation_rate": [1, 1], "filters": 384, "padding": "same", "activity_regularizer": null, "strides": [1, 1], "bias_constraint": null}}, {"class_name": "AveragePooling2D", "name": "average_pooling2d_18", "inbound_nodes": [[["mixed9", 0, 0, {}]]], "config": {"name": "average_pooling2d_18", "pool_size": [3, 3], "padding": "same", "strides": [1, 1], "trainable": true, "data_format": "channels_last"}}, {"class_name": "Conv2D", "name": "conv2d_180", "inbound_nodes": [[["mixed9", 0, 0, {}]]], "config": {"bias_regularizer": null, "kernel_regularizer": null, "kernel_constraint": null, "use_bias": false, "activation": "linear", "bias_initializer": {"class_name": "Zeros", "config": {}}, "data_format": "channels_last", "kernel_size": [1, 1], "kernel_initializer": {"class_name": "VarianceScaling", "config": {"scale": 1.0, "mode": "fan_avg", "seed": null, "distribution": "uniform"}}, "name": "conv2d_180", "trainable": true, "dilation_rate": [1, 1], "filters": 320, "padding": "same", "activity_regularizer": null, "strides": [1, 1], "bias_constraint": null}}, {"class_name": "BatchNormalization", "name": "batch_normalization_182", "inbound_nodes": [[["conv2d_182", 0, 0, {}]]], "config": {"center": true, "moving_mean_initializer": {"class_name": "Zeros", "config": {}}, "moving_variance_initializer": {"class_name": "Ones", "config": {}}, "axis": 3, "gamma_constraint": null, "beta_regularizer": null, "momentum": 0.99, "epsilon": 0.001, "scale": false, "beta_initializer": {"class_name": "Zeros", "config": {}}, "gamma_regularizer": null, "name": "batch_normalization_182", "gamma_initializer": {"class_name": "Ones", "config": {}}, "trainable": true, "beta_constraint": null}}, {"class_name": "BatchNormalization", "name": "batch_normalization_183", "inbound_nodes": [[["conv2d_183", 0, 0, {}]]], "config": {"center": true, "moving_mean_initializer": {"class_name": "Zeros", "config": {}}, "moving_variance_initializer": {"class_name": "Ones", "config": {}}, "axis": 3, "gamma_constraint": null, "beta_regularizer": null, "momentum": 0.99, "epsilon": 0.001, "scale": false, "beta_initializer": {"class_name": "Zeros", "config": {}}, "gamma_regularizer": null, "name": "batch_normalization_183", "gamma_initializer": {"class_name": "Ones", "config": {}}, "trainable": true, "beta_constraint": null}}, {"class_name": "BatchNormalization", "name": "batch_normalization_186", "inbound_nodes": [[["conv2d_186", 0, 0, {}]]], "config": {"center": true, "moving_mean_initializer": {"class_name": "Zeros", "config": {}}, "moving_variance_initializer": {"class_name": "Ones", "config": {}}, "axis": 3, "gamma_constraint": null, "beta_regularizer": null, "momentum": 0.99, "epsilon": 0.001, "scale": false, "beta_initializer": {"class_name": "Zeros", "config": {}}, "gamma_regularizer": null, "name": "batch_normalization_186", "gamma_initializer": {"class_name": "Ones", "config": {}}, "trainable": true, "beta_constraint": null}}, {"class_name": "BatchNormalization", "name": "batch_normalization_187", "inbound_nodes": [[["conv2d_187", 0, 0, {}]]], "config": {"center": true, "moving_mean_initializer": {"class_name": "Zeros", "config": {}}, "moving_variance_initializer": {"class_name": "Ones", "config": {}}, "axis": 3, "gamma_constraint": null, "beta_regularizer": null, "momentum": 0.99, "epsilon": 0.001, "scale": false, "beta_initializer": {"class_name": "Zeros", "config": {}}, "gamma_regularizer": null, "name": "batch_normalization_187", "gamma_initializer": {"class_name": "Ones", "config": {}}, "trainable": true, "beta_constraint": null}}, {"class_name": "Conv2D", "name": "conv2d_188", "inbound_nodes": [[["average_pooling2d_18", 0, 0, {}]]], "config": {"bias_regularizer": null, "kernel_regularizer": null, "kernel_constraint": null, "use_bias": false, "activation": "linear", "bias_initializer": {"class_name": "Zeros", "config": {}}, "data_format": "channels_last", "kernel_size": [1, 1], "kernel_initializer": {"class_name": "VarianceScaling", "config": {"scale": 1.0, "mode": "fan_avg", "seed": null, "distribution": "uniform"}}, "name": "conv2d_188", "trainable": true, "dilation_rate": [1, 1], "filters": 192, "padding": "same", "activity_regularizer": null, "strides": [1, 1], "bias_constraint": null}}, {"class_name": "BatchNormalization", "name": "batch_normalization_180", "inbound_nodes": [[["conv2d_180", 0, 0, {}]]], "config": {"center": true, "moving_mean_initializer": {"class_name": "Zeros", "config": {}}, "moving_variance_initializer": {"class_name": "Ones", "config": {}}, "axis": 3, "gamma_constraint": null, "beta_regularizer": null, "momentum": 0.99, "epsilon": 0.001, "scale": false, "beta_initializer": {"class_name": "Zeros", "config": {}}, "gamma_regularizer": null, "name": "batch_normalization_180", "gamma_initializer": {"class_name": "Ones", "config": {}}, "trainable": true, "beta_constraint": null}}, {"class_name": "Activation", "name": "activation_182", "inbound_nodes": [[["batch_normalization_182", 0, 0, {}]]], "config": {"name": "activation_182", "trainable": true, "activation": "relu"}}, {"class_name": "Activation", "name": "activation_183", "inbound_nodes": [[["batch_normalization_183", 0, 0, {}]]], "config": {"name": "activation_183", "trainable": true, "activation": "relu"}}, {"class_name": "Activation", "name": "activation_186", "inbound_nodes": [[["batch_normalization_186", 0, 0, {}]]], "config": {"name": "activation_186", "trainable": true, "activation": "relu"}}, {"class_name": "Activation", "name": "activation_187", "inbound_nodes": [[["batch_normalization_187", 0, 0, {}]]], "config": {"name": "activation_187", "trainable": true, "activation": "relu"}}, {"class_name": "BatchNormalization", "name": "batch_normalization_188", "inbound_nodes": [[["conv2d_188", 0, 0, {}]]], "config": {"center": true, "moving_mean_initializer": {"class_name": "Zeros", "config": {}}, "moving_variance_initializer": {"class_name": "Ones", "config": {}}, "axis": 3, "gamma_constraint": null, "beta_regularizer": null, "momentum": 0.99, "epsilon": 0.001, "scale": false, "beta_initializer": {"class_name": "Zeros", "config": {}}, "gamma_regularizer": null, "name": "batch_normalization_188", "gamma_initializer": {"class_name": "Ones", "config": {}}, "trainable": true, "beta_constraint": null}}, {"class_name": "Activation", "name": "activation_180", "inbound_nodes": [[["batch_normalization_180", 0, 0, {}]]], "config": {"name": "activation_180", "trainable": true, "activation": "relu"}}, {"class_name": "Concatenate", "name": "mixed9_1", "inbound_nodes": [[["activation_182", 0, 0, {}], ["activation_183", 0, 0, {}]]], "config": {"name": "mixed9_1", "trainable": true, "axis": 3}}, {"class_name": "Concatenate", "name": "concatenate_4", "inbound_nodes": [[["activation_186", 0, 0, {}], ["activation_187", 0, 0, {}]]], "config": {"name": "concatenate_4", "trainable": true, "axis": 3}}, {"class_name": "Activation", "name": "activation_188", "inbound_nodes": [[["batch_normalization_188", 0, 0, {}]]], "config": {"name": "activation_188", "trainable": true, "activation": "relu"}}, {"class_name": "Concatenate", "name": "mixed10", "inbound_nodes": [[["activation_180", 0, 0, {}], ["mixed9_1", 0, 0, {}], ["concatenate_4", 0, 0, {}], ["activation_188", 0, 0, {}]]], "config": {"name": "mixed10", "trainable": true, "axis": 3}}, {"class_name": "Sequential", "name": "sequential_2", "inbound_nodes": [[["mixed10", 0, 0, {}]]], "config": [{"class_name": "GlobalAveragePooling2D", "config": {"trainable": true, "name": "global_average_pooling2d_2", "batch_input_shape": [null, 8, 8, 2048], "dtype": "float32", "data_format": "channels_last"}}, {"class_name": "Dense", "config": {"kernel_regularizer": null, "kernel_constraint": null, "units": 256, "use_bias": true, "activation": "relu", "bias_regularizer": null, "activity_regularizer": null, "trainable": true, "name": "dense_3", "kernel_initializer": {"class_name": "VarianceScaling", "config": {"seed": null, "mode": "fan_avg", "scale": 1.0, "distribution": "uniform"}}, "bias_initializer": {"class_name": "Zeros", "config": {}}, "bias_constraint": null}}, {"class_name": "Dropout", "config": {"name": "dropout_2", "rate": 0.5, "trainable": true}}, {"class_name": "Dense", "config": {"kernel_regularizer": null, "kernel_constraint": null, "units": 1, "use_bias": true, "activation": "sigmoid", "bias_regularizer": null, "activity_regularizer": null, "trainable": true, "name": "dense_4", "kernel_initializer": {"class_name": "VarianceScaling", "config": {"seed": null, "mode": "fan_avg", "scale": 1.0, "distribution": "uniform"}}, "bias_initializer": {"class_name": "Zeros", "config": {}}, "bias_constraint": null}}]}]}}